trained_models/2022-09-16_21:19:45-GraphSAGE_16_3/base_model.pt (torch, 13063 bytes, 9 tensors)

layers.0.lin_l.weight f4 [16, 14]
0.07616884 -0.061119802 0.22001213 -0.21681844 0.1904676 0.2323906 0.2523124 0.0817027
-0.0021072745 -0.005843974 -0.017587708 0.09316964 0.014550352 -0.095961556 -0.10580302 0.096576154
-0.20493206 0.25644445 0.13376684 0.04090331 0.2939273 0.026837628 -0.09153545 0.086327344
-0.053826127 0.0932965 0.17347509 0.057920914 -0.079101235 -0.1873134 -0.23170635 -0.2211665
-0.26499146 -0.020572813 -0.063078955 -0.068823606 -0.0232149 -0.11778816 -0.26226193 -0.11245845
-0.023418423 -0.055578373 -0.26591358 -0.056609087 -0.044684812 0.30450627 -0.18842724 -0.009813344
0.22572412 0.08266032 0.120175995 0.09738365 -0.06857669 0.014440865 -0.0055003143 0.08669144
0.04336057 0.02737693 -0.17556249 0.11748722 -0.22270602 0.25743917 -0.029491846 -0.14963287
0.17720044 -0.28387234 0.028116247 0.08482485 0.16507141 0.11319614 -0.27789927 0.19756122
-0.20676188 -0.07145641 0.04734071 0.027058821 0.16860175 -0.38060433 0.15050356 -0.1466714
0.12355863 0.23998165 0.037410133 -0.22000208 -0.007530659 0.14731783 -0.24073815 -0.32021263
-0.019726101 -0.13502263 -0.03532222 -0.21559934 0.23219374 0.19538012 0.17780428 -0.1341824
-0.092976965 -0.2520979 0.24327838 -0.048215892 -0.17511857 0.009773381 -0.23700875 -0.119959734
0.22057632 0.020598274 -0.106280915 0.16609363 0.005253867 0.16256139 0.05465075 -0.2103779
-0.004124199 -0.06874042 0.29040438 -0.11418541 0.22400148 -0.12932424 -0.039359853 -0.017561382
0.058992263 -0.012948284 -0.21868064 0.12097609 0.21154113 -0.016965812 -0.12836534 -0.19690332
-0.064255126 -0.27800894 0.21481527 -0.11654015 0.20541282 -0.20707515 -0.26379523 0.028247079
0.21086289 -0.21595718 0.13455568 0.07478366 -0.25975972 -0.19200853 -0.19397232 -0.15965962
0.24028476 0.288063 0.21630438 0.08180823 0.07444694 0.05255448 -0.33046183 -0.20347238
-0.20952487 -0.105436094 -0.17937922 -0.015961645 -0.21056244 0.17495735 -0.16478348 0.19004413
0.088241644 -0.14192693 0.11660113 0.22255155 -0.05152898 -0.1809772 0.04831345 0.24622087
-0.05957734 0.100185625 -0.15306501 -0.081815004 0.24046765 0.07388403 0.038374316 0.15448628
-0.13522542 -0.006698943 -0.3349743 0.124838494 -0.0037668732 -0.20028943 0.056040592 -0.14684446
0.06333568 0.081121445 0.160336 0.14770901 -0.32954803 -0.085484035 -0.049773436 -0.21268006
0.007720947 0.23023295 -0.024682349 -0.16551438 0.12444605 -0.20317727 -0.25770772 0.1065652
-0.07405939 0.09262738 -0.2370996 -0.0548959 0.007196552 -0.069291525 0.25948566 -0.10079944
0.13187891 -0.04234127 -0.120929904 -0.20197406 -0.18362845 0.23614167 -0.18396509 -0.0077843815
-0.070168585 0.022504026 0.07312745 0.21262756 0.13200639 0.152865 0.01768284 -0.060770474
00000000: 69fe 9b3d c258 7abd dc4a 613e a705 5ebe
00000010: f009 433e cdf7 6d3e 172f 813e bf53 a73d
00000020: 331a 0abb cf7e bfbb 1914 90bc b9cf be3d
00000030: 9964 6e3c 7e87 c4bd 41af d8bd b8c9 c53d
00000040: b6d9 51be b04c 833e 2dfa 083e 3b8a 273d
00000050: a47d 963e 96da db3c f076 bbbd 64cc b03d
00000060: c978 5cbd 3c12 bf3d 74a3 313e 7b3e 6d3d
00000070: d4ff a1bd 15cf 3fbe 6e44 6dbe 7979 62be
00000080: f6ac 87be 5188 a8bc 8a2f 81bd 64f3 8cbd
00000090: 2d2d bebc eb3a f1bd 3247 86be 9e50 e6bd
000000a0: fed7 bfbc 26a6 63bd d325 88be eede 67bd
000000b0: 6c07 37bd 3fe8 9b3e 12f3 40be 26c8 20bc
000000c0: 3924 673e d049 a93d d51e f63d 1471 c73d
000000d0: f071 8cbd 6199 6c3c fb3b b4bb 488b b13d
000000e0: da9a 313d 9545 e03c a7c6 33be 249d f03d
000000f0: 0c0d 64be 11cf 833e e298 f1bc 5c39 19be
00000100: 0874 353e b757 91be 0b54 e63c a7b8 ad3d
00000110: 7b08 293e 61d3 e73d d048 8ebe 7d4d 4a3e
00000120: 63b9 53be bd57 92bd 55e8 413d 76aa dd3c
00000130: f0a5 2c3e 92de c2be 9b1d 1a3e 0731 16be
00000140: 4f0c fd3d c0bd 753e 5e3b 193d 3a48 61be
00000150: bfc3 f6bb 7cda 163e 1084 76be e9f2 a3be
00000160: a298 a1bc 5f43 0abe 08ae 10bd 13c6 5cbe
00000170: 32c4 6d3e ba11 483e 5312 363e 1c67 09be
00000180: b56a bebd fa12 81be f81d 793e 077e 45bd
00000190: 4852 33be 8820 203c 6cb2 72be 73ad f5bd
000001a0: c2de 613e b6bd a83c cfa9 d9bd 7314 2a3e
000001b0: a128 ac3b 7e76 263e 77d9 5f3d 4e6d 57be
000001c0: 4a24 87bb c7c7 8cbd e2af 943e 0ada e9bd
000001d0: a560 653e 936d 04be cc37 21bd e3dc 8fbc
000001e0: dfa1 713d 0a25 54bc d1ed 5fbe 50c2 f73d
000001f0: 3d9e 583e e3fb 8abc 3472 03be 06a1 49be
00000200: 3198 83bd 3057 8ebe 89f8 5b3e 9aac eebd
00000210: bd57 523e 820b 54be 2b10 87be 6b66 e73c
00000220: 71ec 573e e123 5dbe f7c8 093e 2d28 993d
00000230: 3aff 84be e29d 44be aea0 46be d07d 23be
00000240: 350d 763e fe7c 933e e57e 5d3e 138b a73d
00000250: a377 983d 5e43 573d 4b32 a9be 105b 50be
00000260: b08d 56be e1ee d7bd 30af 37be ffc1 82bc
00000270: ae9d 57be 0528 333e 00bd 28be ee9a 423e
00000280: 09b8 b43d 4b55 11be 93cc ee3d 8ee4 633e
00000290: 0d10 53bd 1652 39be 53e4 453d 5321 7c3e
000002a0: 5e07 74bd 1f2e cd3d 13bd 1cbe a08e a7bd
000002b0: 273d 763e 8350 973d 632e 1d3d a731 1e3e
000002c0: 8878 0abe cf82 dbbb c081 abbe 53ab ff3d
000002d0: a5dd 76bb ac18 4dbe d28a 653d 655e 16be
000002e0: 23b6 813d 0023 a63d 1f2f 243e 0841 173e
000002f0: 85ba a8be 4112 afbd 3bdf 4bbd cdc8 59be
00000300: ffff fc3b 30c2 6b3e a332 cabc 9a7c 29be
00000310: 92dd fe3d b40d 50be 44f2 83be db3e da3d
00000320: 73ac 97bd 6cb3 bd3d 3dca 72be 86da 60bd
00000330: 0ed1 eb3b b7e8 8dbd 4edb 843e f06f cebd
00000340: 440b 073e 0a6e 2dbd 19aa f7bd 4ad2 4ebe
00000350: 1909 3cbe 1fcf 713e 5861 3cbe 2014 ffbb
00000360: 8cb4 8fbd 5d5a b83c d8c3 953d 0abb 593e
00000370: af2c 073e a488 1c3e 9adb 903c 76ea 78bd

layers.0.lin_r.weight f4 [16, 14]
-0.033316016 0.08017008 0.11335027 0.088274814 -0.20398538 0.124123394 -0.2327861 0.17284231
0.19627236 -0.16405495 0.19138841 0.29034972 0.26222652 0.20934826 -0.06438527 0.29438418
0.020455271 -0.17306241 0.08315109 0.045464076 -0.0033823077 0.17600979 -0.08539215 -0.15499066
-0.046441548 -0.06383629 -0.10419204 -0.03683385 -0.23971723 -0.07806381 -0.1913492 -0.18323502
-0.24377954 -0.13958582 -0.10368245 -0.25621945 0.1889414 0.20294513 0.17108774 0.2412577
-0.123151064 -0.20540076 0.23482154 -0.09643919 0.11339793 0.14192575 0.16312784 -0.06324642
0.24895799 0.019743867 0.10958267 0.123206414 0.1286263 -0.16904004 0.20672345 0.1404855
0.24901444 0.16815548 0.07144553 -0.39646673 -0.019888205 0.05099609 0.15042418 0.05593881
0.16143104 -0.028407907 0.10177587 0.2338114 -0.17829576 0.22554812 -0.01617412 0.32840464
-0.15287086 0.29500455 0.20278879 -0.056016747 0.11174967 0.029679973 -0.05987146 0.25700012
0.22268955 0.029495372 -0.08548125 0.15665844 -0.021483203 0.22513695 -0.07020084 -0.23918915
-0.16344768 -0.13449168 0.28585663 0.025392327 0.26812303 -0.12698941 -0.062155038 0.20786917
-0.15704851 0.089041434 0.15785891 0.10704566 -0.024379285 0.08837958 -0.15559234 0.20207183
0.08037409 0.1473103 0.28649125 0.16406584 -0.07824062 0.1423195 0.11838569 0.16099264
0.17140292 -0.2503607 0.037627496 -0.18115044 0.14188473 0.25503585 -0.112935245 -0.16726567
-0.08939147 0.24067733 0.15395395 0.24065405 -0.11694138 0.21017331 -0.0015542867 -0.14438027
0.22281285 0.23725793 -0.13075401 -0.06786399 0.12049893 0.02941955 -0.17262003 -0.08407678
0.16196927 0.096185654 0.0038160658 -0.22452226 0.21234873 0.1520498 0.023042474 0.16763249
-0.10771402 -0.13697207 -0.1912249 0.13631792 0.15405837 -0.07519426 -0.21069282 -0.09910696
0.037005745 0.08553065 0.12986988 -0.27947468 -0.10785202 -0.2962302 -0.17120627 0.24017614
0.08043225 0.011679894 -0.22424245 0.12907435 0.26970798 0.24335147 -0.06989588 0.12648158
-0.07007743 0.013386632 -0.17272453 0.12559877 -0.09999105 0.27674818 -0.3062937 0.31581956
0.19520089 0.16633634 0.060649242 0.06692322 0.10131322 0.19960222 -0.16375096 -0.22283907
-0.22920817 0.16275701 -0.18041024 0.17895569 -0.014460875 -0.19521247 -0.12867977 0.100817375
0.010189467 0.0005291527 0.22967005 -0.00224011 0.24552397 0.16071422 0.028244713 -0.12835151
0.25749087 -0.19938599 -0.26836738 0.16426726 -0.12677312 0.09128585 0.17696384 -0.23445824
0.15255734 0.22396742 -0.22238964 0.40468535 -0.25483504 -0.0806734 -0.03609785 0.13472411
0.02441165 -0.13190988 0.22394614 -0.21997371 0.12927783 -0.0077065257 0.13166073 -0.21550734
00000000: 6076 08bd 3630 a43d 3024 e83d 6dc9 b43d
00000010: 8be1 50be 6834 fe3d 7b5f 6ebe 93fd 303e
00000020: 9ffb 483e 05fe 27be 53fb 433e b8a8 943e
00000030: 8e42 863e 645f 563e 6ddc 83bd 86b9 963e
00000040: d091 a73c 4637 31be 1e4b aa3d 8a38 3a3d
00000050: b5a9 5dbb e93b 343e 14e2 aebd dfb5 1ebe
00000060: 7e39 3ebd 9abc 82bd a362 d5bd 17df 16bd
00000070: 6f78 75be ebdf 9fbd 0bf1 43be f6a1 3bbe
00000080: 58a1 79be 96ef 0ebe 7757 d4bd 322f 83be
00000090: db79 413e d9d0 4f3e a031 2f3e 420c 773e
000000a0: a036 fcbd 9454 52be 0f75 703e e981 c5bd
000000b0: 2d3d e83d fc54 113e fc0a 273e 5787 81bd
000000c0: d8ee 7e3e e4bd a13c e16c e03d a553 fc3d
000000d0: 9db6 033e d518 2dbe 50af 533e 6edb 0f3e
000000e0: a4fd 7e3e f330 2c3e 0952 923d b0fd cabe
000000f0: 97ec a2bc 47e1 503d cc08 1a3e 1820 653d
00000100: 2e4e 253e b3b7 e8bc de6f d03d 416c 6f3e
00000110: 2a93 36be 16f6 663e 977f 84bc a724 a83e
00000120: 2e8a 1cbe d60a 973e dda7 4f3e d171 65bd
00000130: 03dd e43d 6a23 f33c c73b 75bd 8595 833e
00000140: bb08 643e 47a0 f13c cb10 afbd 126b 203e
00000150: 8bfd afbc 4d8a 663e 75c5 8fbd 00ee 74be
00000160: d45e 27be 30b8 09be cd5b 923e 9203 d03c
00000170: 6c47 893e 8309 02be 4896 7ebd a8db 543e
00000180: 53d1 20be 5b5b b63d c4a5 213e c13a db3d
00000190: 11b7 c7bc 5a00 b53d 9953 1fbe ebeb 4e3e
000001a0: 2c9b a43d 83d8 163e fbae 923e e000 283e
000001b0: 9e3c a0bd 34bc 113e 3274 f23d 41db 243e
000001c0: 3f84 2f3e 472f 80be 4a1f 1a3d 807f 39be
000001d0: 3b4a 113e 0f94 823e 984a e7bd b147 2bbe
000001e0: e012 b7bd 1e74 763e 1ba6 1d3e 046e 763e
000001f0: f67e efbd ac37 573e 35b9 cbba 6cd8 13be
00000200: 0d29 643e bef3 723e 61e4 05be 47fc 8abd
00000210: 25c8 f63d 4501 f13c 4ec3 30be 7230 acbd
00000220: 46db 253e fcfc c43d f616 7a3b 2ae9 65be
00000230: f271 593e f1b2 1b3e 92c3 bc3c daa7 2b3e
00000240: 2b99 dcbd 6842 0cbe 76d0 43be ed96 0b3e
00000250: 7ac1 1d3e 73ff 99bd dcbf 57be 97f8 cabd
00000260: 5693 173d b22a af3d 9cfc 043e 4e17 8fbe
00000270: 85e1 dcbd 7cab 97be b250 2fbe bcf0 753e
00000280: aab9 a43d 075d 3f3c d09f 65be 112c 043e
00000290: 2a17 8a3e 2131 793e 9225 8fbd 6384 013e
000002a0: c184 8fbd 9b53 5b3c b3de 30be f79c 003e
000002b0: 1cc8 ccbd f0b1 8d3e 87d2 9cbe 1ab3 a13e
000002c0: bee2 473e 1354 2a3e 576b 783d 0b0f 893d
000002d0: 4e7d cf3d 8664 4c3e 55ae 27be ed2f 64be
000002e0: 8cb5 6abe c6a9 263e 76bd 38be 2940 373e
000002f0: 4eed 6cbc c7e5 47be a1c4 03be 5779 ce3d
00000300: b9f1 263c d6b6 0a3a a02e 6b3e cfce 12bb
00000310: a36a 7b3e 4592 243e 7561 e73c 946e 03be
00000320: d8d5 833e d72b 4cbe 7367 89be ad35 283e
00000330: d0d0 01be 13f4 ba3d 0236 353e d215 70be
00000340: fe37 1c3e b757 653e 1cba 63be eb32 cf3e
00000350: bd79 82be 1838 a5bd 57db 13bd 1ef5 093e
00000360: f1fa c73c 6213 07be 2352 653e ca40 61be
00000370: 6861 043e 0687 fcbb 12d2 063e f5ad 5cbe

layers.1.lin_l.weight f4 [16, 16]
-0.11592295 0.1920111 0.043496102 -0.06913207 0.15893447 -0.062101968 -0.09918167 -0.17631169
-0.14109142 -0.29447907 0.22121118 -0.07694893 0.23174404 -0.13107039 0.025264822 -0.09180075
0.13985579 -0.12640752 -0.23004922 0.10639915 -0.053161602 -0.12814723 -0.06374982 -0.24443895
0.11131749 0.17510371 0.13035989 -0.06686943 -0.042535786 -0.12431088 0.064340405 -0.114477806
-0.024902545 0.27604464 -0.08195943 0.10720295 -0.14873067 0.14815597 -0.13849002 0.053098988
-0.16853829 0.101975806 -0.26833838 0.20750435 0.17720969 0.17249584 0.24567828 0.23878549
-0.15062794 0.10070206 -0.057864904 0.022196418 -0.07525673 -0.13273102 -0.22499223 -0.037429746
-0.023138905 -0.14963105 -0.33291057 -0.07112677 -0.104106404 0.13692479 0.21348761 -0.15794007
-0.113831386 -0.09180884 -0.24689424 -0.21049105 -0.0783075 0.044459328 -0.13878462 0.054889232
0.022039017 -0.035624288 0.042288728 0.20691621 -0.024946453 0.14028141 0.10361603 0.20076609
0.25330892 0.18154737 0.14672416 0.116442844 0.21478672 -0.094450496 0.21213967 0.2153923
0.21182564 -0.11114755 -0.20366135 -0.23498304 0.1600463 -0.13561977 0.11419982 -0.0017680441
0.11118058 -0.2807151 -0.015883178 0.01132935 -0.20172152 -0.10920097 -0.049472347 -0.2524846
0.0960117 -0.14643988 -0.16955493 -0.22225687 0.20099562 0.078660294 -0.105383575 0.0034409505
-0.20452227 0.27914637 -0.1415624 -0.0016445016 0.23773572 0.05639312 0.13902824 -0.07580894
-0.0070929667 -0.10943744 -0.23098004 -0.3220526 -0.11478712 0.048087217 -0.11611696 0.21792084
-0.12545684 0.0747728 -0.19917506 0.19379966 -0.0071781324 -0.23583327 0.09643852 -0.012558946
0.12928957 0.27898544 -0.006448166 -0.030837271 -0.19782816 -0.1291074 0.18079802 -0.23642756
-0.11943864 0.08147686 -0.033401012 0.26006487 0.023715442 -0.2879577 -0.19628748 -0.053731397
-0.055023707 0.19477843 0.26311904 -0.119356155 0.09438639 0.28122622 0.03661076 0.24962384
0.21374999 -0.12586324 0.0027844906 -0.010188079 0.15100275 0.08963421 -0.23026232 -0.17315975
0.2245994 -0.27620015 0.1626976 0.07276776 0.10227105 0.1583555 -0.2002358 0.074624024
0.0018171459 -0.250585 -0.1414777 -0.04446709 -0.016588336 -0.2695539 0.15979321 -0.103070855
0.14137399 0.24916013 0.064021334 0.030938368 -0.07477974 0.005683584 0.02300636 -0.123769395
0.05255931 0.1738119 -0.07822621 0.18204316 0.12775835 0.18021768 0.064830296 0.25011244
-0.06146207 -0.00097250333 -0.14751574 -0.0053383955 0.05919618 0.1906907 -0.09875089 -0.054368567
-0.22802675 -0.22020547 -0.115008205 0.18619345 0.09712856 0.15728202 0.067324586 0.13776116
-0.021248855 -0.26736206 -0.15904893 0.098079234 0.20093295 -0.0990351 -0.06261588 0.18125586
-0.13384786 -0.04654633 0.24671596 -0.0766832 0.13440578 -0.0358887 -0.081846766 -0.18359849
-0.07506475 0.34659043 -0.18099515 0.16909917 -0.027488308 0.36902463 -0.19139166 0.1675409
-0.22572653 0.17464514 -0.15549621 -0.20635124 -0.0903661 -0.2524502 0.23101072 0.17110549
0.04507097 0.114248306 0.044731002 0.21165347 0.17411725 -0.13327968 0.05753668 0.069801316
00000000: 0369 edbd 8f9e 443e f828 323d 1d95 8dbd
00000010: b8bf 223e a25e 7ebd c21f cbbd 0d8b 34be
00000020: 457a 10be f6c5 96be 2f85 623e 6797 9dbd
00000030: 4f4e 6d3e 5137 06be 2cf8 ce3c 0802 bcbd
00000040: 5b36 0f3e f970 01be 0692 6bbe cce7 d93d
00000050: fbbf 59bd 0739 03be 448f 82bd 344e 7abe
00000060: 6dfa e33d 634e 333e 107d 053e d7f2 88bd
00000070: 013a 2ebd b496 febd e7c4 833d 5773 eabd
00000080: 6c00 ccbc b955 8d3e 58da a7bd 388d db3d
00000090: da4c 18be 33b6 173e 54d0 0dbe 537e 593d
000000a0: 4d95 2cbe b1d8 d03d a663 89be 057c 543e
000000b0: 7576 353e c0a2 303e 1693 7b3e 2f84 743e
000000c0: 363e 1abe e23c ce3d c003 6dbd 43d5 b53c
000000d0: 3320 9abd a4ea 07be 5d64 66be ef4f 19bd
000000e0: cd8d bdbc e238 19be 4173 aabe e9aa 91bd
000000f0: bd35 d5bd 0336 0c3e 7f9c 5a3e 0bbb 21be
00000100: 6e20 e9bd 4606 bcbd d8d1 7cbe f78a 57be
00000110: af5f a0bd fc1a 363d 8e1d 0ebe 88d3 603d
00000120: 2b8b b43c c6ea 11bd f236 2d3d d8e1 533e
00000130: 815c ccbc eea5 0f3e a434 d43d a095 4d3e
00000140: b5b1 813e 8ee7 393e dc3e 163e 9679 ee3d
00000150: 0df1 5b3e 436f c1bd 243b 593e cd8f 5c3e
00000160: d2e8 583e 54a1 e3bd 9a8c 50be 659f 70be
00000170: 2de3 233e e9df 0abe 98e1 e93d b7bd e7ba
00000180: a5b2 e33d e4b9 8fbe 701d 82bc bd9e 393c
00000190: 1690 4ebe c2a4 dfbd 84a3 4abd a945 81be
000001a0: c8a1 c43d 56f4 15be cf9f 2dbe 4e97 63be
000001b0: ccd1 4d3e a618 a13d 58d3 d7bd 9281 613b
000001c0: 496e 51be 46ec 8e3e bcf5 10be 518c d7ba
000001d0: fe70 733e 79fc 663d 6b5d 0e3e b841 9bbd
000001e0: 1e6c e8bb bd20 e0bd 0886 6cbe 14e4 a4be
000001f0: 8215 ebbd 1af7 443d bbce edbd a426 5f3e
00000200: c277 00be 7b22 993d 8cf4 4bbe 6b73 463e
00000210: 8a36 ebbb 477e 71be 8f81 c53d 0ac4 4dbc
00000220: 7c64 043e 2ed7 8e3e 234b d3bb 729e fcbc
00000230: 7793 4abe bb34 04be 1e23 393e 111a 72be
00000240: 3f9c f4bd 57dd a63d 80cf 08bd 3927 853e
00000250: e346 c23c 316f 93be 96ff 48be 7415 5cbd
00000260: 8a60 61bd ff73 473e 8ab7 863e 0071 f4bd
00000270: a74d c13d e2fc 8f3e 2af5 153d 649d 7f3e
00000280: 47e1 5a3e 4be2 00be 007c 363b e7eb 26bc
00000290: 77a0 1a3e 2492 b73d e3c9 6bbe ca50 31be
000002a0: 63fd 653e 1b6a 8dbe 339a 263e 4307 953d
000002b0: 7c73 d13d f227 223e 9d0a 4dbe 7bd4 983d
000002c0: 4c2d ee3a ad4c 80be 88df 10be 2023 36bd
000002d0: 43e4 87bc f802 8abe d5a0 233e d016 d3bd
000002e0: 58c4 103e d523 7f3e 9e1d 833d 7672 fd3c
000002f0: 1f26 99bd 5c3d ba3b d577 bc3c cf7a fdbd
00000300: 6e48 573d bffb 313e 1035 a0bd 8669 3a3e
00000310: 16d3 023e fc8a 383e bfc5 843d bd0e 803e
00000320: a7bf 7bbd 98ef 7eba 5e0e 17be b5ed aebb
00000330: b277 723d 6c44 433e e83d cabd 93b1 5ebd
00000340: d87f 69be 8b7d 61be 6c89 ebbd 7fa9 3e3e
00000350: 57eb c63d 8a0e 213e 79e1 893d 4311 0d3e
00000360: 1412 aebc aee3 88be b9dd 22be c4dd c83d
00000370: 5ec1 4d3e ead2 cabd c13c 80bd 239b 393e
00000380: 6a0f 09be 5da7 3ebd 1ca3 7c3e 150c 9dbd
00000390: aba1 093e 0800 13bd 479f a7bd 3e01 3cbe
000003a0: 8cbb 99bd 4d74 b13e cb56 39be 5528 2d3e
000003b0: 292f e1bc ccf0 bc3e 2dfc 43be d78f 2b3e
000003c0: db24 67be 2dd6 323e 663a 1fbe bd4d 53be
000003d0: dd11 b9bd 2741 81be 138e 6c3e 4736 2f3e
000003e0: 569c 383d 04fb e93d db37 373d b0bb 583e
000003f0: cb4b 323e 787a 08be 95ab 6b3d fef3 8e3d

layers.1.lin_r.weight f4 [16, 16]
0.025193892 -0.07270084 0.17829746 0.10970535 0.0252923 0.41917217 -0.31562763 0.097734384
-0.20161997 -0.18180929 0.09767323 -0.08412601 0.26730362 0.220989 -0.04120976 0.2549744
-0.05211834 0.08467745 -0.07268059 -0.1483737 -0.10644576 0.15477067 -0.071073875 -0.21713684
-0.090785556 0.22836909 0.083216555 -0.095796324 -0.06217343 0.111403786 0.118741244 -0.216868
-0.11566411 -0.21953933 -0.03860274 0.16495088 0.084438406 0.0041398928 0.19211 -0.12213193
0.15461954 0.06578216 -0.13272707 -0.048556015 0.13833709 -0.23074007 0.11368831 0.28697634
-0.023597691 -0.17871481 -0.21909234 0.24660864 0.04889154 0.052024357 0.07383727 -0.031414084
-0.111884534 -0.17976777 0.06770175 0.16726518 0.00023536858 0.30832705 0.08600304 -0.09497003
-0.2652794 -0.23429967 -0.09994602 -0.18780236 -0.25571567 -0.18861821 -0.031627577 -0.24003874
0.03946148 0.22953668 0.113855824 -0.10197148 0.010208051 0.26514086 0.13081355 0.11754196
-0.14786991 0.18227689 0.20312533 0.15210004 0.045309696 -0.13200286 -0.112702504 -0.054036867
-0.19226703 0.105147325 -0.0066320975 0.18093571 -0.06691669 0.1897883 -0.21260512 -0.13985607
0.2626121 -0.21583407 -0.1303697 0.24307986 0.11075179 -0.052641496 -0.09793085 0.0796707
0.23776005 0.35337052 -0.06678992 0.19021632 0.21724233 0.28925756 0.1942946 0.017277643
-0.08570069 -0.032675955 -0.03996733 -0.314953 0.15316223 0.3370151 -0.1932332 0.19484535
-0.25903532 -0.34688175 -0.032294333 -0.09785667 0.27670035 -0.11848473 0.23065908 0.2548513
-0.16110843 0.04278824 0.13470688 0.017036892 -0.116059564 -0.26480222 0.09162827 0.0015715198
-0.13368957 -0.10620216 -0.23990306 0.049381573 -0.1655357 0.12427695 0.13001423 0.10938677
0.22653453 -0.15274064 -0.049279273 0.171593 0.24239962 0.0027506992 0.04231146 0.23283017
0.039853998 0.00636494 -0.04153516 -0.059968926 0.30837336 0.3771003 -0.03850432 -0.13141549
0.080246106 -0.156042 -0.053080946 0.14080842 -0.13904957 -0.18958765 -0.24325542 -0.12350897
-0.11672995 0.23247321 0.11453795 -0.0045132474 0.054963294 0.16385502 -0.10743542 -0.05922548
0.273551 0.09007419 0.24866456 0.1980407 0.19903247 -0.2308684 0.0628328 0.02209914
0.22201632 -0.034305226 0.16821939 0.25180835 0.2031181 -0.13024804 0.16537143 0.054235585
-0.104828216 -0.15918894 0.19709152 -0.11990287 -0.16575126 -0.15379032 0.18346632 0.11606667
-0.19681342 0.021621494 -0.22875012 0.013300961 -0.19249986 0.15310647 -0.04589465 0.10596479
-0.023641769 0.1442057 0.15642694 0.012242338 -0.24504091 -0.05820623 0.081002496 -0.12541044
-0.19123231 -0.020975662 0.22298715 0.22937195 -0.1957705 0.15988626 -0.22523789 0.06809185
0.09976676 -0.07789579 0.18528903 -0.027572587 0.3914513 -0.19633298 -0.021500384 0.17815012
0.27520216 -0.1730638 0.024545368 -0.15826556 0.097663715 0.24430904 0.18353961 -0.3967782
-0.13850917 0.20993745 0.077592224 -0.12688987 0.29255283 0.1203665 0.08657819 -0.06794989
0.031132255 0.27510116 -0.025739772 0.2217244 -0.014954633 0.2795114 0.18008304 0.12087311
00000000: 6c63 ce3c 2ee4 94bd 9c93 363e 33ad e03d
00000010: cc31 cf3c bc9d d63e f299 a1be f728 c83d
00000020: 7775 4ebe 372c 3abe e708 c83d 424a acbd
00000030: 05dc 883e f14a 623e 91cb 28bd 018c 823e
00000040: 0a7a 55bd 5f6b ad3d 90d9 94bd 46ef 17be
00000050: 3c00 dabd 347c 1e3e 2e8f 91bd 1f59 5ebe
00000060: c7ed b9bd 96d9 693e 716d aa3d dd30 c4bd
00000070: 91a9 7ebd ab27 e43d 9c2e f33d a512 5ebe
00000080: 4ee1 ecbd ebce 60be e81d 1ebd e2e8 283e
00000090: 0bee ac3d f0a7 873b 7cb8 443e 4e20 fabd
000000a0: 9654 1e3e ccb8 863d 9be9 07be ace2 46bd
000000b0: 3da8 0d3e 2047 6cbe 6bd5 e83d 90ee 923e
000000c0: f24f c1bc 0401 37be be59 60be fa86 7c3e
000000d0: 7f42 483d 7e17 553d ff37 973d 0eac 00bd
000000e0: b823 e5bd 0b15 38be 37a7 8a3d 9047 2b3e
000000f0: 46cd 7639 0bdd 9d3e 5d22 b03d a67f c2bd
00000100: b4d2 87be 41ec 6fbe 80b0 ccbd 434f 40be
00000110: 2aed 82be 2225 41be eb8b 01bd b7cc 75be
00000120: 5ca2 213d aa0b 6b3e 3e2d e93d 6cd6 d0bd
00000130: ab3f 273c 8bc0 873e fdf3 053e d7b9 f03d
00000140: 366b 17be cba6 3a3e 1600 503e 1dc0 1b3e
00000150: a996 393d c22b 07be 92d0 e6bd c355 5dbd
00000160: a6e1 44be 7b57 d73d 1152 d9bb 3647 393e
00000170: 9e0b 89bd dd57 423e 28b5 59be 6e36 0fbe
00000180: 1875 863e 9b03 5dbe a27f 05be ede9 783e
00000190: d6d1 e23d 9c9e 57bd f88f c8bd 642a a33d
000001a0: 5f77 733e fbec b43e 27c9 88bd 11c8 423e
000001b0: c674 5e3e 9119 943e 2af5 463e d889 8d3c
000001c0: d883 afbd 39d7 05bd c8b4 23bd 8541 a1be
000001d0: 8fd6 1c3e 3e8d ac3e edde 45be 8a85 473e
000001e0: 47a0 84be 7c9a b1be 1047 04bd 1469 c8bd
000001f0: abab 8d3e 1fa8 f2bd e531 6c3e df7b 823e
00000200: 9cf9 24be b942 2f3d 9af0 093e f490 8b3c
00000210: a3b0 edbd 2894 87be 9aa7 bb3d 74fb cd3a
00000220: ebe5 08be 8580 d9bd 26a9 75be 5544 4a3d
00000230: 3182 29be ea84 fe3d 7322 053e 2c06 e03d
00000240: abf8 673e 0b68 1cbe 10d9 49bd 13b6 2f3e
00000250: 9b37 783e 1345 343b c84e 2d3d 086b 6e3e
00000260: f23d 233d fd90 d03b c620 2abd faa1 75bd
00000270: 1de3 9d3e 4a13 c13e b5b6 1dbd c891 06be
00000280: 1258 a43d 79c9 1fbe 686b 59bd 1530 103e
00000290: 0363 0ebe 4423 42be f317 79be 45f2 fcbd
000002a0: 1d10 efbd 750d 6e3e df92 ea3d dde3 93bb
000002b0: 3121 613d 9cc9 273e 1a07 dcbd 6b96 72bd
000002c0: e00e 8c3e d178 b83d eca1 7e3e 2ecb 4a3e
000002d0: 2bcf 4b3e c468 6cbe 7cae 803d 4109 b53c
000002e0: 3f58 633e a383 0cbd b441 2c3e 06ed 803e
000002f0: 31fe 4f3e be5f 05be 2157 293e 2226 5e3d
00000300: 2db0 d6bd 6d02 23be 5cd2 493e a38f f5bd
00000310: b3ba 29be 367b 1dbe 98de 3b3e 5db4 ed3d
00000320: 7589 49be 8f1f b13c 793d 6abe 46ec 593c
00000330: af1e 45be f1c7 1c3e 07fc 3bbd 1104 d93d
00000340: 62ac c1bc a9aa 133e 622e 203e 1694 483c
00000350: 01ec 7abe a869 6ebd a3e4 a53d 986b 00be
00000360: 67d2 43be 27d5 abbc be56 643e 7be0 6a3e
00000370: 1078 48be 39b9 233e c3a4 66be bd73 8b3d
00000380: 8452 cc3d d487 9fbd 68bc 3d3e e8df e1bc
00000390: 4e6c c83e 830b 49be 9321 b0bc fc6c 363e
000003a0: 4ce7 8c3e a337 31be 5e13 c93c 5e10 22be
000003b0: ea03 c83d 262c 7a3e cff1 3b3e 8326 cbbe
000003c0: 59d5 0dbe d8f9 563e ace8 9e3d 6bef 01be
000003d0: 7cc9 953e b682 f63d e84f b13d 5029 8bbd
000003e0: 1209 ff3c 0fda 8c3e 37dc d2bc b90b 633e
000003f0: 4704 75bc 1e1c 8f3e b067 383e 528c f73d

layers.2.lin_l.weight f4 [32, 16]
0.13857795 0.15270694 0.10775966 0.21505399 -0.19539188 0.14322998 0.2153016 -0.14466971
-0.11244302 -0.017391993 -0.18486096 -0.19397844 0.2509869 -0.16833192 0.04636965 -0.05073971
0.1433909 0.1484244 0.17333542 0.19527052 -0.13376452 -0.11030848 0.19847214 -0.10335231
-0.09162713 0.13180383 0.04535492 -0.19034046 0.087392375 -0.028776519 0.078430004 0.09368689
-0.18781035 0.09764539 -0.08367731 -0.22812556 -0.12087623 0.12168759 0.12046411 -0.20403169
-0.0125926705 -0.065297134 -0.22801842 0.23864788 -0.2704135 -0.18463747 -0.08477459 -0.0082021095
-0.17678764 0.2512628 -0.1304444 0.24867299 -0.21019845 0.21543019 0.19959567 -0.039871532
-0.19496681 0.12862565 0.14277832 -0.15334374 0.028073449 0.030142132 0.14561597 -0.048133634
0.07127532 -0.1998171 0.18129532 -0.2469821 -0.14491273 0.009429394 -0.050407745 -0.11351869
-0.15482995 -0.24379691 0.18443164 -0.08237861 0.2350673 0.18368065 -0.10244825 -0.25468305
-0.28710595 0.11551902 -0.07340325 0.06918195 0.015744403 0.23061353 -0.02804976 0.06895876
0.006354956 0.087793864 0.021562506 0.18291777 0.20371129 0.02841213 0.35035452 -0.012883527
0.011742345 -0.021075618 0.06937424 0.21887389 -0.18343171 0.11885648 -0.24240619 0.22960763
0.12967812 -0.04731293 0.06719747 -0.12295751 0.22733612 0.14898612 -0.081579596 -0.053771675
0.05872482 0.095890045 -0.0025346014 0.023345437 0.18655948 -0.14762811 0.22021747 -0.039115965
-0.19073318 -0.11316369 0.22868231 0.008176154 -0.08129814 0.07493964 0.20207584 -0.12273491
-0.3466604 0.17240132 -0.20150217 -0.07646619 0.096029714 -0.047389135 0.16580671 0.1654595
0.11646404 -0.15993246 0.0023247115 0.04456555 0.11695043 0.20337546 0.020640904 0.022761663
-0.187726 0.086510845 0.19213101 0.15968613 -0.06316809 0.12460627 -0.16250518 0.080152966
-0.08419032 -0.24019918 -0.044329643 0.20393519 0.05739181 -0.017775813 -0.1906346 -0.08518696
0.30226046 -0.18599023 0.120843165 -0.034587286 0.109349675 -0.10660483 -0.22077544 0.40292618
0.13587382 -0.052699048 -0.20079312 -0.14834328 -0.07051388 0.010411209 -0.04767711 0.1889606
0.030702196 0.15098026 -0.22351468 -0.24560359 -0.048611008 0.12572531 0.2083206 0.07085517
-0.18071607 0.21570401 -0.053426437 -0.19274783 -0.06828299 -0.23273054 -0.1437095 -0.25197715
0.31070086 -0.16680159 0.04168002 0.1354255 0.24040711 0.19263324 0.2034851 -0.021102486
0.041794326 0.17159009 -0.1837889 -0.19737601 -0.038701404 -0.09807075 -0.06764972 0.22850302
-0.10453547 -0.069344856 0.1397206 -0.070624016 -0.044461995 -0.00770415 0.008974946 0.2985126
-0.23758365 -0.3003493 0.12084034 -0.15596129 0.010367525 -0.28310454 -0.05520025 -0.2506202
-0.24890001 -0.073692605 -0.044202603 0.015458541 -0.23168783 -0.26868537 -0.17097859 -0.21500516
-0.015857298 0.21721052 -0.06474624 0.23013173 -0.22225085 0.15549767 0.10122769 0.14618298
-0.0012142957 0.11955789 -0.002744828 0.016191196 -0.19027188 0.25933602 0.052111372 -0.14486785
-0.0139734205 -0.30568358 0.17716944 -0.07744538 -0.08877786 -0.1317254 0.17909174 -0.22093423
00000000: 61e7 0d3e 355f 1c3e 19b1 dc3d 1d37 5c3e
00000010: cf14 48be e1aa 123e 0678 5c3e 4c24 14be
00000020: 8748 e6bd a779 8ebc 314c 3dbe 49a2 46be
00000030: 5b81 803e 345f 2cbe 1aee 3d3d 71d4 4fbd
00000040: 10d5 123e 91fc 173e d77e 313e fff4 473e
00000050: 91f9 08be 6ae9 e1bd 483c 4b3e 60aa d3bd
00000060: 01a7 bbbd 95f7 063e 15c6 393d 9ce8 42be
00000070: c6fa b23d bcbc ebbc e99f a03d eade bf3d
00000080: 5b51 40be 4efa c73d 025f abbd bf99 69be
00000090: f58d f7bd 5837 f93d e3b5 f63d afed 50be
000000a0: 7d51 4ebc 81ba 85bd a97d 69be 1c60 743e
000000b0: a373 8abe 9b11 3dbe 4d9e adbd 2462 06bc
000000c0: d207 35be 85a5 803e 3793 05be 22a4 7e3e
000000d0: 433e 57be bb99 5c3e cf62 4c3e 5550 23bd
000000e0: 61a5 47be 71b6 033e 7b34 123e 2406 1dbe
000000f0: 4afa e53c a2ec f63c 5a1c 153e c627 45bd
00000100: ccf8 913d db9c 4cbe 7ba5 393e e0e8 7cbe
00000110: 0164 14be bf7d 1a3c 5a78 4ebd 7d7c e8bd
00000120: be8b 1ebe e6a5 79be a6db 3c3e 1eb6 a8bd
00000130: 7bb5 703e c816 3c3e 63d0 d1bd d165 82be
00000140: 8dff 92be 3c95 ec3d 7154 96bd 44af 8d3d
00000150: 68fa 803c f425 6c3e 9cc8 e5bc 403a 8d3d
00000160: 3c3d d03b 45cd b33d daa3 b03c cc4e 3b3e
00000170: b199 503e 8ec0 e83c ab61 b33e 6e15 53bc
00000180: f762 403c c6a6 acbc 1514 8e3d 7a20 603e
00000190: 86d5 3bbe 076b f33d 5439 78be 431e 6b3e
000001a0: 57ca 043e 34cb 41bd d49e 893d 26d1 fbbd
000001b0: cdca 683e d18f 183e 3413 a7bd b03f 5cbd
000001c0: 7089 703d 0062 c43d 8e1b 26bb ee3e bf3c
000001d0: 7309 3f3e d32b 17be b080 613e 1038 20bd
000001e0: 8f4f 43be 5dc2 e7bd b22b 6a3e 47f5 053c
000001f0: a47f a6bd f479 993d f8ec 4e3e 715c fbbd
00000200: 797d b1be f989 303e 9656 4ebe 4e9a 9cbd
00000210: 3aab c43d 1c1b 42bd 3cc9 293e 376e 293e
00000220: b384 ee3d 56c5 23be 305a 183b 5e8a 363d
00000230: b583 ef3d a841 503e 1d17 a93c ab76 ba3c
00000240: 3f3b 40be 992c b13d febd 443e c384 233e
00000250: 465e 81bd 9231 ff3d c267 26be 3d27 a43d
00000260: f96b acbd c6f6 75be 0093 35bd 63d4 503e
00000270: ad13 6b3d 959e 91bc b735 43be 8076 aebd
00000280: e2c1 9a3e 3974 3ebe 9f7c f73d 66ab 0dbd
00000290: b9f2 df3d a253 dabd f512 62be 574c ce3e
000002a0: 8222 0b3e f5da 57bd b69c 4dbe 4de7 17be
000002b0: 9569 90bd c793 2a3c 1349 43bd e37e 413e
000002c0: 2c83 fb3c 929a 1a3e 08e1 64be 827f 7bbe
000002d0: 561c 47bd 23be 003e ff51 553e 841c 913d
000002e0: a20d 39be 83e1 5c3e aed5 5abd b05f 45be
000002f0: f4d7 8bbd ea50 6ebe 9528 13be 2603 81be
00000300: 2f14 9f3e 09ce 2abe abb8 2a3d fbac 0a3e
00000310: 482d 763e a641 453e 665e 503e 1fdf acbc
00000320: 8730 2b3d 50b5 2f3e 2833 3cbe f01c 4abe
00000330: 5d85 1ebd 51d9 c8bd f08b 8abd b2fc 693e
00000340: b116 d6bd ad04 8ebd eb12 0f3e 53a3 90bd
00000350: c81d 36bd 1873 fcbb a70b 133c a5d6 983e
00000360: 2149 73be 62c7 99be 247b f73d 51b4 1fbe
00000370: 8ddc 293c 14f3 90be a819 62bd 4a51 80be
00000380: a5df 7ebe 26ec 96bd ca0d 35bd d245 7d3c
00000390: 933f 6dbe 2191 89be 0315 2fbe 502a 5cbe
000003a0: 2ae7 81bc 6f6c 5e3e ad99 84bd a7a7 6b3e
000003b0: ba95 63be c83a 1f3e 7750 cf3d feb0 153e
000003c0: 0129 9fba c4da f43d 92e2 33bb 66a3 843c
000003d0: a2d6 42be b1c7 843e bc72 553d 3d58 14be
000003e0: c6f0 64bc 8f82 9cbe e86b 353e af9b 9ebd
000003f0: 2bd1 b5bd 06e3 06be d363 373e 953c 62be

layers.2.lin_r.weight f4 [32, 16]
-0.0022113728 -0.14748442 0.081581354 -0.03617304 -0.0945404 0.1742354 0.0353251 0.15257753
0.11866892 0.085803054 -0.037663784 -0.25534955 -0.09001934 -0.22162783 -0.02065679 0.0021304537
0.015085268 0.008572193 0.18320481 0.18893486 0.122568995 -0.12518816 -0.09678865 0.26241434
0.15436913 -0.00089642004 0.19365367 -0.10245713 -0.20236921 -0.098994695 -0.16916604 0.21177752
0.06854417 -0.08574353 -0.0576895 0.1499665 0.0006002044 0.018054016 0.1654346 0.23068717
-0.051125024 0.2164109 -0.14474975 0.07283012 -0.05515753 0.06014138 0.035750866 0.2514264
0.041636866 0.1610837 0.16449764 -0.09903362 0.13259646 -0.008116065 0.06353118 0.20959331
0.03125781 -0.12347174 0.021906702 0.11825283 -0.08626151 0.0020320367 0.14118968 -0.17388347
0.21299094 0.12231618 -0.11863427 -0.13094266 0.051813383 0.2333673 0.13076279 0.19832759
0.2581558 -0.011809838 0.075062215 0.08643247 -0.11320143 -0.18378346 -0.013666198 -0.026657922
-0.06598016 0.22520402 -0.16647081 0.11172626 -0.053663008 0.074333996 0.35604715 -0.07715391
-0.11015228 0.07282141 0.19692317 0.27619037 0.032815672 0.16875947 -0.040730637 0.1686319
0.10400054 -0.24967216 0.117617145 0.010938855 -0.10941509 0.09808278 -0.033529297 0.20115809
0.080979764 0.118572205 0.045945138 0.045098126 0.0051821256 0.017270355 0.04655084 0.12427068
-0.054676156 -0.12375698 -0.055275515 -0.0061932523 -0.216848 -0.009073777 0.24780081 -0.10808549
-0.0679069 0.30560666 0.17604621 0.091498315 -0.23174469 0.10167932 0.029951168 -0.060170636
0.061927214 0.06477243 -0.2404173 -0.1325244 0.13966812 0.19858524 -0.18470584 -0.12679657
0.2213139 0.015493997 -0.12308274 0.08946732 0.05378179 -0.16144766 -0.15327665 0.16887091
-0.19928671 -0.12190341 -0.12809315 0.08576992 0.13595726 -0.0071763517 -0.0380795 -0.1461877
-0.26210123 -0.20580494 -0.19078353 -0.15861346 -0.10187209 -0.16396819 0.024473025 -0.22970916
-0.099549614 -0.10132821 0.11759289 0.1523807 0.20636113 0.016118707 0.16644543 0.3490636
-0.022001822 0.264567 -0.19393153 -0.11065624 0.0044478686 -0.05090289 -0.13739158 0.1734407
0.0029578218 -0.12532549 0.15062715 -0.1044962 0.17161398 -0.018433087 0.04152903 -0.12500615
-0.08456947 0.18115985 -0.16174707 0.1914151 0.2184202 0.12171901 0.04746221 0.21005912
-0.117397584 -0.011170508 0.1046998 -0.23680075 0.23971239 -0.2422717 -0.070409276 0.23501113
0.014705055 0.21932328 -0.14312454 0.09057717 -0.12596624 0.04613722 -0.17359978 0.061370324
0.14703357 -0.18733633 -0.02206994 0.17400831 0.06911164 0.08192976 -0.1793953 0.13895743
-0.18579519 0.16014023 -0.0038902285 0.19371837 -0.20062937 -0.25411627 -0.1982905 0.21340239
-0.13485265 0.053465426 -0.023382489 0.02524916 0.18251476 0.13279559 -0.07871327 -0.0878645
-0.07287678 -0.18343043 -0.13647945 -0.24103343 -0.13254878 0.16843544 0.14622867 0.040195774
-0.0113204615 0.10690066 -0.05266756 0.10834477 -0.16053629 -0.20302726 -0.25366706 -0.1461448
0.07123976 0.19307981 0.09669761 0.107351266 0.1005182 -0.036604166 0.16616388 -0.06288078
00000000: aeec 10bb 2806 17be 2014 a73d 2e2a 14bd
00000010: 669e c1bd c46a 323e 0db1 103d 493d 1c3e
00000020: b108 f33d 83b9 af3d 5745 1abd 2dbd 82be
00000030: 0f5c b8bd 68f2 62be 6e38 a9bc 159f 0b3b
00000040: 3328 773c 6272 0c3c 0b9a 3b3e 2478 413e
00000050: 7405 fb3d 5331 00be 2139 c6bd 2c5b 863e
00000060: f112 1e3e bbfd 6aba 264d 463e 0bd5 d1bd
00000070: e039 4fbe bbbd cabd dd39 2dbe 35dc 583e
00000080: e360 8c3d 4e9a afbd d34b 6cbd d190 193e
00000090: 0957 1d3a 04e6 933c b067 293e 4239 6c3e
000000a0: 7968 51bd d29a 5d3e 4739 14be f527 953d
000000b0: ddec 61bd cf56 763d 806f 123d f6ba 803e
000000c0: 6b8b 2a3d 20f3 243e 1272 283e 23d2 cabd
000000d0: 5ec7 073e 3ef9 04bc a31c 823d a19f 563e
000000e0: 3008 003d c0de fcbd af75 b33c 8a2e f23d
000000f0: e0a9 b0bd eb2b 053b 0794 103e 820e 32be
00000100: 4c1a 5a3e e880 fa3d 86f6 f2bd d515 06be
00000110: 453a 543d d6f7 6e3e aee6 053e 6316 4b3e
00000120: ff2c 843e 0d7e 41bc 38ba 993d 8203 b13d
00000130: 27d6 e7bd bb31 3cbe 30e8 5fbc b761 dabc
00000140: 9b20 87bd e29b 663e 5377 2abe bdd0 e43d
00000150: becd 5bbd 6c3c 983d d04b b63e df02 9ebd
00000160: 8597 e1bd 6423 953d 3aa6 493e d368 8d3e
00000170: ba69 063d 48cf 2c3e 2bd5 26bd d7ad 2c3e
00000180: 3cfe d43d 0faa 7fbe 42e1 f03d e238 333c
00000190: 0515 e0bd a0df c83d 0456 09bd 63fc 4d3e
000001a0: b8d8 a53d fcd5 f23d f830 3c3d d0b8 383d
000001b0: d2ce a93b 8f7a 8d3c 18ac 3e3d a081 fe3d
000001c0: 1bf4 5fbd 4d74 fdbd 9468 62bd c4f0 cabb
000001d0: 670d 5ebe 2eaa 14bc 7fbf 7d3e ed5b ddbd
000001e0: c612 8bbd 7a78 9c3e 7545 343e 7863 bb3d
000001f0: 7b4e 6dbe 3f3d d03d 275c f53c 7c75 76bd
00000200: 64a7 7d3d 68a7 843d f42f 76be 7ab4 07be
00000210: 2905 0f3e ee59 4b3e 8723 3dbe f6d6 01be
00000220: 1ca0 623e 89da 7d3c ce12 fcbd a43a b73d
00000230: 4b4a 5c3d 8952 25be 8ef4 1cbe 7fec 2c3e
00000240: d111 4cbe 7fa8 f9bd da2a 03be 24a8 af3d
00000250: 6138 0b3e 9a27 ebbb 40f9 1bbd 3ab2 15be
00000260: 2232 86be 88be 52be c25c 43be 916b 22be
00000270: 50a2 d0bd 47e7 27be a77b c83c e138 6bbe
00000280: abe0 cbbd 2a85 cfbd 8bd4 f03d b009 1c3e
00000290: 5550 533e 610b 843c ac70 2a3e 77b8 b23e
000002a0: 2a3d b4bc 5375 873e fd95 46be bd9f e2bd
000002b0: 6dbf 913b 8c7f 50bd 61b0 0cbe 709a 313e
000002c0: 04d8 413b 5355 00be 013e 1a3e 1b02 d6bd
000002d0: 93bb 2f3e fc00 97bc 581a 2a3d 9d01 00be
000002e0: c232 adbd f881 393e 06a1 25be 5202 443e
000002f0: 8ba9 5f3e d147 f93d bc67 423d bd19 573e
00000300: 256e f0bd 8204 37bc d96c d63d e57b 72be
00000310: 2a77 753e 1316 78be bd32 90bd c2a6 703e
00000320: 79ed 703c 4896 603e 3d8f 12be 8680 b93d
00000330: 4bfd 00be 62fa 3c3d 24c4 31be 735f 7b3d
00000340: f88f 163e 18d5 3fbe 05cc b4bc 3c2f 323e
00000350: 678a 8d3d caca a73d 67b3 37be db4a 0e3e
00000360: 1841 3ebe cdfb 233e 34f3 7ebb 1c5e 463e
00000370: c971 4dbe 871b 82be aa0c 4bbe 2886 5a3e
00000380: d016 0abe 90fe 5a3d a28c bfbc 54d7 ce3c
00000390: 26e5 3a3e 91fb 073e 6c34 a1bd 4ef2 b3bd
000003a0: 6c40 95bd 30d5 3bbe 45c1 0bbe 78d1 76be
000003b0: deba 07be 577a 2c3e f8bc 153e 53a4 243d
000003c0: 7579 39bc bcee da3d f0b9 57bd dde3 dd3d
000003d0: a063 24be 61e6 4fbe a6e0 81be fca6 15be
000003e0: 27e6 913d b7b6 453e 6609 c63d fbda db3d
000003f0: 7cdc cd3d 40ee 15bd dd26 2a3e a3c7 80bd

fc11.weight f4 [16, 32]
-0.16431177 0.1272547 -0.032159302 0.16272129 -0.086474575 0.1466587 -0.084688924 0.33573318
0.12634909 -0.007463296 -0.19020006 -0.08738234 -0.14650466 -0.21288535 0.013715638 -0.14748308
-0.22002913 0.14383225 -0.014197494 0.1272204 -0.06690893 0.011499485 0.15203781 0.011815904
-0.038332757 0.1781064 -0.03646949 0.10635897 0.08881433 0.18599881 -0.102674484 -0.1003278
0.03405645 0.055841714 0.05389976 -0.040478606 -0.06744428 0.027857147 -0.124839775 0.25363195
-0.1774788 -0.004913744 0.02843691 0.06954125 0.025374943 -0.24176499 0.12739304 0.0012986911
-0.26653096 -0.05686382 -0.008018743 0.31359348 -0.18399043 0.004928949 -0.10485117 0.081396826
0.3236546 -0.11755825 0.2014694 0.0019812614 0.12364534 0.059567373 0.013253235 0.08001318
-0.17614645 0.072765924 0.06858833 0.10497512 0.013672898 0.18477282 -0.021022303 0.3078531
0.15389425 0.08819346 -0.022215366 0.15604264 0.12591115 -0.10302426 -0.026043393 -0.03680231
-0.040850505 -0.035767645 0.025783988 8.334505e-05 -0.011739311 -0.17040344 0.032603674 0.056770053
-0.05522924 -0.16989799 -0.20344321 -0.08949441 0.10973211 -0.04956213 0.11579773 0.14092243
-0.08757536 0.14579771 0.026840515 -0.18480454 0.1356181 -0.095037445 -0.11829406 0.10227449
-0.044733156 0.10940382 0.15512684 -0.19342896 0.12042415 0.041572414 -0.067621015 -0.04095559
0.22414668 0.112400256 0.14531213 -0.13278629 -0.044939328 0.025020218 0.16442478 -0.06368898
0.13814044 0.13209471 0.24727932 0.19377348 0.07760261 0.029002398 0.1402762 -0.17152978
-0.15373957 0.12312704 0.0776868 -0.10150017 -0.102903284 0.054742433 -0.022710158 -0.010113435
-0.03785947 -0.0012129386 0.031360902 0.15502577 -0.0847624 -0.105902 -0.11607 0.001407765
0.16703987 -0.16431184 -0.18017453 0.065657064 0.06060736 -0.094518974 0.06427799 0.17670459
-0.1544372 0.008858783 -0.15369023 -0.034167018 -0.14540625 -0.1042461 -0.05205618 -0.06687784
0.077110834 -0.102150075 0.20876339 0.11498135 -0.13937369 0.015497947 0.12974875 0.14935973
-0.029842557 0.038771912 -0.14791907 0.0064286585 -0.114954434 -0.06719885 -0.08588439 -0.09058171
-0.21161841 -0.09941777 -0.1655365 0.25705093 -0.07714283 -0.024627207 0.009020704 -0.07924375
0.25604758 -0.05972842 -0.033207167 -0.06996419 0.15490155 0.04114692 0.085126325 -0.1509062
0.07334513 -0.17433994 0.05666854 -0.046055276 0.13709557 0.052918203 -0.05229727 0.06702618
0.124036096 0.031900212 -0.12660305 0.06988241 0.037729297 0.22244214 0.063897096 0.19964898
-0.08733983 -0.044572294 -0.11279703 -0.16132444 0.014184898 -0.035808485 0.074820295 0.009780351
-0.16715072 0.1313913 0.22461987 0.12410902 0.0025609827 0.028153637 0.018383516 -0.061405785
0.12640527 0.13327725 -0.021141598 0.12547073 -0.05669075 0.15055656 0.13724385 -0.14276747
-0.13611358 -0.08039069 -0.047889374 -0.07379479 0.16203243 0.20533565 -0.12947959 -0.0822435
-0.020829601 0.16438854 0.1057434 -0.16682516 -0.021655802 -0.069795154 0.120745584 -0.05043045
-0.04877619 -0.049543355 0.056840632 0.08177601 0.09181589 -0.04820682 0.15587921 0.02742173
00000000: 5841 28be 0e4f 023e 79b9 03bd 69a0 263e
00000010: 9519 b1bd b32d 163e 6371 adbd 38e5 ab3e
00000020: a861 013e aa8e f4bb cec3 42be 83f5 b2bd
00000030: 5105 16be 9efe 59be 8eb7 603c ce05 17be
00000040: 514f 61be c348 133e 9b9c 68bc 1146 023e
00000050: 8d07 89bd 5668 3c3c cdaf 1b3e 7e97 413c
00000060: cf02 1dbd 8661 363e 0861 15bd bbd2 d93d
00000070: 4ae4 b53d 7976 3e3e 0047 d2bd a978 cdbd
00000080: c77e 0b3d 48ba 643d ffc5 5c3d e5cc 25bd
00000090: 3a20 8abd ac34 e43c ffab ffbd 0cdc 813e
000000a0: 01bd 35be 7903 a1bb 86f4 e83c a56b 8e3d
000000b0: 1ddf cf3c 3e91 77be 5273 023e d838 aa3a
000000c0: bf76 88be 09ea 68bd 0c61 03bc 538f a03e
000000d0: fd67 3cbe 0583 a13b 36bc d6bd 61b3 a63d
000000e0: 0eb6 a53e 61c2 f0bd ff4d 4e3e 0dd8 013b
000000f0: c539 fd3d ebfc 733d 1924 593c f3dd a33d
00000100: bc5f 34be 4d06 953d 0a78 8c3d 32fd d63d
00000110: 4a04 603c 1635 3d3e f736 acbc ec9e 9d3e
00000120: 7496 1d3e c69e b43d 00fd b5bc a4c9 1f3e
00000130: daee 003e 62fe d2bd f458 d5bc 05be 16bd
00000140: dc52 27bd 1881 12bd f138 d33c 88c9 ae38
00000150: 3d56 40bc 3d7e 2ebe 6e8b 053d b787 683d
00000160: 0e38 62bd bdf9 2dbe 6b53 50be d848 b7bd
00000170: 3abb e03d a901 4bbd 5c27 ed3d f84d 103e
00000180: b65a b3bd ff4b 153e a4e0 db3c 673d 3dbe
00000190: 79df 0a3e fea2 c2bd 2844 f2bd 4a75 d13d
000001a0: 1d3a 37bd 1c0f e03d 92d9 1e3e 3e12 46be
000001b0: f0a0 f63d d647 2a3d e37c 8abd 0cc1 27bd
000001c0: b586 653e 1b32 e63d b4cc 143e 21f9 07be
000001d0: 4d12 38bd 33f7 cc3c f85e 283e 5e6f 82bd
000001e0: b074 0d3e d643 073e ca36 7d3e 8e6c 463e
000001f0: 1eee 9e3d 7096 ed3c 90a4 0f3e 81a5 2fbe
00000200: e86d 1dbe 082a fc3d 421a 9f3d 52df cfbd
00000210: f5be d2bd 9a39 603d a70a babc d2b2 25bc
00000220: 8812 1bbd 77fb 9eba 4a74 003d 13bf 1e3e
00000230: e997 adbd 26e3 d8bd 1cb6 edbd c184 b83a
00000240: 800c 2b3e 5d41 28be ac7f 38be 3677 863d
00000250: 6c3f 783d 2a93 c1bd 2ea4 833d 0cf2 343e
00000260: c924 1ebe 6e24 113c f960 1dbe b7f2 0bbd
00000270: 60e5 14be fb7e d5bd dc38 55bd 40f7 88bd
00000280: 49ec 9d3d 0f34 d1bd 12c6 553e 587b eb3d
00000290: fab7 0ebe 1aeb 7d3c dbdc 043e c2f1 183e
000002a0: 6178 f4bc 4ccf 1e3d 1978 17be 7fa7 d23b
000002b0: 3b6d ebbd 8d9f 89bd 28e4 afbd e782 b9bd
000002c0: 7fb2 58be 8b9b cbbd 6682 29be 2e9c 833e
000002d0: 0ffd 9dbd ffbe c9bc 93cb 133c 8c4a a2bd
000002e0: ab18 833e caa5 74bd 3d04 08bd 6349 8fbd
000002f0: 839e 1e3e ac89 283d b656 ae3d 2887 1abe
00000300: f935 963d 2b86 32be 451d 683d 75a4 3cbd
00000310: c862 0c3e c2c0 583d aa35 56bd 0645 893d
00000320: a306 fe3d cca9 023d 3ba4 01be 821e 8f3d
00000330: 098a 1a3d dfc7 633e 7bdc 823d c870 4c3e
00000340: 3adf b2bd 7091 36bd 2102 e7bd 3c32 25be
00000350: c667 683c ebab 12bd 623b 993d c43d 203c
00000360: 8f29 2bbe 718b 063e c002 663e df2c fe3d
00000370: 29d6 273b 75a2 e63c 0799 963c a284 7bbd
00000380: 6270 013e d579 083e 2531 adbc 667b 003e
00000390: 8f34 68bd 802b 1a3e a789 0c3e a331 12be
000003a0: 5c61 0bbe e0a3 a4bd a627 44bd b921 97bd
000003b0: d4eb 253e 8243 523e 4c96 04be 486f a8bd
000003c0: d7a2 aabc 7855 283e ff8f d83d 37d4 2abe
000003d0: 8267 b1bc c3f0 8ebd 7649 f73d 2990 4ebd
000003e0: 8bc9 47bd f9ed 4abd b9d1 683d 2e7a a73d
000003f0: f809 bc3d 8474 45bd cd9e 1f3e 89a3 e03c

fc11.bias f4 [16]
0.25548044 0.25291944 0.21534066 -0.016482225 -0.008650289 0.2711783 -0.16600187 -0.07480215
0.0056853406 0.07726088 -0.08132778 -0.06929212 -0.012651409 0.23520513 -0.18169351 0.06701991
00000000: 55ce 823e a87e 813e 4382 5c3e bb05 87bc
00000010: f1b9 0dbc e2d7 8a3e 65fc 29be df31 99bd
00000020: 184c ba3b f43a 9e3d 2e8f a6bd 07e9 8dbd
00000030: db47 4fbc 9dd9 703e dd0d 3abe bc41 893d

fc12.weight f4 [1, 16]
-0.2693534 -0.3634557 -0.1862529 0.20916219 0.16399577 -0.21219365 0.0085052755 0.19384362
0.23485374 0.1607951 0.19588462 0.05780481 -0.083770126 -0.3456608 -0.008237962 0.08714098
00000000: b0e8 89be de16 babe 15b9 3ebe 9d2e 563e
00000010: 82ee 273e 4b49 59be b659 0b3c f17e 463e
00000020: 807d 703e 78a7 243e fa95 483e bdc4 6c3d
00000030: ac8f abbd 74fa b0be 84f8 06bc f876 b23d
