trained_models/2022-09-16_21:25:40-GraphSAGE_32_3/base_model.pt (torch, 25095 bytes, 9 tensors)

layers.0.lin_l.weight f4 [32, 14]
0	0xbe5835e5	-0.21114309
1	0xbe5233cb	-0.2052757
2	0xbdca6577	-0.09882634
3	0xbe553058	-0.20819223
4	0xbe033c5c	-0.12815994
5	0x3e1705b5	0.14748271
6	0xbe9182cd	-0.28420106
7	0x3c63cdda	0.013904059
8	0xbe19072d	-0.14944144
9	0x3e7cb110	0.24676919
10	0x3d056954	0.03257115
11	0xbe575070	-0.21026778
12	0xbc9cfbe0	-0.019163072
13	0xbe184f7e	-0.14874074
14	0xbd871e8f	-0.065976255
15	0xbe5dcbd1	-0.21659781
16	0x3e0ffba0	0.14060831
17	0x3e27847e	0.16359136
18	0x3e13a96e	0.14420101
19	0x3d70ed26	0.058819912
20	0xbe6ca86e	-0.23111126
21	0xbe1e79c2	-0.15476134
22	0xbe828358	-0.25490832
23	0xbbde3775	-0.0067815133
24	0xbe6f9fe4	-0.23400837
25	0xbe53328d	-0.20624752
26	0xbc0c0ae2	-0.008547517
27	0x3ce0600d	0.02738955
28	0xbdf29b16	-0.118459865
29	0xbcd7e237	-0.026352985
30	0x3e83d519	0.25748518
31	0x3e5a795a	0.21335354
32	0x3e483980	0.19553185
33	0xbd1a0035	-0.037597854
34	0xbd5c55b8	-0.053792685
35	0xbdf967cf	-0.12178003
36	0xbe2b0061	-0.16699363
37	0xbe7528df	-0.23941372
38	0x3e267252	0.16254547
39	0xbd0ad0ed	-0.033890653
40	0x3dbb3652	0.0914122
41	0x3e1e46dc	0.15456718
42	0xbd1a5c5a	-0.03768573
43	0xbeaa1b3e	-0.3322391
44	0xbd5cd415	-0.053913195
45	0xbe5b30a4	-0.21405274
46	0xbd8480f7	-0.064699106
47	0x3e19cdc4	0.150199
48	0x3b96e8d1	0.0046053906
49	0x3e31df41	0.17370321
50	0xbdc0c58e	-0.094126806
51	0x3d598317	0.053103533
52	0x3b986c6a	0.004651596
53	0x3d1c0725	0.03809275
54	0xbcde1387	-0.02710892
55	0x3e35c910	0.1775248
56	0x3e0e216f	0.13879941
57	0x3e6095a3	0.21932082
58	0x3e88198d	0.26581994
59	0x3c497dc2	0.012298049
60	0xbd1924af	-0.0373885
61	0x3d8dfe9c	0.069333285
62	0x3e2061aa	0.15662256
63	0x3e463bf7	0.19358812
64	0x3e1ffb0e	0.15623114
65	0x3e858e3d	0.26085082
66	0x3dadf642	0.084942356
67	0xbe3550d4	-0.17706615
68	0x3e19f9fb	0.15036766
69	0x3e25554d	0.16145821
70	0xbdc3f477	-0.09568112
71	0x3deedde8	0.11663419
72	0x3e0a5993	0.13510732
73	0xbe195caf	-0.14976762
74	0x3e2c151b	0.16804926
75	0xbe31083b	-0.17288296
76	0xbe83a9d2	-0.257155
77	0x3e1e9092	0.15484837
78	0xbe74a622	-0.238915
79	0x3b36ab3c	0.002787306
80	0xbe7990b1	-0.24371602
81	0xbe87efa9	-0.26550034
82	0x3e32cf7e	0.17461964
83	0x3e0a56ce	0.13509676
84	0xbb10c695	-0.002209102
85	0xbe5a8036	-0.21337971
86	0xbda59462	-0.080849424
87	0x3de57184	0.11203292
88	0x3daf9001	0.085723884
89	0x3e299962	0.16562417
90	0x3c8ffb48	0.017575875
91	0x3e1c82bf	0.1528425
92	0xbe2237af	-0.15841554
93	0xbe2ec4d0	-0.17067266
94	0x3e0421f9	0.12903585
95	0x3e8ddd23	0.27707776
96	0xbd3f6822	-0.04673017
97	0xbe64e145	-0.22351559
98	0x3dddeab8	0.10835785
99	0xbe85e1bc	-0.26148784
100	0xbcd22d95	-0.0256565
101	0x3e1d8de8	0.15386164
102	0x3dc71ff0	0.097228885
103	0xbbcc5397	-0.0062355506
104	0x3cb57467	0.022150232
105	0x3e228c3b	0.15873806
106	0x3ea1a639	0.3157213
107	0xbe33710e	-0.17523596
108	0xbcf7a362	-0.030229274
109	0x3e805800	0.2506714
110	0xbe9bfd52	-0.30466706
111	0x3c63a5a6	0.013894474
112	0x3e248965	0.16068037
113	0x3ea62ab5	0.32454458
114	0x3d40d5d1	0.04707891
115	0xbe4b0e68	-0.19829714
116	0x3d104fc1	0.03523231
117	0xbbb9c64a	-0.00566939
118	0xbe76ad1a	-0.2408947
119	0x3e691b54	0.22764331
120	0xbe2c6f68	-0.16839373
121	0x3e376535	0.17909701
122	0x3e6f902f	0.23394845
123	0x3e042c47	0.12907515
124	0xbe614fda	-0.22003117
125	0x3e86215f	0.26197335
126	0xbe3d6ad1	-0.18497778
127	0x3d77a575	0.060460526
128	0xbe68aa06	-0.22721109
129	0xbc28f215	-0.010311623
130	0xbe2824b2	-0.16420248
131	0xbd00f1c4	-0.031480566
132	0xbe3048a2	-0.17215207
133	0xbdc92aa8	-0.09822589
134	0xbcacce53	-0.021094477
135	0xbe2bcb03	-0.16776662
136	0x3e2d19be	0.16904351
137	0xbe88b0a9	-0.2669728
138	0x3e8d624c	0.27614057
139	0x3e12b885	0.14328201
140	0x3e85704a	0.26062232
141	0xbdfd5a2d	-0.12370715
142	0xbd6aed6c	-0.05735533
143	0x3df1bafa	0.11803241
144	0x3e71135d	0.23542543
145	0x3e01e1c6	0.12683782
146	0x3e1ae8b5	0.15127833
147	0xbe33a00c	-0.17541522
148	0x3d4cba72	0.049982496
149	0x3e25beab	0.16186015
150	0xbe4c6b70	-0.19962859
151	0x3dc850cf	0.09781038
152	0xbe21121d	-0.15729566
153	0xbe54a660	-0.20766592
154	0xbda8deb1	-0.082456
155	0xbce99903	-0.028515344
156	0xbe87213c	-0.26392543
157	0xbe477646	-0.19478711
158	0x3dd8ea5b	0.10591575
159	0x3de9a891	0.114091046
160	0x3e3f1caa	0.18663278
161	0x3b9ea333	0.004841232
162	0x3de128e0	0.109941244
163	0xbd84cb0e	-0.06484042
164	0x3d18783c	0.03722404
165	0xbde9fc51	-0.11425079
166	0xbe5373d1	-0.20649649
167	0x3dae9eb7	0.08526366
168	0x3dac00d9	0.08398599
169	0x3e740e43	0.23833565
170	0xbe913522	-0.2836085
171	0x3e7334ea	0.23750654
172	0xbe56614b	-0.20935552
173	0xbdb091b7	-0.08621543
174	0xbe205995	-0.15659173
175	0xbd86445f	-0.065560095
176	0xbdcc6e3d	-0.09981964
177	0x3e882df7	0.26597568
178	0xbdb7265a	-0.08942862
179	0x3e0c068f	0.13674377
180	0x3e7491a9	0.2388369
181	0x3dc1ff1a	0.09472485
182	0xbe02f1f9	-0.12787618
183	0xbe88b2ca	-0.26698905
184	0xbdafbb89	-0.08580691
185	0xbe8b02c1	-0.2715054
186	0x3e6a8a62	0.22904351
187	0x3c50714c	0.012722325
188	0xbd0b5687	-0.034018066
189	0x3d3e694a	0.04648713
190	0x3e3fa53e	0.18715379
191	0x3cfe7336	0.031060796
192	0xbe7e2b39	-0.24821176
193	0x3db4e987	0.08833604
194	0x3c38ddb8	0.011283331
195	0xbe7f5cfc	-0.24937814
196	0x3e70562f	0.23470376
197	0x3e2b29d0	0.16715169
198	0x3d6e87d5	0.05823501
199	0x3e63bb01	0.22239305
200	0x3e0d0adc	0.13773674
201	0xbe377389	-0.17915167
202	0xbe06357b	-0.13106339
203	0x3e25f248	0.16205704
204	0xbd46c91f	-0.048531648
205	0x3e15ed94	0.1464141
206	0xbcb2900a	-0.021797199
207	0x3e895075	0.26819196
208	0x3d61b456	0.055103622
209	0x3e2d36bb	0.1691541
210	0xbea91201	-0.33021548
211	0xbe2f2f11	-0.17107798
212	0x3dd584e2	0.10425736
213	0xbca6519a	-0.020302583
214	0xba5ff705	-0.00085435837
215	0x3e5debc7	0.21671973
216	0xbcb7a96e	-0.022419658
217	0x3e38deb7	0.18053709
218	0x3d55eee4	0.052229777
219	0x3e5f3263	0.21796565
220	0x3b27ddef	0.002561446
221	0x3dcb2b48	0.099203646
222	0x3ddc52cc	0.1075798
223	0xbdb5e9c5	-0.088824786
224	0x3e2d1354	0.16901904
225	0xbe913da3	-0.28367338
226	0x3e8f8961	0.280345
227	0x3e7045f3	0.23464184
228	0xbe58a40e	-0.21156332
229	0xbe0e4dd2	-0.13896874
230	0xbd9363a4	-0.07196739
231	0xbe22652e	-0.1585891
232	0xbe12f690	-0.14351869
233	0x3e3536fc	0.17696756
234	0xbe83c4e7	-0.25736162
235	0xbe0811b7	-0.13288008
236	0x3e518142	0.20459464
237	0xbe294a3b	-0.16532223
238	0xbe497341	-0.19672872
239	0xbe00af48	-0.12566864
240	0x3e319106	0.17340478
241	0x3dd2cdf5	0.102931894
242	0xbe451164	-0.19244915
243	0x3e93796b	0.28803572
244	0xbcd4eade	-0.0259909
245	0xbe56822a	-0.20948091
246	0x3d1d9534	0.03847237
247	0x3e118c46	0.14213666
248	0xbd8f4416	-0.06995408
249	0x3ddc03ce	0.10742913
250	0x3c27800b	0.010223399
251	0x3e81470e	0.25249523
252	0xbe101b49	-0.14072908
253	0x3dc824b4	0.097726256
254	0x3e238a15	0.15970643
255	0xbe045552	-0.12923172

layers.0.lin_r.weight f4 [32, 14]
0	0xbe2d6a26	-0.16935024
1	0x3de23d36	0.11046831
2	0xbe51f540	-0.20503712
3	0xbe16c993	-0.14725332
4	0xbdff9a09	-0.12480552
5	0xbe4de208	-0.20105755
6	0x3d27c039	0.040954802
7	0x3c80bb27	0.015714241
8	0x3d793e08	0.060850173
9	0x3e323981	0.17404748
10	0xbe1287a1	-0.14309551
11	0xbca376fc	-0.019954197
12	0xbe20e6ba	-0.15713015
13	0x3d165853	0.036705326
14	0x3d858a7a	0.06520553
15	0xbc29555f	-0.010335295
16	0xbdf1cb8a	-0.118064
17	0x3cf161f6	0.029465657
18	0x3e24572b	0.16048877
19	0x3d03bf36	0.032164775
20	0xbc993eff	-0.018706797
21	0x3e5df715	0.21676286
22	0x3d61ad93	0.055097174
23	0xbd6dbe20	-0.058042645
24	0xbd85fae7	-0.065419964
25	0xbe992da6	-0.2991764
26	0x3e56145d	0.20906205
27	0x3e201223	0.15631919
28	0xbe1bb0f8	-0.15204227
29	0xbe599d18	-0.21251333
30	0x3dd0f65c	0.10203239
31	0xbce2e9b3	-0.027699327
32	0xbdc89db0	-0.097957015
33	0xbdbe8908	-0.093034804
34	0x3d5234c0	0.051319838
35	0xbda89286	-0.08231072
36	0x3e62177d	0.22079273
37	0xbdbecd77	-0.09316533
38	0xbe7ca2ce	-0.2467148
39	0xbe13f02e	-0.1444709
40	0x3e7cae8a	0.24675956
41	0x3e1e5d51	0.15465285
42	0x3da54f97	0.08071821
43	0xbd5069e0	-0.05088222
44	0xbd32c5c4	-0.043645635
45	0xbc0d292b	-0.008615772
46	0x3e1ad28a	0.15119377
47	0x3e87ccd5	0.26523462
48	0xbe958e99	-0.29210356
49	0xbe122348	-0.14271271
50	0xb931aa50	-0.00016943482
51	0x3e3c326d	0.18378611
52	0xbe90d96b	-0.28290877
53	0x3e9d664c	0.3074211
54	0xbe132ae1	-0.14371826
55	0xbdcb2f22	-0.09921099
56	0x3e1f4aa9	0.15555824
57	0xbe3a70e5	-0.18207128
58	0x3e0e756b	0.13911979
59	0xbe36e889	-0.17862143
60	0x3d72b151	0.059251133
61	0x3e91d263	0.28480825
62	0xbe13bfe8	-0.14428675
63	0xbe446555	-0.1917928
64	0x3e814c76	0.25253648
65	0xbde61056	-0.112335846
66	0xbe4d7a6c	-0.20066231
67	0xbe1fcbd1	-0.15605094
68	0x3d870dc4	0.065944225
69	0xbdce873d	-0.100843884
70	0xbe74d1b6	-0.23908123
71	0xbe5798c1	-0.21054365
72	0xbdfe8273	-0.12427225
73	0xbc64a817	-0.013956091
74	0xbe75214e	-0.23938486
75	0xbda7972a	-0.08183129
76	0x3dc01c20	0.093803644
77	0xbe033d0b	-0.12816255
78	0x3e079eb7	0.13244139
79	0xbe3cde23	-0.18444113
80	0xbe6b8a61	-0.23002006
81	0xbb957921	-0.004561559
82	0xbce7d670	-0.028300494
83	0x3d5b3adb	0.053522926
84	0xbdffce27	-0.12490492
85	0xbd15d6fb	-0.036581974
86	0xbe1bf516	-0.15230212
87	0x3e533595	0.20625909
88	0xbd0f6692	-0.035009928
89	0xbe1eef8b	-0.15521066
90	0xbd5e6167	-0.05429211
91	0x3e32f467	0.17476045
92	0xbe1de4e6	-0.15419349
93	0x3c005833	0.007833528
94	0x3d4449a8	0.047921807
95	0x3d0520ee	0.032502107
96	0xbdfe951f	-0.12430786
97	0x3e608053	0.21923952
98	0xbe7e1fcb	-0.24816816
99	0x3e7b8759	0.2456335
100	0xbe62175f	-0.22079228
101	0x3e961d3d	0.29319182
102	0xbe05c5d8	-0.13063753
103	0xbe710a98	-0.23539197
104	0x3710c0d0	8.6279615e-06
105	0xbe28abb8	-0.16471756
106	0xbe39f415	-0.18159516
107	0x3d593999	0.053033445
108	0x3d931fe0	0.07183814
109	0x3e0954e3	0.13411288
110	0x3da978aa	0.08274968
111	0xbda8ee69	-0.08248598
112	0xbca4d7e5	-0.020122478
113	0x3db39b40	0.08769846
114	0x3cd7945f	0.026315866
115	0x3d5f24a7	0.054478314
116	0xbe0f17c1	-0.13973905
117	0x3e62e019	0.22155799
118	0xbe79c362	-0.24390939
119	0xbe5f41c0	-0.21802425
120	0xbe05dc77	-0.13072382
121	0x3e8bc03c	0.272951
122	0x3c97331f	0.018456994
123	0xbda4a230	-0.08038747
124	0xbcd1a83b	-0.025592914
125	0xbe4ec0d7	-0.2019075
126	0x3e479457	0.19490181
127	0x3dd752e4	0.10513857
128	0xbe5f9ecc	-0.2183792
129	0x3b84844b	0.004044091
130	0x3e2a0329	0.16602768
131	0x3e3c375c	0.18380493
132	0xbe821fdc	-0.25414932
133	0x3e0ac1f4	0.1355055
134	0xbe9872a1	-0.29774955
135	0x3e7e1e39	0.24816217
136	0xbe11f684	-0.14254194
137	0xbdae7f82	-0.08520414
138	0xbdaca107	-0.08429151
139	0x3defe571	0.11713684
140	0x3e74b3a5	0.23896654
141	0xbc3f3c1b	-0.011672045
142	0xbe023da8	-0.12718832
143	0x3e874e90	0.26427126
144	0xbe80e538	-0.2517488
145	0x3e3867d2	0.18008354
146	0xbe26b615	-0.16280396
147	0xbd4bcb00	-0.049754143
148	0xbdb04b2c	-0.08608088
149	0x3e33d59e	0.17561957
150	0x3e69269a	0.22768632
151	0xbd467e7b	-0.048460465
152	0xbe4ef91e	-0.20212218
153	0x3d308030	0.043091
154	0x3dbcd361	0.09220005
155	0xbe27c8ad	-0.16385145
156	0xbe3e6a89	-0.18595327
157	0xbddd9da0	-0.1082108
158	0xbd4c9daa	-0.049955048
159	0x3e16e91e	0.14737365
160	0xbea99e2a	-0.33128482
161	0xbb312374	-0.0027029188
162	0xbe45086a	-0.19241491
163	0xbcb3237c	-0.021867506
164	0xbdbfadd1	-0.09359325
165	0x3e6ce94c	0.2313587
166	0xbe528b45	-0.2056094
167	0x3d3087ac	0.043098137
168	0xbe255672	-0.16146258
169	0x3eaddff5	0.33959928
170	0x3df5f871	0.12010277
171	0x3e8f8bb5	0.28036276
172	0x3e00e088	0.12585652
173	0xbd00035e	-0.03125321
174	0xbe49cf69	-0.19708027
175	0xbccb9114	-0.024849452
176	0xbe133cda	-0.14378682
177	0x3d7f13f2	0.06227488
178	0x3e3c4017	0.18383823
179	0xbe29d583	-0.16585355
180	0xbe5d27a7	-0.21597157
181	0x3e28cdd8	0.16484773
182	0x3e6f15bf	0.23348139
183	0xbde8dee4	-0.11370638
184	0x3d2b91c0	0.041887045
185	0xbe7f6c82	-0.24943736
186	0xbe131e7f	-0.14367102
187	0x3c81cae5	0.015843818
188	0x3e7a1c1c	0.24424785
189	0x3db6c804	0.08924869
190	0x3e047b3b	0.12937634
191	0x3dd5b2c0	0.104344845
192	0xbe136f11	-0.14397837
193	0xbaf9b091	-0.0019049813
194	0x3acea44a	0.0015765515
195	0xbe018b54	-0.12650806
196	0x3d8a85de	0.067638144
197	0xbda3164a	-0.07963236
198	0xbd7e7ac9	-0.062128816
199	0x3e003f22	0.12524083
200	0xbe7ea757	-0.24868523
201	0xbe43c98a	-0.1911985
202	0x3d6bdb6e	0.05758231
203	0x3d40bedf	0.04705703
204	0x3d3d6756	0.046241127
205	0xbe23dc9e	-0.16002128
206	0x3e6b556c	0.22981805
207	0xbe310846	-0.17288312
208	0xbdec81be	-0.11548184
209	0xbe705a81	-0.23472025
210	0x3e2fbffd	0.17163081
211	0xbcc4f51a	-0.024042655
212	0x3e2273ff	0.15864561
213	0xbda12777	-0.078688554
214	0xbe867c4f	-0.26266715
215	0xbe866691	-0.26250127
216	0xbda6e75d	-0.08149598
217	0xbd797140	-0.06089902
218	0xbe3ed734	-0.18636781
219	0x3d8fcf39	0.070219465
220	0x3e5129ff	0.20426176
221	0xbe07c320	-0.13258028
222	0x3e37b687	0.17940722
223	0xbe186312	-0.14881542
224	0xbe0729c3	-0.13199525
225	0xbe2aaaa6	-0.1666666
226	0x3cb3679c	0.02189999
227	0x3e27b779	0.16378583
228	0xbd8a9249	-0.06766183
229	0x3e288af5	0.16459258
230	0x3e65a5ed	0.22426577
231	0x3cb371a2	0.02190477
232	0xbe3a97cc	-0.18221968
233	0xbe18ab80	-0.14909172
234	0x3d94b655	0.072613396
235	0xbd753bea	-0.05987159
236	0x3e5ea749	0.21743502
237	0x3df86f9f	0.12130665
238	0xbb84692d	-0.0040408582
239	0x3cb59a06	0.02216817
240	0xbe78d26b	-0.24299018
241	0xbe6ae57c	-0.22939104
242	0xbdba514b	-0.09097537
243	0x3dafea7f	0.085896485
244	0xbd4d4f38	-0.050124377
245	0xbc1d5119	-0.009601855
246	0xbdc23776	-0.094832346
247	0xbe8f723b	-0.28016838
248	0xbd4a80f5	-0.04943939
249	0x3e907680	0.28215408
250	0x3e74d5e1	0.23909713
251	0xbe31980f	-0.17343162
252	0xbe69a50d	-0.22816868
253	0xbe520060	-0.20507956
254	0x3e91fa83	0.28511438
255	0x3dfcea85	0.123494186

layers.1.lin_l.weight f4 [32, 32]
0	0x3d7b4b42	0.06135107
1	0x3d3675d8	0.04454598
2	0xbe04549e	-0.12922904
3	0xbe064902	-0.13113788
4	0x3cb2c374	0.021821715
5	0xbd5d9d36	-0.054105006
6	0xbe266b0c	-0.16251773
7	0x3e33fae7	0.1757618
8	0xbdbb7251	-0.091526635
9	0x3dabb172	0.083834544
10	0x3de93d57	0.11388653
11	0x3b1ab335	0.002360535
12	0xbcb1a923	-0.021687096
13	0x3e141a4a	0.14463153
14	0x3dd25180	0.10269451
15	0x3c0eafdd	0.008708921
16	0x3e30757a	0.17232314
17	0x3e34b435	0.17646869
18	0xbe0cd905	-0.13754661
19	0x3e30aedb	0.17254202
20	0xbd3cfb00	-0.04613781
21	0x3ae06d69	0.001712245
22	0x3dd7e8db	0.105424605
23	0xbe0b2336	-0.1358765
24	0xbe397ebf	-0.18114756
25	0xbd7b12fa	-0.061297394
26	0x3defb6eb	0.11704811
27	0xbd43f3d3	-0.04783995
28	0xbe310e3d	-0.17290588
29	0xbd25bfc7	-0.040466096
30	0xbde3cf39	-0.11123509
31	0x3d7ccce7	0.061718848
32	0x3e4b26d3	0.19839029
33	0x3deeb055	0.116547264
34	0xbd3cb85d	-0.04607426
35	0xbbff9cc6	-0.0078006713
36	0x3d455407	0.048175838
37	0xbe04f654	-0.12984592
38	0x3d88d94d	0.06682072
39	0x3d91ca2a	0.07118638
40	0x3d8e3e97	0.06945532
41	0xbd771a96	-0.06032809
42	0xbe3713fc	-0.17878717
43	0x3e274191	0.16333605
44	0x3e15b7e6	0.14620933
45	0x3d9c1d11	0.076227315
46	0xbe2cec90	-0.16887116
47	0x3d79c897	0.060982313
48	0x3d6d440a	0.057926215
49	0xbe106d9f	-0.14104317
50	0x3e27852d	0.16359396
51	0xbd0b0f21	-0.033949975
52	0x3d9b42cf	0.07581102
53	0xbde8c85f	-0.11366343
54	0x3d2c4d9a	0.042066194
55	0x3df93721	0.12168718
56	0x3e7ea1d7	0.24866425
57	0xbdb80985	-0.08986191
58	0x3da4beb3	0.080441855
59	0x3d18b727	0.037284043
60	0xbd3ae8f5	-0.04563232
61	0xbdde3a5f	-0.10850977
62	0xbe1f765e	-0.15572497
63	0x3e0f0466	0.13966522
64	0x3e019135	0.12653048
65	0x3e0a6ed9	0.13518848
66	0x3d441084	0.047867313
67	0x3d695a89	0.056971107
68	0xbdb9dc4b	-0.09075221
69	0x3adab079	0.0016684673
70	0xbdf7a0d1	-0.1209122
71	0x3b4dae23	0.003138431
72	0xbd4eb116	-0.05046185
73	0x3c9cfda7	0.01916392
74	0x3cf852cf	0.030312924
75	0xbd9d43eb	-0.0767897
76	0xbddb9199	-0.1072113
77	0x3db92d50	0.09041846
78	0xbd161364	-0.036639586
79	0xbe26ec46	-0.16301069
80	0x3d41723a	0.047228076
81	0xbd3e97c2	-0.046531446
82	0xbd603836	-0.054741107
83	0x3d8f36f5	0.06992904
84	0x3d82acbc	0.06380603
85	0x3d1ef2ec	0.038805887
86	0xbdf6a664	-0.12043455
87	0xbc9ae2b4	-0.018906929
88	0xbded8912	-0.1159841
89	0x3d8847cc	0.06654319
90	0x3d927053	0.071503304
91	0x3ddf1591	0.10892785
92	0x3b044d00	0.0020187497
93	0xbe28c54e	-0.16481516
94	0xbdade377	-0.08490651
95	0x3ddc34a1	0.10752226
96	0x3dd5fbed	0.10448442
97	0xbc92ead8	-0.017934248
98	0xbd46505e	-0.048416488
99	0x3db5c772	0.08875932
100	0x3c4914d7	0.012273035
101	0xbd45b073	-0.04826398
102	0xbd8200df	-0.063478224
103	0x3cd7afe9	0.026328998
104	0xbe3c2cd6	-0.18376479
105	0x3dcc7b8a	0.09984501
106	0xbdbdd553	-0.09269204
107	0x3db5896f	0.08864104
108	0xbdcb76b1	-0.09934748
109	0xbd8f07b7	-0.06983893
110	0xbb222976	-0.002474395
111	0xbdbeea82	-0.093220726
112	0x3d9becf5	0.07613555
113	0xbdf52832	-0.11970557
114	0x3da29742	0.079390064
115	0x3dc67d66	0.096918866
116	0xbe3bb6f1	-0.18331505
117	0x3d161ea8	0.03665033
118	0xbda71e2d	-0.081600524
119	0xbd67c642	-0.056585558
120	0xbd1ea4d1	-0.0387314
121	0x3c3219ed	0.010870439
122	0xbdf64589	-0.120249815
123	0xbe13d1f3	-0.14435558
124	0xbe072b67	-0.1320015
125	0x3cfe1a73	0.031018471
126	0xbdb7b00b	-0.089691244
127	0xbd4f8c06	-0.050670646
128	0xbdc98fb6	-0.09841864
129	0xbcf60746	-0.030032765
130	0x3d011e8c	0.031523272
131	0xbe1f789f	-0.15573357
132	0x3d8e7b43	0.06957104
133	0x3d834ce2	0.064111486
134	0x3db1d800	0.08683777
135	0x3e34a561	0.17641212
136	0x3e110499	0.1416191
137	0x3d67fcdf	0.05663764
138	0xbdf951ed	-0.12173829
139	0xbe09d2a8	-0.13459265
140	0xbd1994dd	-0.037495483
141	0xbd849321	-0.06473375
142	0xbc195504	-0.009358648
143	0xbe14944b	-0.14509694
144	0x3d84e08d	0.06488142
145	0xbe15bacf	-0.14622043
146	0xbdd17ede	-0.10229276
147	0xbd7342a6	-0.059389733
148	0xbe28b904	-0.16476828
149	0x3e44cb7e	0.19218251
150	0x3d8fe1d4	0.07025495
151	0x3e28b340	0.16474628
152	0xbc990874	-0.018680789
153	0xbdea6b5b	-0.11446258
154	0x3c303176	0.01075398
155	0x3d9379f7	0.07200997
156	0xbd83493b	-0.06410452
157	0xbd94d85e	-0.07267831
158	0xbbb2b377	-0.005453523
159	0x3d0fbd1d	0.03509246
160	0xbdad8524	-0.0847266
161	0x3e514d7c	0.20439714
162	0x3b961d7c	0.0045811515
163	0xbd1ada2f	-0.037805732
164	0x3db49c0f	0.08818828
165	0xbdabe815	-0.083938755
166	0xbd6e7a2f	-0.058221992
167	0x3d824d5c	0.063624114
168	0xbe1c5ed9	-0.15270557
169	0x3e392596	0.18080744
170	0xbe0ab6ed	-0.13546343
171	0x3e6e864e	0.2329342
172	0xbdc9a3bf	-0.09845685
173	0x3dd7bcc8	0.10534054
174	0xbe3d3503	-0.18477254
175	0x3cff2ac6	0.031148326
176	0x3c58ce91	0.013232843
177	0x3d30780f	0.043083247
178	0xbcc4bd92	-0.024016175
179	0xbac4d348	-0.001501658
180	0x3c4290d1	0.011875347
181	0xbb85ebe0	-0.0040869564
182	0xbdf5109a	-0.11966057
183	0xbd9bb1d9	-0.07602281
184	0x3e571eb6	0.21007809
185	0xbcbd5596	-0.0231121
186	0xbe30f056	-0.17279181
187	0x3cf74a5d	0.030186826
188	0x3e2439bf	0.16037653
189	0xbcb2fa5f	-0.021847902
190	0x3caa7d4b	0.020811697
191	0x3c0de225	0.008659874
192	0x3cb7f6e5	0.022456596
193	0xbd950e59	-0.07278127
194	0x3dcbcd2a	0.09951241
195	0xbe34d6b5	-0.17660029
196	0xbd4b2108	-0.049592048
197	0x3e1d8396	0.15382227
198	0xbd0c04b9	-0.03418419
199	0xbdf8f23c	-0.121555775
200	0xbd172663	-0.036901843
201	0x3c0bd7a4	0.008535299
202	0xbde912ee	-0.11380564
203	0xbe0eeadc	-0.13956779
204	0xbda697b0	-0.08134401
205	0x3d05ed29	0.032696877
206	0x3d1f95cf	0.038961228
207	0x3b9e1908	0.0048247613
208	0xbdc18b8a	-0.09450443
209	0x3c9dc565	0.019259164
210	0x3e1390dd	0.1441073
211	0x3db83345	0.08994154
212	0x3e11c6ef	0.14236043
213	0x3d43431a	0.047671415
214	0xbdaabbae	-0.08336578
215	0x3db0230a	0.08600433
216	0x3c772b6b	0.015086035
217	0x3dfcf65e	0.12351678
218	0xbdcdd646	-0.10050635
219	0x3dc2f2b0	0.09518945
220	0xbe143889	-0.14474691
221	0x3dac2236	0.08404963
222	0xbd8f689d	-0.07002375
223	0x3d848495	0.064706005
224	0xbc2abd46	-0.010421103
225	0xbd46a5a9	-0.04849783
226	0x3d658a79	0.05604026
227	0x3ddffd06	0.10936932
228	0x3d722577	0.05911776
229	0x3e2dac8b	0.16960351
230	0xbdcbb40d	-0.09946451
231	0xbdaf8dc9	-0.08571965
232	0x3d3bc78d	0.045844603
233	0x3d18cfa5	0.0373074
234	0xbe0a04c1	-0.13478376
235	0xbd83f678	-0.064434946
236	0x3e2129e2	0.15738633
237	0x3df0019d	0.11719058
238	0xbbbe724e	-0.005811966
239	0xbe165b13	-0.1468318
240	0xbe201dac	-0.15636319
241	0x3d905f1d	0.070493914
242	0xbd102a72	-0.03519673
243	0xbd44da27	-0.04805961
244	0xbd8090b4	-0.062776
245	0xbd27094f	-0.04078036
246	0xbcbfb880	-0.023403406
247	0xbe2b79fd	-0.16745754
248	0xbda38fb4	-0.079863936
249	0xbe10b183	-0.14130215
250	0x3d30ae16	0.04313477
251	0x3d7b02dc	0.061282024
252	0x3e01de12	0.1268237
253	0xbe172e5e	-0.14763781
254	0x3cb2c7b5	0.021823743
255	0x3bec5a3e	0.007212906

layers.1.lin_r.weight f4 [32, 32]
0	0x3de53e61	0.111935385
1	0xbd910d38	-0.070825994
2	0xbe0d3d89	-0.13793005
3	0xbdc0d5f2	-0.09415807
4	0x3de6bdb4	0.11266652
5	0xbcad7f5d	-0.021178896
6	0x3e068180	0.13135338
7	0x3de468b4	0.11152783
8	0x3e17d872	0.14828661
9	0x3d901310	0.07034886
10	0x3be11e38	0.0068700574
11	0xbe8a1f93	-0.26977214
12	0x3e20bbf6	0.15696701
13	0x3d439ee1	0.04775894
14	0x3dce8a05	0.10084919
15	0xbcd86530	-0.026415437
16	0x3e1ad2e4	0.15119511
17	0xbe241748	-0.16024506
18	0x3e33586f	0.17514203
19	0xbe0ce36a	-0.13758627
20	0xbdebde20	-0.11516976
21	0xbe16fb85	-0.14744385
22	0xbdcd783c	-0.100326985
23	0xbd01753d	-0.031605948
24	0xbe603706	-0.2189599
25	0xbca34dfa	-0.019934643
26	0xbbae55ef	-0.0053203027
27	0x3d48b8c5	0.049004335
28	0xbd9ced35	-0.07662431
29	0x3d98a8b8	0.074540555
30	0xbd8b6b2d	-0.068075515
31	0xbdab0796	-0.08351056
32	0x3dbbf757	0.09178036
33	0x3c67cc0d	0.014147771
34	0x3d87de21	0.066341646
35	0x3dd900ed	0.1059588
36	0x3dbb2578	0.09138006
37	0xbd59b250	-0.053148568
38	0xbdfef2c9	-0.12448651
39	0xbcb16d25	-0.02165849
40	0x3e29dfed	0.16589327
41	0x3d0ba639	0.03409407
42	0x3e2990b8	0.16559112
43	0x3d2e5e91	0.042570654
44	0xbe2909ba	-0.16507617
45	0x3e2f1963	0.17099528
46	0x3de2f25c	0.11081383
47	0x3dc3d887	0.09562784
48	0x3dac9eac	0.08428702
49	0xbc8508e0	-0.016239583
50	0x3dae8b74	0.08522692
51	0xbd34188b	-0.04396872
52	0x3e45de7c	0.19323152
53	0x3e32230e	0.17396185
54	0xbd1afa3c	-0.0378363
55	0x3c1a4f9a	0.009418393
56	0x3e897ee5	0.26854625
57	0x3e112dfb	0.14177696
58	0x3deb915d	0.11502335
59	0xbdead815	-0.114669956
60	0xbda95e16	-0.082698986
61	0xbdfadf3e	-0.12249611
62	0x3e33d0fb	0.17560188
63	0x3d5e0e89	0.05421308
64	0x3d794490	0.060856402
65	0xbe20178f	-0.15633987
66	0x3df5525d	0.119786
67	0x3c5a5deb	0.013328056
68	0xbdfa9f42	-0.12237407
69	0x3c5bb538	0.013409905
70	0x3defeb5c	0.11714813
71	0x3d25d552	0.04048664
72	0x3d6d469e	0.057928674
73	0x3db1f158	0.08688611
74	0xbe0bb6d6	-0.13643965
75	0x3d50e2c0	0.050997496
76	0xbd541ffd	-0.05178832
77	0xbe0185aa	-0.12648645
78	0x3dd16c7b	0.10225769
79	0xbc2938e1	-0.010328502
80	0xbe2fd5d8	-0.17171419
81	0x3dae23e0	0.08502936
82	0xbe06f612	-0.13179806
83	0x3dd0ba8c	0.10191831
84	0xbe24569c	-0.16048664
85	0xbda3b3e1	-0.079932936
86	0xbdfac656	-0.12244861
87	0x3e1aff87	0.15136538
88	0xbd3cafdb	-0.046066146
89	0x3e31fdd1	0.1738198
90	0x3d9aa06f	0.075501315
91	0x3deebed4	0.11657491
92	0xbe316bce	-0.1732628
93	0xbe33966e	-0.17537853
94	0x3cdcf2c7	0.026971234
95	0xbd692a05	-0.05692484
96	0xbc4252d7	-0.011860571
97	0x3e1fc997	0.15604244
98	0x3e1f311f	0.15546082
99	0x3c972751	0.018451365
100	0x3da91983	0.08256819
101	0x3c3e0d30	0.011599824
102	0x3e14ec02	0.14543155
103	0xbe1c64c3	-0.15272813
104	0xbcdccd4f	-0.026953368
105	0xbcbe3d5f	-0.023222623
106	0xbdf4bc7b	-0.11950012
107	0x3d781c4c	0.06057386
108	0xbe38426a	-0.17994085
109	0xbcf4e33d	-0.029893512
110	0xbbe7ded1	-0.0070761223
111	0x3e194432	0.1496742
112	0xbdc11c35	-0.09429208
113	0xbe43d249	-0.19123186
114	0xbe21b6eb	-0.15792434
115	0x3d823dba	0.0635943
116	0x3db3bfda	0.08776827
117	0x3d3d12bc	0.046160445
118	0x3e2bbcd2	0.16771248
119	0x3dc1f136	0.094698355
120	0xbbae826f	-0.0053256075
121	0xbe012849	-0.12613024
122	0xbe2ffd4a	-0.17186466
123	0xbd9e5625	-0.077312745
124	0x3dd62cbb	0.104577504
125	0x3dc88c92	0.09792437
126	0x3dc38bf9	0.09548182
127	0xbdb5eb42	-0.088827625
128	0xbd9b776f	-0.075911395
129	0x3de139e0	0.10997367
130	0x3dbc015b	0.09179946
131	0xbe006e97	-0.12542187
132	0x3e10f463	0.14155726
133	0xbe339cdc	-0.17540306
134	0x3c16b90b	0.009199391
135	0xbe08a922	-0.13345769
136	0x3e11a913	0.14224653
137	0xbbdf9a72	-0.0068238312
138	0x3df9b5f0	0.12192905
139	0xbe26260e	-0.16225454
140	0x3c3fd885	0.011709337
141	0xbd57d362	-0.052691825
142	0x3ceba553	0.028765356
143	0xbe0601b0	-0.13086581
144	0xbe3d6c52	-0.18498352
145	0xbda17d36	-0.0788521
146	0xbe26ec85	-0.16301163
147	0xbd0fda2e	-0.03512018
148	0x3dc94850	0.09828246
149	0xbd0ecd36	-0.034863673
150	0x3e14b648	0.1452266
151	0x3dddf3d6	0.10837524
152	0x3a5e752a	0.0008486087
153	0x3e16b15b	0.14716093
154	0xbdecff64	-0.115721494
155	0xbd544532	-0.051823802
156	0x3db492eb	0.08817085
157	0xbcd92656	-0.026507538
158	0x3e0169a5	0.12637956
159	0x3dab60fe	0.08368109
160	0x3d672ab7	0.05643722
161	0x3e1219bb	0.14267628
162	0xbe325c30	-0.17417979
163	0x3ce867af	0.028369753
164	0x3df58a05	0.11989216
165	0x3df33e71	0.11877144
166	0x3dd3e232	0.10345878
167	0x3e0d4ce5	0.13798864
168	0x3e18b266	0.14911804
169	0x3d5e7c70	0.05431789
170	0x3d07fe3d	0.033201445
171	0x3dc621e8	0.09674436
172	0x3b2bae32	0.0026196358
173	0xbd599aee	-0.053126268
174	0xbd195b78	-0.037440747
175	0x3de00b9b	0.109397136
176	0x3e2f7c4d	0.1713726
177	0x3e4a0e38	0.19731987
178	0xbdf82647	-0.12116676
179	0xbc26ed24	-0.010188375
180	0xbd92e93d	-0.07173393
181	0x3d1c8756	0.038215004
182	0xbe3934a1	-0.18086483
183	0x3e0c3326	0.13691387
184	0x3e1ad010	0.15118432
185	0x3d2fe822	0.04294599
186	0x3d6f48fd	0.058419216
187	0x3e59ceef	0.21270345
188	0x3e0db4c9	0.13838495
189	0xbc8e1c18	-0.01734738
190	0x3e2da8b2	0.16958883
191	0xbd1ddc88	-0.038540393
192	0x3e11ede7	0.14250909
193	0x3d8e44df	0.0694673
194	0x3e219399	0.1577896
195	0xbe28eccf	-0.16496585
196	0xbe0528d3	-0.13003854
197	0xbe107056	-0.14105353
198	0xbe2abf89	-0.16674627
199	0x3dbd1781	0.09232999
200	0xbdb5de41	-0.08880282
201	0x3c8d6267	0.017258836
202	0x3cf5f163	0.030022329
203	0xba81b94d	-0.0009897143
204	0xbe3fccb5	-0.18730433
205	0x3cfebd24	0.031096049
206	0x3d5d735e	0.0540651
207	0xbe32a206	-0.1744462
208	0xbddd4b6e	-0.10805403
209	0xbdaeddb7	-0.085383825
210	0x3dffac41	0.12484027
211	0xbba783ab	-0.0051121316
212	0x3ceb8226	0.028748583
213	0xbd44b3fa	-0.0480232
214	0x3dcc77d9	0.099837966
215	0x3d4a6889	0.0494161
216	0xbdbc1e90	-0.09185517
217	0x3e19e6e5	0.15029486
218	0xbe1e72b0	-0.15473437
219	0x3dddda61	0.10832668
220	0x3c8443fa	0.016145695
221	0xbc7fe37d	-0.015618202
222	0xbdd54223	-0.10413005
223	0x3d178c61	0.03699911
224	0x3da87ac3	0.0822654
225	0xbc856794	-0.016284741
226	0xbc9c9edb	-0.019118717
227	0xbe3070da	-0.1723055
228	0x3d31322e	0.043260746
229	0x3bbf2a27	0.0058338824
230	0x3e167921	0.14694645
231	0x3e22c50a	0.15895477
232	0xbd44c616	-0.048040472
233	0x3e0cc5d4	0.1374734
234	0xbe1e899f	-0.15482186
235	0xbdfd605d	-0.123718955
236	0xbe1065fb	-0.14101402
237	0xbdd7059c	-0.10499117
238	0xbe2c4bdb	-0.16825812
239	0xbde775e9	-0.113017865
240	0xbdd0ce2b	-0.101955734
241	0x3d71b651	0.05901176
242	0x3db01b07	0.08598905
243	0xbd120e92	-0.035658427
244	0x3de693ea	0.11258681
245	0x3be2df19	0.006923568
246	0x3e191b71	0.14951874
247	0x3d51ab1b	0.05118857
248	0x3d3b3b63	0.045710932
249	0xbe1acabc	-0.151164
250	0xbd7104a2	-0.05884231
251	0x3e1f32e5	0.15546758
252	0xbe13b86a	-0.14425817
253	0x3cec3bd6	0.028837126
254	0xbda27b31	-0.07933653
255	0xbda5819e	-0.08081363

layers.2.lin_l.weight f4 [32, 32]
0	0xbe067414	-0.13130218
1	0x3e186669	0.14882816
2	0x3da145c7	0.07874637
3	0x3c636890	0.01387991
4	0x3d6110a6	0.054947518
5	0x3e0d9400	0.13825989
6	0x3d454968	0.04816571
7	0xbc5bddca	-0.013419578
8	0xbdfbe0f5	-0.122987665
9	0xbb04ad3c	-0.0020244857
10	0xbdc2e48b	-0.09516247
11	0xbd774201	-0.06036568
12	0xbdd25a62	-0.102711454
13	0xbdba4d6c	-0.09096798
14	0xbc423a46	-0.011854714
15	0x3d8be535	0.06830827
16	0xbe245ce3	-0.16051058
17	0xbd6086d5	-0.054816086
18	0x3dafcb10	0.08583653
19	0xbe2c081a	-0.16799966
20	0xbe2f126d	-0.17096873
21	0xbe0ebb1b	-0.13938563
22	0xbda7a54a	-0.08185823
23	0xbe0365d6	-0.12831816
24	0xbda13a4a	-0.07872446
25	0xbe057d30	-0.13036036
26	0xbdc71055	-0.09719912
27	0xbcb39230	-0.021920294
28	0xbe1b23a5	-0.15150316
29	0xbddc1258	-0.10745686
30	0xbdf53a57	-0.11974018
31	0xbe2efce8	-0.17088664
32	0x3dfc8833	0.123306654
33	0xbdd750a9	-0.105134316
34	0xbdacfe4b	-0.0844694
35	0x3e0f51fa	0.13996115
36	0xbb1ea706	-0.002420844
37	0xbe0f2e1d	-0.13982435
38	0xbd788321	-0.06067193
39	0xbe0fe65a	-0.14052716
40	0xbdc9b477	-0.09848874
41	0xbe1bac23	-0.15202384
42	0x3c114a05	0.008867745
43	0xbe2b58e4	-0.16733128
44	0x3cbb180f	0.02283862
45	0xbe066599	-0.13124694
46	0x3de6fffd	0.11279295
47	0x3dc20466	0.09473495
48	0xbe28620e	-0.16443655
49	0x3d831372	0.06400193
50	0x3dd4ff4c	0.104002565
51	0xbe1aeb8d	-0.15128918
52	0xbda408a6	-0.08009462
53	0xbdb7431b	-0.08948346
54	0xbe1106be	-0.14162728
55	0xbc630192	-0.013855355
56	0xbd87bc22	-0.0662768
57	0x3e020351	0.12696578
58	0x3e18f8c9	0.14938654
59	0x3dd848b3	0.10560741
60	0xbdc5fcbc	-0.09667346
61	0xbdf446c3	-0.11927559
62	0xbd9bce0a	-0.07607658
63	0xbbb1b959	-0.0054237065
64	0xbe36a188	-0.17835057
65	0xbd8a022c	-0.067386955
66	0x3d0710b8	0.03297493
67	0xbe19bdbe	-0.15013787
68	0x3ccf4a58	0.025304005
69	0xbd25ddbc	-0.040494666
70	0xbd94c6c4	-0.07264474
71	0x3db3eac8	0.08785015
72	0x3d7f1cd0	0.062283337
73	0xbc486a97	-0.012232444
74	0x3d3ff21c	0.046861753
75	0x3c409414	0.011754055
76	0x3ddec18e	0.108767614
77	0xbe1c42c7	-0.15259849
78	0x3d0844f5	0.033268888
79	0x3d88c13d	0.06677482
80	0x3e7a9d82	0.24474147
81	0x3d9c3e31	0.076290496
82	0xbd3c8577	-0.04602572
83	0x3b19f6fc	0.0023493161
84	0x3ceacf7b	0.028663388
85	0x3d9e1029	0.07717926
86	0xbde46fef	-0.11154162
87	0xbcdd915c	-0.027046852
88	0xbe2f7422	-0.17134145
89	0x3d01b211	0.031663958
90	0xbde98957	-0.114031486
91	0x3d2c874d	0.04212122
92	0x3d0a2b17	0.0337325
93	0xbe10fde0	-0.14159346
94	0x3e1c1ff7	0.15246569
95	0xbd924aa1	-0.071431406
96	0xbba90de1	-0.005159125
97	0xbe1fcb24	-0.15604836
98	0x3d8d8fa6	0.069121644
99	0x3de93bb0	0.113883376
100	0xbd7d8cf8	-0.061902016
101	0x3e718495	0.23585732
102	0xbcababfc	-0.020956032
103	0x3d8f1cea	0.06987937
104	0x3e289e3b	0.1646661
105	0x3df941d0	0.12170756
106	0xbde6a906	-0.112627074
107	0x3e224c61	0.15849449
108	0x3e01513d	0.12628646
109	0x3da69229	0.081333466
110	0xbcb85c87	-0.022505058
111	0xbc1f74b6	-0.009732416
112	0x3dda1512	0.1064855
113	0x3e15d412	0.1463168
114	0x3dd84084	0.105591804
115	0xbdce662e	-0.10078083
116	0xbcbea28d	-0.02327087
117	0x3e2c8f6b	0.16851585
118	0x3e351746	0.1768466
119	0x3d392b44	0.045207277
120	0xbd3ed7c8	-0.046592504
121	0x3c87a886	0.01655985
122	0x3dcd87bc	0.10035655
123	0x3e028116	0.12744555
124	0xbd88e6e8	-0.06684667
125	0xbd22d8a4	-0.039757386
126	0xbd9e0189	-0.077151366
127	0xbded6665	-0.11591796
128	0xbda60613	-0.08106627
129	0x3ca6d035	0.020362953
130	0xbdec711a	-0.1154501
131	0x3d8968c5	0.06709436
132	0xbd52ce2a	-0.051466145
133	0x3e7b5f02	0.24547961
134	0xbd81fb37	-0.063467436
135	0x3d0ace9d	0.033888448
136	0x3e71ac7a	0.23600951
137	0xbd6fa53e	-0.058507197
138	0x3d9659ae	0.07341324
139	0x3bb28e58	0.0054490976
140	0xbd71eef9	-0.059065793
141	0xbe03f275	-0.12885459
142	0xbbe1ccea	-0.0068908827
143	0x3dcbddaa	0.099543884
144	0x3d280c10	0.04102713
145	0xbca03290	-0.01955536
146	0x3d0e2730	0.03470534
147	0x3d9c25da	0.07624407
148	0xbe0c323a	-0.13691035
149	0xbd965b36	-0.07341616
150	0x3cb9f0d3	0.022697842
151	0xbe4d97e1	-0.20077468
152	0x3ddb4112	0.107057706
153	0xbc6ba4af	-0.014382525
154	0x3d8e2a36	0.06941645
155	0x3c7dab68	0.015482761
156	0x3c4e37fe	0.012586592
157	0x3e3d5745	0.18490322
158	0xbc289a5e	-0.01029071
159	0x3e45663d	0.19277282
160	0xbe3d7c4c	-0.18504447
161	0x3e002782	0.12515071
162	0x3dc66066	0.09686355
163	0x3df95626	0.12174635
164	0xbe2d6247	-0.16932021
165	0x3e2ab887	0.16671954
166	0xbcd9b80e	-0.026577022
167	0xbe04d628	-0.12972319
168	0x3de6be4e	0.112667665
169	0x3dcdbee9	0.10046179
170	0x3c007ab9	0.007841759
171	0x3daecfad	0.08535705
172	0x3d9b262b	0.07575639
173	0xbda42c29	-0.080162354
174	0x3e5cc4e7	0.21559487
175	0xbd93f428	-0.072243035
176	0x3de5499d	0.11195681
177	0x3d94649f	0.072457545
178	0x3d61f8f0	0.055169046
179	0x3de590cc	0.112092584
180	0xbd105f48	-0.035247117
181	0xbda69faf	-0.08135926
182	0xbcd232e9	-0.025659041
183	0xbe3f6e41	-0.18694402
184	0xbe0ae257	-0.13562904
185	0xbd903f27	-0.07043295
186	0xbdef2dee	-0.11678682
187	0x3d3cd3b5	0.046100337
188	0xbe4cd3ae	-0.20002624
189	0xbe4da465	-0.20082243
190	0x3d5d7d78	0.054074734
191	0x3e27c77c	0.16384691
192	0x3e1ea15a	0.15491238
193	0xbe347166	-0.17621383
194	0xbd85e897	-0.065385036
195	0xbb08ec58	-0.0020892825
196	0xbbc0a6f1	-0.005879276
197	0xbd41d2ad	-0.047320057
198	0xbd8f9793	-0.07011332
199	0xbdaf4fde	-0.08560155
200	0xbdfc62e0	-0.123235464
201	0xbe27389c	-0.16330189
202	0xbde0075d	-0.109389044
203	0x3de78b57	0.11305874
204	0xbe271833	-0.16317825
205	0xbe2bd38c	-0.16779917
206	0x3e28fcfc	0.16502756
207	0xbd656c17	-0.056011286
208	0xbd80b528	-0.06284553
209	0x3d185846	0.03719356
210	0xbe0c56e2	-0.13705018
211	0x3dcf5dd1	0.10125316
212	0xbe3876a1	-0.18014003
213	0xbdb8c232	-0.09021415
214	0xbe0e18c9	-0.13876642
215	0xbd2aba78	-0.041681737
216	0xbc820e6e	-0.015876021
217	0xbe30af05	-0.17254265
218	0xbc29c593	-0.010362047
219	0x3c8058f4	0.015667416
220	0x3afd74e9	0.001933721
221	0xbd8b2858	-0.06794804
222	0x3e0dcf67	0.13848649
223	0xba03f337	-0.0005033495
224	0xbb8f7d7c	-0.0043789726
225	0xbd8ac44c	-0.06775722
226	0xbd22f084	-0.039780155
227	0x3d97f5e1	0.074199446
228	0xbdd793a0	-0.10526204
229	0x3d99ef4d	0.07516346
230	0x3bcda88e	0.006276197
231	0xbe139c35	-0.14415057
232	0xbda239d6	-0.079211876
233	0x3d42c917	0.047555055
234	0x3cd58fd4	0.02606956
235	0xbd895200	-0.067050934
236	0xbe0d0edf	-0.13775204
237	0x3e10e725	0.14150675
238	0x3cec76a5	0.028865168
239	0x3e125e5e	0.1429381
240	0xbe6798c8	-0.22616875
241	0x3e13017c	0.14356035
242	0xbe0216ad	-0.12703963
243	0x3db02efd	0.08602712
244	0xbd2acb37	-0.041697707
245	0x3d87022e	0.065922126
246	0xbddfbe58	-0.10924977
247	0xbcc35fa3	-0.023849314
248	0xbcfe86c3	-0.031070119
249	0x3de63132	0.11239852
250	0x3dcbd89a	0.09953423
251	0xbe053630	-0.13008952
252	0x3da68605	0.08131031
253	0xbe0cf089	-0.13763632
254	0x3bc032f4	0.005865449
255	0xbe0c5b79	-0.13706769

layers.2.lin_r.weight f4 [32, 32]
0	0x3e2428b2	0.16031149
1	0x3dd3ac58	0.10335606
2	0x3dc6c0f9	0.09704775
3	0xbdc6a93e	-0.09700249
4	0x3e28b319	0.1647457
5	0x3e12ce85	0.14336593
6	0xbdfc6b02	-0.123250976
7	0xbdc126ac	-0.09431204
8	0xbdb97f26	-0.09057455
9	0xbcd667ee	-0.026172604
10	0xbe07e5ab	-0.13271205
11	0x3dd9254d	0.10602818
12	0x3e25f96c	0.16208428
13	0x3de6798d	0.11253653
14	0xbdd19c85	-0.10234932
15	0x3d041912	0.03225047
16	0xbddde2bd	-0.108342625
17	0x3e1ad653	0.1512082
18	0x3e05a88d	0.13052578
19	0x3d3f6fe5	0.04673757
20	0xbe2e2216	-0.1700519
21	0xbd48a247	-0.048982885
22	0xbe4e4836	-0.20144734
23	0x3d91828c	0.07104978
24	0x3de48c7e	0.11159609
25	0xbe2619d9	-0.16220798
26	0xba0cb81c	-0.00053680106
27	0xbdf14fee	-0.117828235
28	0xbdab6054	-0.083679825
29	0xbe2e6bda	-0.1703333
30	0xbc16ce33	-0.009204435
31	0xbe0f2956	-0.13980612
32	0xbe05e0bc	-0.1307401
33	0xbe2d74f1	-0.16939141
34	0x3d61320a	0.05497936
35	0xbe00128c	-0.12507075
36	0xbe0b643d	-0.13612457
37	0x3e0249b5	0.1272343
38	0x3b896912	0.0041934336
39	0x3e20f09f	0.1571679
40	0x3d5051f4	0.050859407
41	0xbd66f216	-0.056383215
42	0x3c2d604a	0.010582039
43	0xbc83ab47	-0.016072882
44	0x3cda98c9	0.026684182
45	0x3e1280cd	0.14306946
46	0x3e22a52a	0.15883318
47	0xbe065c4c	-0.13121146
48	0xbde2c749	-0.11073167
49	0x3b8d77a8	0.0043172427
50	0xbe0a0595	-0.13478692
51	0x3e1b4ea1	0.15166713
52	0x3d59de6f	0.053190645
53	0x3d45e8bb	0.048317652
54	0x3dcd0716	0.10011117
55	0xbd84e19f	-0.06488346
56	0x3cbd886a	0.023136336
57	0xbd39254e	-0.045201592
58	0x3db9818f	0.090579145
59	0xbe1f56d8	-0.15560472
60	0xbd1879f7	-0.03722569
61	0x3e0e2e5d	0.13884874
62	0x3d876a31	0.06612051
63	0x3de24d1d	0.110498644
64	0xbd48806a	-0.04895059
65	0xbc3c450c	-0.011491071
66	0x3e0c509d	0.13702627
67	0xbc6ce3f9	-0.01445865
68	0x3d5477d0	0.051872075
69	0x3e2ff4b6	0.17183194
70	0xbdee84d8	-0.11646432
71	0xbc510117	-0.0127566075
72	0x3c5f6720	0.013635427
73	0x3e100dc2	0.14067748
74	0xbe26028b	-0.16211908
75	0xbe064297	-0.1311134
76	0xbd20a843	-0.039222967
77	0x3beca0c4	0.007221313
78	0x3dde87fd	0.108657815
79	0x3d192112	0.037385054
80	0x3e2d080c	0.16897601
81	0x3e13dec8	0.14440453
82	0xbe397d2c	-0.18114156
83	0xbc9419f0	-0.018078774
84	0x3c00c063	0.007858369
85	0x3e060908	0.13089383
86	0xbdf0e2fb	-0.11762043
87	0x3d4b4ae2	0.04963196
88	0x3e0d0f1d	0.13775297
89	0x3e1924fd	0.14955516
90	0xbcaf986b	-0.021434983
91	0x3d925582	0.071452156
92	0x3e30111c	0.17194027
93	0xbd28d590	-0.041219294
94	0x3dec4657	0.11536854
95	0x3e1d5f86	0.1536847
96	0x3dfe1905	0.12407116
97	0x3dbe8966	0.093035504
98	0xbde1bd9f	-0.110224955
99	0xbc571a7c	-0.013128873
100	0xbe1e079c	-0.1543259
101	0x3dff428b	0.12463864
102	0xbdb38300	-0.08765221
103	0x3e02bfc6	0.12768468
104	0x3e581d3c	0.21104902
105	0x3daaa5cb	0.08332404
106	0x3e306f7a	0.17230025
107	0x3e3588f6	0.17728028
108	0x3d37b50e	0.0448504
109	0x3d4ea8ef	0.050454076
110	0xbd9b97e6	-0.07597332
111	0x3de69cff	0.112604134
112	0xbdcaaad9	-0.09895868
113	0x3e052247	0.13001357
114	0x3c746d1e	0.014918594
115	0x3d5d9157	0.054093685
116	0x3e34eeb6	0.17669186
117	0xbe11d566	-0.14241561
118	0x3d108122	0.0352794
119	0xbda43170	-0.08017242
120	0x3dc9e9b0	0.098590255
121	0x3db14d74	0.08657351
122	0x3ddd478f	0.10804664
123	0x3c7231c1	0.01478237
124	0x3e10572b	0.14095752
125	0x3cb40201	0.021973612
126	0xbe0bd1f0	-0.13654304
127	0x3deff45c	0.1171653
128	0xbd19d0a9	-0.03755251
129	0x3dccabb9	0.09993691
130	0xbde3cbc8	-0.111228526
131	0x3e0ac788	0.13552678
132	0xbe2ade34	-0.16686326
133	0x3e75fe2c	0.2402274
134	0x3e0ce7f3	0.13760357
135	0x3e0a996a	0.13535085
136	0x3ded5836	0.115890905
137	0x3e423210	0.1896441
138	0x3d4da52d	0.050206352
139	0x3e182882	0.14859203
140	0x3dd7ba85	0.10533623
141	0x3d13195e	0.035912864
142	0x3e77eb75	0.24210913
143	0x3e5d426b	0.21607368
144	0x3e8285cf	0.25492713
145	0xbd896234	-0.06708184
146	0xbdf2ae08	-0.118496
147	0xbdb25dc4	-0.087092906
148	0x3dc29a8e	0.09502135
149	0x3dbd5bd0	0.092460275
150	0xbbf8f41a	-0.0075974585
151	0xbdf4fef8	-0.11962694
152	0x3c83311f	0.016014634
153	0xbdc1b4e7	-0.094583325
154	0xbd32eaf9	-0.04368112
155	0xbe1ed238	-0.1550988
156	0xbbfb173e	-0.007662683
157	0x3dad5229	0.084629364
158	0x3d6ad9b1	0.057336513
159	0x3e92a1f0	0.28639174
160	0xbd5a1c97	-0.05324992
161	0xbe0ea64c	-0.13930625
162	0x3d6e54e8	0.05818644
163	0xbb68b3c0	-0.003550753
164	0xbd925575	-0.07145206
165	0x3e5f86fd	0.21828838
166	0x3d90d965	0.07072715
167	0xbd8683d0	-0.0656811
168	0xbc01d43b	-0.007924135
169	0xbe072af6	-0.13199982
170	0xbdfa7206	-0.122287795
171	0xbce368a0	-0.02775985
172	0xbdcc7fb3	-0.09985294
173	0x3e1507e1	0.14553787
174	0x3cccd849	0.025005477
175	0xbc388001	-0.011260987
176	0x3d8ffd32	0.07030715
177	0x3d084c41	0.033275846
178	0xbe38da4f	-0.18052028
179	0x3cedd9aa	0.029034454
180	0xbe00b490	-0.12568879
181	0x3e28f306	0.16498956
182	0xbce3b960	-0.027798355
183	0xbdc9e77b	-0.098586045
184	0xbd3f880e	-0.04676061
185	0xbdb07a00	-0.0861702
186	0x3d8c5bb1	0.06853426
187	0xbcbd1826	-0.023082804
188	0x3dec10d2	0.11526646
189	0x3cc12cd8	0.023580953
190	0xbdfbc461	-0.12293316
191	0xbd8d3b8b	-0.068961225
192	0xbd831a0a	-0.06401451
193	0xbd82238f	-0.063544385
194	0x3db40623	0.08790233
195	0xbdc2f634	-0.09519616
196	0xbd948977	-0.07252782
197	0xbd54761a	-0.051870443
198	0xbd073b76	-0.03301569
199	0xbad48eb2	-0.0016216843
200	0x3daa2e5f	0.08309626
201	0x3cd25474	0.025675036
202	0xbd42bf54	-0.047545746
203	0xbd2505cf	-0.040288743
204	0xbe21c0f1	-0.15796258
205	0xbe04a717	-0.12954365
206	0xbe260175	-0.16211493
207	0x3e213bb0	0.15745425
208	0xbc91f60a	-0.017817516
209	0xbde4ceaa	-0.111722305
210	0x3de0d388	0.109778464
211	0xbe28f065	-0.16497953
212	0xbd9bae6f	-0.0760163
213	0x3e2b7bbf	0.16746424
214	0xbdb3a868	-0.08772355
215	0x3dd41bbf	0.10356855
216	0x3e04d41d	0.1297154
217	0xbd013aa3	-0.03155006
218	0x3e29e534	0.1659134
219	0x3d93dbbb	0.07219645
220	0x3d45bf5d	0.0482782
221	0x3d831601	0.06400681
222	0x3e11f61b	0.14254038
223	0xbe2e645d	-0.17030473
224	0xbd623736	-0.055228435
225	0x3d6ce7c4	0.057838216
226	0x3e043875	0.12912162
227	0xbd871191	-0.065951474
228	0x3cdc0952	0.026859913
229	0x3e717a10	0.2358172
230	0x3d197e7c	0.03747414
231	0xbe1bf912	-0.15231732
232	0xbe188783	-0.14895444
233	0x3d9633c4	0.07334092
234	0xbe60f7e4	-0.21969563
235	0x3d3d8a8a	0.0462747
236	0xbdfff8e7	-0.12498646
237	0x3dbbcec9	0.091703005
238	0xbcad5b83	-0.0211618
239	0xbbbee5e4	-0.005825745
240	0x3e15b3e2	0.14619401
241	0xbdf74498	-0.1207363
242	0xbe24b34a	-0.16084018
243	0x3ddd2c5d	0.10799477
244	0xbe0e50e1	-0.1389804
245	0xbe769c90	-0.24083161
246	0x3d897c54	0.06713167
247	0xbe2ef863	-0.1708694
248	0x3be57f8c	0.00700373
249	0x3dc443b7	0.09583228
250	0xbdbfc4d9	-0.093637176
251	0xbe078285	-0.13233383
252	0xbc81984d	-0.015819693
253	0x3d53e01c	0.0517274
254	0xbe28c933	-0.16483001
255	0x3cf72bae	0.030172195

fc11.weight f4 [16, 32]
0	0x3bfbc88d	0.0076838196
1	0x3df454ac	0.119302124
2	0x3d94c9aa	0.07265027
3	0xbdb04193	-0.08606257
4	0xbd255f07	-0.04037383
5	0x3e54d403	0.20784001
6	0xbddd37b8	-0.10801643
7	0xbcc15ab5	-0.023602823
8	0x3bca469b	0.0061729676
9	0x3e197b8e	0.14988539
10	0xbb69f748	-0.003570037
11	0x3cc9299e	0.024555977
12	0x3e05f51a	0.1308178
13	0x3d5731df	0.052537795
14	0x3df8083d	0.12110946
15	0x3daca4ea	0.08429892
16	0x3e4492c3	0.1919661
17	0xbdb25dc8	-0.087092936
18	0x3e9437e3	0.28948888
19	0x3dda9610	0.106731534
20	0x3da21259	0.07913656
21	0x3dad248e	0.08454238
22	0xbded8667	-0.11597901
23	0xbda8f435	-0.08249704
24	0xbe279926	-0.16367015
25	0x3e3ab509	0.18233122
26	0xbd2382ac	-0.03991954
27	0xbd9b5b62	-0.07585789
28	0x3e303ef5	0.17211516
29	0x3d3669eb	0.044534605
30	0xbcd2f528	-0.025751665
31	0x3d3ba9ca	0.04581622
32	0xbcf69c2a	-0.030103762
33	0xbe17a937	-0.14810644
34	0xbe12033d	-0.14259048
35	0x3df8c888	0.12147623
36	0x3e39df7c	0.18151659
37	0x3cdde7c8	0.027088061
38	0x3d13e9ae	0.036111526
39	0xbd9d335b	-0.07675811
40	0xbda05df6	-0.078304216
41	0xbe32bc79	-0.17454709
42	0x3d7811e9	0.060563955
43	0xbddbef47	-0.10738998
44	0x3c01f247	0.007931299
45	0x3dce7e0a	0.10082634
46	0x3db8b1e5	0.09018306
47	0xbdf9d26c	-0.12198338
48	0x3b72b6a8	0.003703514
49	0x3e4167ba	0.18887225
50	0x3dee3d26	0.11632757
51	0xbd8720cb	-0.06598052
52	0x3e13b219	0.14423408
53	0xbcbe4dcb	-0.023230454
54	0x3d361f84	0.04446365
55	0xbd334775	-0.04376932
56	0x3df6eb91	0.120566495
57	0xbdcaafa0	-0.09896779
58	0xbd048d97	-0.032361593
59	0x3dcf243a	0.101143315
60	0xbe0cdaa2	-0.13755277
61	0x3e3506b2	0.17678335
62	0xbdf6d0ae	-0.12051521
63	0x3dee96ce	0.116498575
64	0xbd854647	-0.06507545
65	0x3e22bb3e	0.1589174
66	0x3d188bb8	0.03724262
67	0x3d002632	0.031286426
68	0x3dd0c826	0.10194425
69	0x3e81e7e6	0.25372237
70	0xbd46ace9	-0.048504744
71	0xbd232657	-0.039831486
72	0xbe24cbb0	-0.16093326
73	0xbdc1ab14	-0.09456459
74	0xbbd3f3ac	-0.006468257
75	0x3e89379b	0.26800236
76	0xbdccab63	-0.09993627
77	0xbcf9ecde	-0.030508455
78	0xbe26a232	-0.1627281
79	0x3cb621d3	0.022232926
80	0x3d308568	0.043095976
81	0x3dd62f9b	0.10458299
82	0x399c07d3	0.00029760468
83	0xbd0eb595	-0.03484114
84	0xbe77eb82	-0.24210933
85	0x3e2dfa98	0.16990125
86	0xbe1db5b1	-0.15401341
87	0x3d244609	0.040105853
88	0xbe122bd9	-0.14274539
89	0x3e2e1ed2	0.17003945
90	0xbdd315d9	-0.103069015
91	0xbd107f63	-0.035277735
92	0x3e210cc4	0.15727526
93	0x3dc5d485	0.096596755
94	0x3cea1c96	0.028578084
95	0x3c92c916	0.01791815
96	0xbe119833	-0.14218216
97	0x3da5d20d	0.08096705
98	0x3d72dfa7	0.059295323
99	0x3dfe02f8	0.1240291
100	0xbda38568	-0.079844296
101	0x3de1921b	0.110141955
102	0x3c94557d	0.01810717
103	0xbdbba051	-0.09161437
104	0xbe0214f9	-0.12703313
105	0xbde015b4	-0.109416395
106	0x3d7d9544	0.06190993
107	0xbd9a8f1f	-0.075468294
108	0xbdb1385e	-0.08653329
109	0x3e1a56f7	0.15072237
110	0x3bfa0f1b	0.0076311952
111	0x3dd7616f	0.10516631
112	0xbcbc2168	-0.022965148
113	0xbd86600a	-0.06561287
114	0x3dceb229	0.10092575
115	0xbe3aa7d7	-0.18228088
116	0x3d28c434	0.04120274
117	0x3d82e885	0.06392006
118	0x3dae8348	0.08521134
119	0x3e0aec5e	0.1356673
120	0xbdfda47e	-0.1238489
121	0xbd5a4e40	-0.05329728
122	0x3b6729ee	0.0035272795
123	0xbce67202	-0.028130535
124	0x3dc476c0	0.09592962
125	0x3bd8516c	0.006601503
126	0x3dc17d70	0.094477534
127	0xbda74405	-0.081672706
128	0xbd8d16ff	-0.06889152
129	0xbd8b5b5f	-0.06804537
130	0x3e1345d9	0.14382114
131	0xbcb01799	-0.021495627
132	0x3e59fd89	0.21288122
133	0x3e63a2ad	0.22230025
134	0x3d9b793e	0.075914845
135	0xbe33f99d	-0.17575689
136	0x3c467375	0.012112488
137	0xbe226007	-0.15856944
138	0x3e0d9df7	0.1382979
139	0x3e78c7e4	0.24295002
140	0xbd1f6788	-0.038917094
141	0x3cdd386b	0.027004441
142	0x3df75f1d	0.12078688
143	0xbdf7580a	-0.12077339
144	0xbcc88b2b	-0.024480423
145	0x3de0752b	0.10959848
146	0x3e8833d0	0.2660203
147	0xbc7f8238	-0.015595011
148	0x3d895365	0.06705359
149	0x3e2826cc	0.1642105
150	0x3dbb1267	0.09134369
151	0x3df4f9e4	0.11961725
152	0xbcc5e52c	-0.02415713
153	0x3e34f5af	0.17671846
154	0xbc5071be	-0.012722431
155	0xbe0259ac	-0.1272952
156	0x3e25c3c6	0.16187963
157	0x3e05d639	0.1307
158	0xbcd428a1	-0.02589828
159	0x3ce251df	0.02762693
160	0x3e04cec0	0.12969494
161	0x3d3bc3ba	0.045840956
162	0xbe1fb8ad	-0.15597792
163	0x3b97814c	0.0046235677
164	0xbcc8f17e	-0.024529215
165	0xbd503a7c	-0.050837025
166	0xbdb81ac0	-0.08989477
167	0x3d8031de	0.062595114
168	0xbcfe9294	-0.031075753
169	0x3e3eb210	0.18622613
170	0xbdeea1ac	-0.1165193
171	0xbdebfd5e	-0.11522935
172	0xbd788f61	-0.06068361
173	0x3e284fae	0.16436645
174	0x3e3a2724	0.18178993
175	0xbe178be1	-0.14799453
176	0x3d8af826	0.06785612
177	0x3d2a61c5	0.041597147
178	0xbdfa16a3	-0.12211349
179	0xbd770058	-0.060303062
180	0x3e047829	0.12936462
181	0xbdbc9eab	-0.09209951
182	0x3dcf85c5	0.101329364
183	0xbe3ea889	-0.18618979
184	0x3cb9f15c	0.022698097
185	0xbd2fae78	-0.042890996
186	0x3e29093d	0.1650743
187	0x3d117bb0	0.03551835
188	0x3dbd9ce1	0.09258438
189	0x3d3299a2	0.043603547
190	0xbda2aecb	-0.07943495
191	0x3de34a6b	0.110981785
192	0xbe1010b6	-0.14068875
193	0xbb802d37	-0.00391164
194	0xbdacd50b	-0.08439072
195	0x3daaa077	0.083313875
196	0x3e420425	0.18946894
197	0x3c11957f	0.00888574
198	0xbdd45d0a	-0.10369308
199	0x3cbfdc5d	0.023420507
200	0x3d262283	0.040560257
201	0x3d834387	0.06409364
202	0x3dfa0351	0.12207664
203	0x3d06aabb	0.032877665
204	0x3deecfb4	0.1166071
205	0xbe578284	-0.21045882
206	0x3b08b257	0.0020858252
207	0x3d895d07	0.06707197
208	0x3e853937	0.26020214
209	0xbe183b7e	-0.14866444
210	0x3bf5cfaa	0.007501562
211	0x3e215131	0.15753628
212	0xbe02bdc7	-0.12767707
213	0x3de2f78d	0.11082373
214	0x3e05ca30	0.1306541
215	0x3c9a13d2	0.01880828
216	0xbe0898ea	-0.13339582
217	0xbd9e415c	-0.0772731
218	0x3e0796b0	0.13241076
219	0xbe1ac4c1	-0.15114118
220	0x3e340d46	0.17583188
221	0x3dcd2cdc	0.10018322
222	0x3d78ec8b	0.06077246
223	0xbbc0b389	-0.0058807773
224	0x3db1bd46	0.08678679
225	0x3e1b98b4	0.1519497
226	0xbe20ca12	-0.15702084
227	0x3e0b8d7b	0.1362819
228	0x3e5028b1	0.20328023
229	0x3cffc286	0.031220686
230	0x3deeadd0	0.11654246
231	0x3d725ec6	0.059172414
232	0x3e36b249	0.17841448
233	0x3d2acb9e	0.04169809
234	0xbd9fd11c	-0.07803556
235	0xbd9477b0	-0.07249391
236	0xbd981369	-0.07425577
237	0x3e556fb1	0.20843388
238	0x3e169efc	0.14709085
239	0x3d48f27b	0.049059372
240	0xbe0e0137	-0.13867651
241	0xbdc32513	-0.09528556
242	0xbe04e3a2	-0.1297746
243	0x3dcb9cb5	0.09941999
244	0xbdf2492c	-0.11830363
245	0x3d17b23f	0.037035223
246	0x3d2fc75f	0.042914744
247	0x3dc7806a	0.0974129
248	0xbc699e42	-0.014258923
249	0xbd63cf15	-0.05561741
250	0xbdfe7e48	-0.1242643
251	0xbd963b72	-0.07335557
252	0xbdfcf2f0	-0.12351024
253	0x3e20c7ef	0.15701269
254	0x3df18292	0.117924824
255	0x3dd3d5e8	0.10343534

fc11.bias f4 [16]
0	0xbd0161b6	-0.031587325
1	0xbdec07eb	-0.11524948
2	0x3eadfd48	0.339823
3	0xbe374772	-0.17898348
4	0x3e29bdb6	0.16576275
5	0x3db50064	0.08837965
6	0x3ea5f060	0.32409954
7	0xbc2dccc7	-0.010607905
8	0xbbb6f096	-0.0055828793
9	0xbe2f4d5e	-0.17119357
10	0xbe027763	-0.12740855
11	0xbe18ff5d	-0.14941163
12	0x3db49e1b	0.08819219
13	0x3d2a312a	0.041550793
14	0xbe65b2c8	-0.22431481
15	0xb9e62e5e	-0.00043903565

fc12.weight f4 [1, 16]
0	0xbe292120	-0.16516542
1	0x3e658bed	0.22416659
2	0xbe05ce36	-0.13066944
3	0xbdca697a	-0.09883399
4	0xbd797b7d	-0.060908783
5	0x3e203152	0.15643814
6	0xbdb82f58	-0.08993405
7	0x3e208a7e	0.1567783
8	0xbe049703	-0.12948231
9	0xbc073e40	-0.008254588
10	0x3e2f3162	0.17108682
11	0x3e1c3bb8	0.15257156
12	0x3dd0c257	0.101933174
13	0xbe7d6fda	-0.24749699
14	0x3ceffecf	0.029296307
15	0xbe890209	-0.26759365
