trained_models/delete_later/GraphConv_32_3_features_14/model.tar (torch, 24903 bytes, 9 tensors)

layers.0.weight f4 [14, 32]
000000 ef a0 80 be 4e ae be 3d 61 01 77 3e 63 71 65 be
       -0.25122783 0.0931059 0.2412162 -0.22406535
000010 cb 21 71 3d 78 c9 08 3d 7b f2 3b 3e 58 c4 62 be
       0.058870118 0.03339526 0.18354218 -0.22145212
000020 72 c2 b6 bd 91 69 46 3e fc bb ab 3d 23 f5 43 be
       -0.08923806 0.19376208 0.083854645 -0.19136481
000030 13 9b 76 3e 6e 05 5b 3e 29 d6 76 3e fe 0f 0e 3e
       0.24082594 0.2138879 0.24105133 0.13873288
000040 fe 3b 84 bd ac 33 50 3b 94 e9 b9 3d c9 96 69 be
       -0.06456755 0.003176908 0.090777546 -0.22811426
000050 29 b6 63 3e ac e3 27 3e 19 a8 fe bc 8d 12 32 be
       0.22237457 0.16395444 -0.031086015 -0.17389889
000060 1f c7 59 be 92 2c 17 3e 84 63 b1 3d 18 df 72 bc
       -0.21267365 0.14763096 0.08661559 -0.0148236975
000070 11 b4 7a bd 5a 6c 96 bd f8 b0 57 be 59 55 35 bd
       -0.06120688 -0.07344885 -0.21063602 -0.044270847
000080 99 a3 77 3d 1b ed 4d 3c 8c 30 30 3e 6d 3c 6e 3d
       0.060458753 0.012568737 0.17206019 0.058163095
000090 05 7b 26 3e c0 e5 7c 3c 7e 76 80 3e ca 5b 90 3d
       0.16257866 0.015435636 0.25090402 0.070487574
0000a0 37 83 a4 bd 7d eb 77 3e ca fb 02 bd 07 bf b8 3d
       -0.0803284 0.24210925 -0.031978406 0.090208106
0000b0 e3 1e 99 3d ac bf 44 3d a7 c8 8c 3e 15 26 8f 3d
       0.07476594 0.048034355 0.27496836 0.069896854
0000c0 e0 f1 d4 3c fd d2 e9 bd f6 70 55 be 68 ff 10 be
       0.025994241 -0.11417196 -0.20843872 -0.1415993
0000d0 31 80 d4 bb c4 c6 2e 3e 39 f6 b4 bd 0a 6d a5 3d
       -0.006485008 0.1706801 -0.08836026 0.08077438
0000e0 6f d1 b4 3d 89 5c 9b be 00 64 18 3e fe 47 75 bd
       0.08829009 -0.30344036 0.14881897 -0.05988311
0000f0 e0 ec 54 3e cc 78 e6 bd e0 fe a0 be f7 cd 18 3e
       0.20793486 -0.11253509 -0.31444454 0.1492232
000100 57 7b 73 be 1f d0 a5 3e d9 df 4b 3e ca 70 73 be
       -0.23777519 0.32385346 0.1990961 -0.23773494
000110 86 2f 91 3e f0 7b 63 be 7d b2 21 3e db 5b c8 3c
       0.2835657 -0.22215247 0.15790744 0.024457863
000120 00 dd da 3b e8 3d 80 be 12 b9 26 3e 0e eb d0 bd
       0.0066791773 -0.2504723 0.16281536 -0.10201083
000130 64 c8 19 be e9 b7 39 be 10 ee 7b 3e f6 32 90 3e
       -0.15017849 -0.18136562 0.24602532 0.2816388
000140 38 46 43 3d be 62 63 bd 79 20 6b 3e 83 fa e1 bd
       0.047674388 -0.05551409 0.22961606 -0.110341094
000150 f5 5d e5 bd 49 4a fc bd 11 d1 8c be 94 3c fd 3d
       -0.111995615 -0.12318856 -0.27503255 0.1236507
000160 c4 06 cd 3c 77 be 51 bd 3a 7e 82 be 6f 52 12 3e
       0.02502764 -0.051207032 -0.25486928 0.14289258
000170 d8 21 be bd b8 46 ed bd 8f 68 60 3e 1f 12 31 3e
       -0.09283799 -0.11585754 0.21914886 0.17292069
000180 85 7c 96 3e 90 56 5d be a8 bc 25 be b4 5c 65 3e
       0.29391876 -0.21615052 -0.16185248 0.22398645
000190 14 13 50 3e 90 25 b3 3d 33 9e 6d 3e 8b 7c 57 be
       0.20319778 0.08747399 0.2320488 -0.21043603
0001a0 16 d8 63 3d 78 9d 81 be 68 71 6a 3e 78 e3 e5 3d
       0.055625997 -0.25315452 0.22894824 0.11225027
0001b0 70 6f 52 3e 5b 55 9f 3d 86 8c 19 3e 0e a6 88 be
       0.20550323 0.07779952 0.14995012 -0.2668919
0001c0 63 a4 a6 3d 46 8c 96 3d 41 14 9c 3e 55 88 79 3e
       0.08136823 0.07350974 0.30484203 0.24368413
0001d0 69 2d b2 bc 50 b5 46 3e 30 1f ef bc bb 90 a6 3b
       -0.021750169 0.19405103 -0.029189676 0.005083171
0001e0 14 ab 25 bd 02 b4 2d 3e 6e 75 13 3e b0 b8 96 3e
       -0.040446356 0.16963199 0.14400265 0.2943778
0001f0 c9 76 4f 3e 49 99 37 be 6c d9 11 3e f0 71 c7 bd
       0.20260157 -0.17929567 0.14243096 -0.09738529
000200 70 18 5a 3d 3b 0c 83 be db 75 73 be c8 c9 61 3d
       0.05324596 -0.2559527 -0.23775427 0.055124074
000210 78 4c 25 3d fc 43 c6 3d 11 3b 01 be 3c 12 b3 bd
       0.04035613 0.09680936 -0.12620188 -0.08743712
000220 d4 a8 0d 3e 9f 57 5c be 28 de a8 bd 98 41 d8 3d
       0.13833934 -0.215178 -0.08245498 0.10559386
000230 7d a6 27 be e7 90 6f be 18 7c 9f bc ee cf 07 3e
       -0.16372104 -0.2339512 -0.019468352 0.13262913
000240 9e a3 6d 3e f4 a3 c9 bd a2 af 7f be d6 00 7f 3e
       0.23206946 -0.09845725 -0.24969342 0.24902663
000250 58 d6 d6 bc 54 34 e8 3d 84 2f 41 3e 8c be 4d bd
       -0.026225254 0.11338106 0.18865782 -0.050230548
000260 d0 b1 0a 3e e0 de 7a bd 14 24 49 be cc 66 6c 3e
       0.13544393 -0.061247706 -0.19642669 0.23086089
000270 bf 33 09 be 40 44 3a 3c 1a b4 27 be 30 a5 3f be
       -0.13398646 0.011368811 -0.16377297 -0.18715358
000280 4b 5c 0d 3c 21 b8 1e 3e e0 5d 3a be 8d 48 1a bd
       0.008627961 0.15499927 -0.18199873 -0.037666846
000290 a4 e7 3f 3e 48 7d 5a be 85 00 6f be 20 22 fb 3d
       0.18740708 -0.21336854 -0.23340042 0.12262368
0002a0 b8 0f 59 bd fb 93 8d bd 84 4b 96 3c 63 52 6f bd
       -0.052993506 -0.06912991 0.018346556 -0.05842818
0002b0 df 3e 4b 3e 13 44 cf 3d 23 ed 51 be 63 1b 35 3e
       0.19848202 0.10120406 -0.20500617 0.17686228
0002c0 65 3c c7 3d 33 00 4e be 2c 0e 8d 3e 08 9b 72 3e
       0.09728316 -0.20117263 0.27549875 0.23691952
0002d0 98 d3 b2 bb 4c a5 bb 3d 8a 61 2d be 90 15 7f bd
       -0.005457353 0.09162387 -0.1693174 -0.062276423
0002e0 f6 97 36 be 4d ed 70 3e 4e 29 83 be 4a 00 20 bd
       -0.17831406 0.23528023 -0.2561745 -0.039062776
0002f0 fe 8e 96 be 46 97 25 3e eb e1 bc bc c9 40 9d bd
       -0.2940597 0.16170987 -0.023056945 -0.076783724
000300 80 4a 29 be cb 4c 02 3e f3 b8 2d be 4c dc 0a be
       -0.16532326 0.12724607 -0.16965084 -0.13560599
000310 0e d0 0a 3e 95 7a 22 be f7 be 13 3e df 05 19 be
       0.13555929 -0.15867074 0.14428316 -0.14943646
000320 01 69 a8 3d 3c 5a 8e 3e 4a 1a b6 3d bd 1b 10 3e
       0.08223153 0.27803218 0.08891733 0.14073081
000330 20 ed ae be af 6d 52 3e 7b 66 2c be a7 9b 54 3e
       -0.34165287 0.20549653 -0.16835968 0.20762502
000340 ed 6b 8a 3d 60 97 2c 3d f7 9d 40 3e 5c 8b 15 be
       0.067588665 0.04213655 0.18810259 -0.14603943
000350 7a 49 ca bd 4e ea fb bd b4 25 45 3e d7 1f eb bc
       -0.09877296 -0.123005494 0.19252664 -0.028701706
000360 05 43 5e 3e 7a a0 6e 3d f0 9e f1 bd 62 52 af bc
       0.21705253 0.05825851 -0.11797893 -0.021401588
000370 5d 77 30 3e e7 fd ce 3d d2 de 00 3e 08 0d 20 3e
       0.17233033 0.10107022 0.12584999 0.15629971
000380 7d 53 15 3d e7 44 48 be c8 32 38 be 09 f8 3c bd
       0.036456574 -0.19557534 -0.17988122 -0.046134982
000390 df 28 86 be 3c ef 50 be f5 85 01 be 50 dd 13 bd
       -0.26203057 -0.2040376 -0.12648757 -0.036099732
0003a0 93 5e 87 be 99 16 6a 3e 0d e9 f6 3d bd 6b 3b be
       -0.26439342 0.22860183 0.1205617 -0.18302818
0003b0 05 33 75 be 69 da 3f 3e 56 d2 55 bd c7 b9 3d be
       -0.23945244 0.1873566 -0.052202545 -0.185279
0003c0 fa 61 29 be 95 c5 8b bd 8f c7 17 bc 31 de f3 bc
       -0.16541281 -0.06824795 -0.009263887 -0.029769035
0003d0 ae d7 a9 bc 7e d2 a4 3d df 47 82 3d 2d a5 6b 3d
       -0.020732727 0.08047961 0.063613646 0.05753057
0003e0 77 8f 71 3e 32 ab 6a 3d 44 04 8f bd 81 a9 83 3e
       0.23589884 0.05729217 -0.069832355 0.2571526
0003f0 78 69 2f 3e 39 1a 1b 3e 74 30 22 be 74 2a e0 bd
       0.17130077 0.15146722 -0.15838796 -0.10945597

layers.0.root_weight f4 [14, 32]
000000 48 51 25 bd ae 4d 1a 3e 22 8e 53 be 38 0f d5 bd
       -0.04036072 0.15068695 -0.20659688 -0.10403293
000010 c4 f1 0a be ae 61 86 be 59 07 3b 3d d0 a7 83 3e
       -0.13568789 -0.262464 0.045661304 0.25713968
000020 ed 95 02 be d2 c2 84 bd 8e 4c 22 be 5a aa 21 3e
       -0.12752505 -0.064824715 -0.15849516 0.1578764
000030 35 b0 ee bd 12 13 44 3e 1e 55 dc 39 23 9a 5e 3b
       -0.116547026 0.191479 0.00042025087 0.0033966384
000040 bd c6 e3 bc e1 cd a7 3d ab bf 28 3e 87 ef 6a be
       -0.027804727 0.08193565 0.16479366 -0.22942935
000050 f8 ce 52 be ea e9 7b 3e b5 32 60 3e 53 64 15 bd
       -0.20586765 0.2460095 0.21894343 -0.03647263
000060 b7 6d f9 3d 95 c5 54 be 0c dd 84 be 82 2c 86 3e
       0.121791296 -0.20778497 -0.25949895 0.26205832
000070 68 29 8d be ea 94 37 3e 62 94 39 bd 9e 0e 63 be
       -0.27570653 0.179279 -0.045307525 -0.22173545
000080 e9 33 6e be ec 26 75 bb 15 62 b8 3e 3a 18 e8 bc
       -0.2326199 -0.0037407232 0.3601233 -0.028331865
000090 f4 30 8f be 54 02 39 3e 79 51 24 be 28 d1 4c bd
       -0.27967036 0.18067294 -0.16046704 -0.050004154
0000a0 fe 9f 1d be 47 d6 aa 3e 57 82 ae be 1d cd 4b 3e
       -0.15393063 0.33366606 -0.34083816 0.19902463
0000b0 e4 9b d1 bd ab ab 37 bd ab cd ed bd c1 0c 5d bd
       -0.10234812 -0.04484145 -0.11611494 -0.05396724
0000c0 46 b1 bb 3d e2 63 4f 3e 53 31 94 bd 77 4f a7 bc
       0.091646716 0.20252946 -0.0723597 -0.020423634
0000d0 55 1e c5 3d 7a a7 be 3e 7b af 06 be 35 9f 7a be
       0.09624926 0.3723715 -0.13152878 -0.24474795
0000e0 f6 9c 4c 3d 93 c9 8a be 5d 2a 36 be b4 49 36 3e
       0.049954377 -0.27106914 -0.17789598 0.17801553
0000f0 ae 60 d4 be ed b6 c0 bd d5 8c 53 be 3a 9e 01 3e
       -0.4148001 -0.0940989 -0.20659192 0.12658015
000100 dd 27 ce bc 40 42 11 3d e6 45 ef bd 8a d2 4d 3e
       -0.025165493 0.03546357 -0.11683254 0.20099846
000110 86 42 cb 3d 40 6e 80 be 5c 73 3d be 80 b9 ae 3b
       0.09924798 -0.25084114 -0.18501037 0.005332172
000120 62 40 ec bd cb f4 49 be d6 9b aa 3d d8 6c 8b be
       -0.115357175 -0.19722287 0.083305046 -0.2723148
000130 f4 61 10 be 57 15 17 3e 3e 57 30 3e 11 e1 81 be
       -0.14099866 0.14754234 0.1722078 -0.25367025
000140 de 1c ab bd 00 13 15 3c 51 11 90 be 86 08 2b be
       -0.08355115 0.009098768 -0.2813821 -0.1670247
000150 d2 47 a5 bd e3 0e 3e bd 71 dc 12 3e 83 8b 0c 3e
       -0.08070339 -0.046400916 0.14341904 0.13725094
000160 f3 77 8e 3e 51 e6 c4 3d 79 8b 74 be 7b 08 8a bd
       0.2782589 0.09614242 -0.2388133 -0.06739899
000170 41 23 8b 3e e9 a7 8e 3e ea 0a 46 be c0 d4 ff bb
       0.27175334 0.2786248 -0.19340101 -0.007807344
000180 2f e7 09 3c 1d 9d 7b 3d ad 0f 72 3d f0 5a d7 3c
       0.008416935 0.06142913 0.05909698 0.02628848
000190 3a 56 ac bc d6 39 5a 3e 26 69 12 be 60 63 fd 3c
       -0.02103721 0.21311125 -0.14297923 0.030931175
0001a0 b4 11 98 bd 3d 68 3e 3d a9 fe b0 be 43 52 9d 3e
       -0.074252516 0.046486128 -0.3456929 0.30726823
0001b0 d7 46 0e 3e 66 16 b5 bd 28 85 19 be 79 80 42 3d
       0.13894211 -0.08842163 -0.14992201 0.047485802
0001c0 04 58 b9 bd b4 0e 88 3d ea eb 40 3e 2a 3e ff bd
       -0.09049991 0.066434294 0.18839994 -0.12463029
0001d0 90 58 9b be c8 0f 36 3e 65 82 1d 3e 4a f2 8c 3b
       -0.30341005 0.17779458 0.15381773 0.004301344
0001e0 44 86 38 3e f6 8e 57 be 7d ca 48 be ae 48 92 3e
       0.18019968 -0.21050629 -0.19608493 0.28571075
0001f0 19 f5 ef bc 0a a1 8b bc 88 61 77 be f0 da f7 3c
       -0.029291676 -0.017044563 -0.24158299 0.030255765
000200 5a 63 6d 3e 90 e0 72 bd 80 b6 13 3b 06 27 7c 3e
       0.23182431 -0.05929619 0.0022539198 0.24624261
000210 d8 c4 05 3d 30 58 14 be 25 59 87 3e 80 97 2e 3d
       0.032658428 -0.14486766 0.264352 0.04262495
000220 40 87 18 3c 8c 1a 42 3e c0 a3 90 3c 60 fa 69 bc
       0.00930959 0.1895544 0.017656207 -0.014280885
000230 00 e2 3a 3a d2 e3 7c 3e d8 95 93 bc 98 87 f2 bd
       0.00071290135 0.24696282 -0.018015787 -0.11842269
000240 b0 0d a0 bd 02 3b 89 bd 38 b1 21 be 40 0e 57 3d
       -0.07815111 -0.06700708 -0.1579026 0.052503824
000250 88 03 eb bd de 76 77 3e f7 87 34 be 3c 05 0f be
       -0.11475283 0.24166438 -0.17629991 -0.1396684
000260 10 46 fc 3c 10 33 dd bd 9e a1 6e 3e 85 2d 39 be
       0.030795127 -0.10800755 0.2330384 -0.1808377
000270 98 75 6a 3d 80 64 6c bb 9f 5f 44 be e8 35 42 bd
       0.057241052 -0.0036070645 -0.19177102 -0.04741469
000280 df 00 08 3e c0 28 86 3c 15 d4 96 3d 6f 97 0e be
       0.13281582 0.016376853 0.0736467 -0.13924955
000290 75 67 8f 3d e4 52 59 bd 69 8f ef 3d 58 b8 c0 bd
       0.07002155 -0.053057566 0.11697275 -0.09410161
0002a0 8e d7 98 3e 0a 77 06 3e a1 6e b3 3c b3 03 14 3e
       0.29851955 0.13131347 0.021903338 0.14454536
0002b0 89 55 ad bd 70 9b 18 3e 1b 65 62 be 53 7d 0d 3e
       -0.0846358 0.14903045 -0.22108881 0.13817339
0002c0 18 e0 39 3d e4 54 d9 be d9 b8 17 bd 20 d8 b9 bd
       0.045379728 -0.4244758 -0.03704152 -0.09074426
0002d0 6c 9b 8e 3c 34 88 86 be 56 90 4d be 53 ca 59 3e
       0.017408095 -0.2627579 -0.20074591 0.21268587
0002e0 b3 b0 de bd 4b ce 51 3e b8 de b5 bc 3b de 75 3e
       -0.108735465 0.20488851 -0.022200927 0.24010555
0002f0 47 9e 89 3e c2 3a 98 3e c2 aa 22 be ab cb 33 be
       0.2687857 0.2973233 -0.15885451 -0.17558162
000300 57 9c 8c be 10 15 f9 ba d3 e9 aa bd 01 c6 41 3e
       -0.27463028 -0.001900347 -0.0834538 0.18923189
000310 61 c5 56 bb 40 65 21 3c cf 2e 09 3e 8a 76 87 3e
       -0.0032771456 0.0098508 0.13396762 0.26457626
000320 09 b8 34 bd 34 0e 0f 3d 81 8e 09 3e e9 90 65 be
       -0.044120822 0.034925655 0.13433267 -0.2241856
000330 04 42 1d 3a 76 d0 7e 3e a9 ce ad 3d 8d 7a 24 be
       0.0005998912 0.24884209 0.08486683 -0.16062374
000340 8e 07 e0 bd 36 db 2b bd 50 6c 03 be a7 f4 9e bd
       -0.10938941 -0.041957103 -0.12834287 -0.077615075
000350 23 71 9b 3c e5 b9 59 3e 46 62 93 3e 38 02 1d be
       0.018974846 0.2126232 0.28785914 -0.15332878
000360 60 f9 0b 3d 5d fa 4c 3e 4c 8a 3b 3e 60 97 23 3d
       0.03417337 0.20017381 0.18314475 0.039939284
000370 2d 9d 96 bd 81 1d 55 3e 34 c7 d1 bd 74 b7 7c be
       -0.07354198 0.20812036 -0.10243073 -0.24679357
000380 a2 c7 d2 bd cb ee 12 be 16 9e 73 be bb d1 38 be
       -0.10291983 -0.14348905 -0.23790774 -0.18048756
000390 b3 8e f7 3d 50 8e df bc 74 65 29 3e 00 2e 8e bc
       0.120877646 -0.02728954 0.16542608 -0.017355919
0003a0 47 9d ad 3d 5d 6f 01 3e 2b 96 92 be 23 8c 97 3e
       0.08477264 0.12640138 -0.28630194 0.29599103
0003b0 05 1b 41 3e 39 5a 4e bd c3 9b b0 3e 35 97 95 3d
       0.18857963 -0.05037901 0.34493837 0.07304231
0003c0 20 fe 55 bc d1 76 dc 3d 9a 78 5c 3c 08 73 da 3d
       -0.013061076 0.1076485 0.013456488 0.10666472
0003d0 e4 35 e9 3d 98 21 ea bd 59 71 2e 3e 8d 63 2e 3e
       0.11387232 -0.11432189 0.17035426 0.17030163
0003e0 d7 8e 8d be eb 5d 2d 3e d0 7d 33 be be 98 d1 bd
       -0.2764804 0.16930358 -0.17528462 -0.102342114
0003f0 7a 23 aa 3d 9d 9e e4 bd d7 44 11 be 55 ad 18 be
       0.08307548 -0.111630656 -0.14186417 -0.14909871

layers.1.weight f4 [32, 32]
000000 e0 dc 5a bd 36 00 06 3d 38 f3 4e 3e 8f 8c 27 3e
       -0.0534333 0.032715045 0.20209968 0.16362213
000010 bb b9 ca bd 23 84 fc 3d c4 fb 67 3d 21 79 37 3e
       -0.098987065 0.123298906 0.056636587 0.17917301
000020 d5 47 25 3e af 54 49 bc a7 c7 90 3c c3 cb 11 be
       0.16140683 -0.012288257 0.017673327 -0.14237885
000030 80 2d 23 bc bc 10 81 bc ac b2 b4 3d f6 bd a6 3c
       -0.0099595785 -0.01575505 0.088231415 0.020354252
000040 41 0f 1a be 8f a4 c9 bd 89 13 e0 bd 67 96 54 3e
       -0.15044881 -0.0984584 -0.10941226 0.20760499
000050 77 1f 99 bb 6b 09 3c 3e 5b 3c 8e 3d 78 ee da bc
       -0.0046729404 0.18362968 0.06945106 -0.026725039
000060 85 5e 85 bd 92 42 86 3d bf 06 9f 3d b3 80 13 be
       -0.06512169 0.06555666 0.077649586 -0.14404564
000070 60 32 99 bd 0e 33 f7 3d b4 3d fa 3d a7 86 29 3e
       -0.074803114 0.12070285 0.122188 0.16555272
000080 fd ca 13 3e 87 ac 3f bd 6e 21 2b be 77 42 2a bb
       0.14432903 -0.046795394 -0.16711971 -0.0025979558
000090 39 ff 9b 3d 4e f0 ec 3d 6e 2a 27 3c 51 49 52 be
       0.07617039 0.11569272 0.010202987 -0.2053578
0000a0 4d 9f a3 bd 08 04 da b7 d1 38 c5 3d 0f 7b 6c bc
       -0.079893686 -2.5989502e-05 0.096299775 -0.014433636
0000b0 a0 75 d8 3c f9 2d b7 3d 62 8d 07 3d 13 05 3d bd
       0.026423275 0.089443155 0.033093818 -0.046147417
0000c0 aa a6 18 be 89 e5 49 3e e9 6a e8 3d 0b 5e 4a be
       -0.14907327 0.19716467 0.113485165 -0.19762437
0000d0 11 5b 1a bd 57 0b 4e be 6e 12 b8 3d dd c7 96 bd
       -0.037684504 -0.20121513 0.0898789 -0.0736234
0000e0 ec b6 64 3d 14 f0 09 3d 16 ed 20 be e2 6e b2 bd
       0.05583851 0.033676222 -0.15715441 -0.087125555
0000f0 a8 87 8f 3c 00 9c cc 39 63 a5 83 3d a2 75 2c be
       0.01752074 0.0003902614 0.064280294 -0.16841748
000100 ba 49 92 bd 43 cd aa bd bd 09 96 3c 04 0a 0d be
       -0.071429685 -0.08339932 0.01831519 -0.13773352
000110 02 a3 26 be d6 5b 4d bd c9 5d da 3d 6d d1 20 be
       -0.1627312 -0.05013641 0.10662419 -0.1570489
000120 e0 3e 36 3e 16 b8 9c 3d d5 7e fd bd 5b 64 12 be
       0.17797422 0.07652299 -0.12377707 -0.14296095
000130 b8 81 0d bd fc 14 a4 bd fc 59 52 3e e3 86 b0 bd
       -0.034547538 -0.08011815 0.20542139 -0.086194776
000140 4e 3b 12 3e 29 64 c4 3c e0 ac c2 bd d3 a1 ed 3d
       0.14280435 0.023973541 -0.095056295 0.11603131
000150 13 f1 70 bd ef ce 09 bc 59 a7 d2 bd 80 ec ff bd
       -0.058823656 -0.008411153 -0.10285825 -0.12496281
000160 c8 d8 86 bc 54 82 4d bd 5a 19 7a 3d 77 fe d4 bd
       -0.016460791 -0.05017312 0.061059333 -0.10400098
000170 00 dc e4 3a 50 5b 59 3c a4 2a 44 bd f2 70 e2 3d
       0.0017460585 0.0132663995 -0.047892228 0.11056699
000180 45 fd cd bd 04 34 08 be 5e 2e 29 3e f3 a8 cf bd
       -0.10058073 -0.13301092 0.16521594 -0.101396464
000190 2d 59 2d bd 42 8a 01 3e 4f 33 61 be 9e 97 06 bd
       -0.042321373 0.12650397 -0.21992229 -0.032859437
0001a0 ec 1d 2d be c2 ea f3 bd 75 70 cf bd ce 28 6a 3e
       -0.16905946 -0.11910011 -0.10128871 0.22867128
0001b0 64 ec 0f be aa 8f bc bd c5 4f 55 3e ce 77 36 be
       -0.1405502 -0.09207089 0.20831211 -0.1781914
0001c0 68 51 0b be 38 7b 4b 3e 4f 64 2b 3d 8d cc 34 3e
       -0.13605273 0.19871223 0.04184371 0.17656155
0001d0 b6 25 55 bd ca 26 4d 3e fc ae ee 3b ab 49 03 be
       -0.052037917 0.20034328 0.0072840434 -0.12821071
0001e0 18 ce ee bc 9e b4 02 be 24 d5 a1 3d b2 5a 15 3e
       -0.029151008 -0.12764212 0.079019815 0.14585379
0001f0 68 e6 a2 3c a0 d1 54 3c c7 79 9f 3c f2 13 9c 3d
       0.019885257 0.012989432 0.019467248 0.07620992
000200 e8 14 b9 bd a8 a2 6f 3e 4b f2 10 be ea f7 da 3d
       -0.09037191 0.23401892 -0.14154927 0.10691817
000210 04 d7 83 bc ca 31 d3 3d 58 0f ab bb 59 ea 02 3e
       -0.016093738 0.10312231 -0.005220335 0.12784709
000220 b4 47 88 3d be 15 b4 3d ef 9e 70 bd ae fa d5 3d
       0.06654301 0.087932095 -0.05874532 0.10448204
000230 5c d9 15 3d 66 5c ff 3d 4c 50 31 be 79 1a 14 3e
       0.036584243 0.124687955 -0.17315787 0.14463224
000240 59 19 a7 3d c0 e0 0a 3c 84 3a 32 be 73 5f 5d bd
       0.081591316 0.008476436 -0.17405134 -0.054046106
000250 88 87 ff bd 6e 8f 0a 3e 07 0c ef bd 88 c1 95 bc
       -0.124770224 0.13531277 -0.11672216 -0.01828076
000260 a1 79 7a 3d f8 ea eb bc 9a bd b9 3c d9 6c bd bc
       0.06115115 -0.028798565 0.022673417 -0.023123192
000270 ce 87 d3 3d 78 08 02 3d 43 e7 b1 bd 5b 8b 25 be
       0.10328637 0.031746358 -0.08686688 -0.16166441
000280 84 08 66 3a 26 92 01 be 94 b5 33 3d 2f 4d d5 bd
       0.00087750726 -0.12653407 0.04387434 -0.10415112
000290 b3 4a 07 3e e6 69 11 be 8c 52 32 3d 6c af e0 3d
       0.13212089 -0.14200553 0.043535754 0.10970959
0002a0 00 fc 68 39 3d 74 8c bd 6b 52 20 3e cc 30 2a bd
       0.00022219121 -0.06858108 0.1565644 -0.041550443
0002b0 82 a4 81 bd a3 fb ab bd c6 0a cb 3d f0 d5 20 3d
       -0.063302055 -0.08397605 0.09914164 0.039266527
0002c0 55 d1 d0 3d d4 1c 00 bd ae b3 8c 3d 7d bd 10 3e
       0.10196177 -0.031277493 0.06870209 0.14134784
0002d0 7c ca 8f 3d 40 26 1d be 61 d0 bf bc 71 75 2b be
       0.07021043 -0.15346622 -0.023414792 -0.16744019
0002e0 a6 a5 bb 3d 6c 45 2e 3d b3 16 30 be 60 d4 95 bd
       0.09162454 0.042546675 -0.17196159 -0.07315898
0002f0 55 38 13 3e db 22 21 3e be ab e9 bd 1f 3f 23 3e
       0.14376958 0.15735953 -0.1140971 0.15942048
000300 11 0e 4f be 75 a9 94 bd 97 58 55 3d dd 3c 05 be
       -0.2022021 -0.07258884 0.05208644 -0.13011499
000310 42 87 18 be 8f 1b 8e 3d af a2 f4 bc f7 93 fc bd
       -0.14895347 0.0693885 -0.02986273 -0.123329096
000320 7d b5 47 3d 21 08 07 3c c3 2d 1d bc 14 c9 2a 3e
       0.048757065 0.008241684 -0.00959343 0.16678268
000330 50 a6 a4 3c c2 75 91 bb 40 d0 ae bd e6 12 05 3e
       0.020098835 -0.0044390867 -0.08535814 0.1299549
000340 2a 17 32 be 32 22 37 3e fa 23 a5 bd 64 9a e5 bd
       -0.17391649 0.17884138 -0.080635026 -0.11211088
000350 83 68 c0 3d 95 f6 23 3e d1 7e 1d bd 30 df 15 3d
       0.09394934 0.16012032 -0.03845102 0.0365898
000360 4a d5 21 be 08 91 73 3d 39 6e 7c bd e3 cb 1c 3e
       -0.1580402 0.059464484 -0.061628554 0.15312152
000370 37 c2 32 be 57 a1 2c be c5 28 94 3d b4 b6 f9 bd
       -0.174569 -0.16858421 0.07234339 -0.12193051
000380 0b 83 fd 3c 37 0a 19 3e c5 1b b8 bd 2e 23 84 bc
       0.030946275 0.14945303 -0.089896716 -0.016130056
000390 a8 63 d3 bd 45 1d ef bd 04 86 7f 3d 22 b9 4a bd
       -0.10321742 -0.116755046 0.062383667 -0.049492963
0003a0 7f d7 b7 3c b7 71 1c be ef 63 f5 bd 6c d3 82 bd
       0.022441624 -0.15277754 -0.119819514 -0.06387982
0003b0 12 05 d5 bd 2f e1 b2 3c da 24 aa 3d 5b aa af 3d
       -0.10401358 0.021835892 0.0830781 0.085774146
0003c0 a4 c3 b8 3a 90 d2 48 3e 80 71 18 be 46 70 1f be
       0.0014096391 0.19611573 -0.14887047 -0.15570173
0003d0 23 14 e9 bd 92 4b 1b bd d1 e0 28 3e 08 c3 55 3d
       -0.11380794 -0.037913866 0.1649201 0.05218795
0003e0 77 7e 77 bc 0e 67 f3 bd 28 da 62 3d b6 38 1e be
       -0.015105835 -0.118848905 0.05538383 -0.15451321
0003f0 68 42 d0 3c 00 09 a4 3c e3 ef fd 3d db 5c 03 be
       0.02542229 0.020023823 0.123992704 -0.1282839

layers.1.root_weight f4 [32, 32]
000000 7e dd ff bc 6a ad 13 bc 8a db 8f 3b 95 ce b7 3d
       -0.031233545 -0.009013513 0.004390185 0.08974949
000010 0c 9e e9 bd 77 c4 9c 3d 03 2c 1a 3d 2d b4 24 3e
       -0.11407098 0.0765466 0.03763963 0.16084357
000020 02 1e 44 3e 7d ae 08 bd 52 f1 36 be 13 9e 7c 3d
       0.19152072 -0.03336953 -0.17865494 0.06167419
000030 c3 bd d8 bd 99 b3 80 bb 89 b9 23 3c 30 5d 31 be
       -0.10583069 -0.0039276597 0.0099929655 -0.17320704
000040 f2 db ce 3d 8e c8 3d bd 11 93 10 3e 2e 71 00 3e
       0.10100545 -0.046333842 0.14118601 0.12543175
000050 02 d6 f4 3a 95 d0 ce 3d 42 30 1c be 98 f0 fe 3c
       0.0018679502 0.100983776 -0.15252784 0.031120583
000060 a6 aa ef bd 71 ce 19 3e 8e 83 1d 3e 00 b8 72 3d
       -0.117024705 0.15020157 0.15382215 0.059257507
000070 a4 57 dc bd 32 59 0c be 85 5e e1 3d 43 c5 d4 bd
       -0.107589036 -0.137059 0.11004356 -0.10389187
000080 46 c6 88 bd a0 be 1d 3e 11 f9 9d bd e1 74 0d be
       -0.06678443 0.15404749 -0.07713521 -0.13814117
000090 f5 e5 2d 3e 24 9d c7 3d d8 75 d8 ba fb d4 77 bb
       0.16982253 0.09746769 -0.0016514612 -0.0037816155
0000a0 29 1d 43 3e 09 8a 22 3d 22 48 2f 3e 53 b2 c2 3d
       0.19054092 0.03968242 0.1711736 0.09506669
0000b0 00 c8 14 b9 4d 79 d3 3d ad ee cd 3c 9d 70 38 be
       -0.00014188886 0.10325871 0.025138224 -0.18011709
0000c0 fa 91 20 3e 08 36 0b be f3 00 99 3a a0 0d a1 3d
       0.15680686 -0.1359483 0.0011673257 0.07863927
0000d0 10 fb 0d be b2 98 bb 3d eb 80 ac 3d 4f 66 b9 bd
       -0.13865304 0.09159984 0.08423027 -0.09052717
0000e0 bc da e7 bc 6d 83 07 be 6e 98 ab 3d 24 11 32 be
       -0.028302543 -0.13233729 0.08378683 -0.17389351
0000f0 60 2a 83 3b 20 ca 70 3c a7 43 b3 bd 0f 5f 0e 3e
       0.004002854 0.014696628 -0.08753138 0.1390345
000100 83 49 5e bd 5f f2 86 bd 3b 02 c9 3c 0b ca 1a be
       -0.054269325 -0.06589197 0.024537196 -0.15116136
000110 86 0d a8 bd aa 12 e4 bd 6d b9 f7 bc 61 e0 38 3e
       -0.082057044 -0.111363724 -0.030239785 0.18054344
000120 c1 ae 5f bd ce 6e fe bd 4b de 2e 3e 4e 41 c9 bc
       -0.054610018 -0.12423478 0.17076986 -0.024567273
000130 0a f5 a4 3d 5b ef e5 3d 5f d5 ef bd 9e bc 01 3e
       0.0805455 0.11227294 -0.11710619 0.12669608
000140 22 2d ac 3d 92 d5 9c 3d c7 1b 5f 3d 75 ea 42 3d
       0.08407046 0.07657923 0.05446985 0.047586877
000150 0d f2 12 bc 52 92 90 3d 7b cc 13 be 2f 04 1a be
       -0.008968842 0.070591584 -0.14433472 -0.15040658
000160 54 b3 be bd c8 4f d9 bd 23 44 8d bd 9f c6 c4 3b
       -0.09311548 -0.1061092 -0.06897762 0.006005123
000170 10 1d 0d bd 80 d7 0c be ae 30 16 be de 8f 24 be
       -0.034451544 -0.13754082 -0.14667007 -0.16070506
000180 a8 b1 d0 3b de f8 f6 3d 23 59 26 3b 60 78 78 bd
       0.0063688345 0.120591864 0.002538272 -0.060661674
000190 83 2c 36 be 50 c6 38 3e 5c 3d 10 bc f2 c9 a8 3d
       -0.17790417 0.180444 -0.008803692 0.08241643
0001a0 d8 87 86 bd 35 0a 2e 3e c7 50 ec 3d e7 61 f3 3b
       -0.06568879 0.16996081 0.115388446 0.0074274424
0001b0 69 9b 09 3e 3e a1 cd bb 97 75 a0 3d ff f1 05 3e
       0.1343819 -0.006275325 0.078349285 0.13080595
0001c0 14 92 10 be 4d 9c a0 bc 9c 31 a0 bd 93 c3 02 bd
       -0.14118224 -0.01960578 -0.07821962 -0.031924795
0001d0 f3 d3 05 3e 37 41 08 3e 2c be 15 be 50 35 34 3c
       0.13069133 0.13306127 -0.14623326 0.010999039
0001e0 88 87 0e be 16 27 ac 3d df 5e d0 bd 3d 99 ec 3c
       -0.13918889 0.084058926 -0.10174345 0.028881663
0001f0 38 40 7b bd de e6 d0 3d 51 14 e2 bd e2 03 2d be
       -0.06134054 0.102002844 -0.11039031 -0.16896012
000200 be 57 ab 3d 10 75 08 3e 67 e7 07 be 36 85 cd bd
       0.08366345 0.13325906 -0.13271867 -0.100351736
000210 1b 06 21 3e 7f d2 06 3e 3c 50 2e 3e b7 f3 e2 bd
       0.15724985 0.13166235 0.17022794 -0.11081641
000220 93 da 18 be 86 19 c7 bd 64 d3 10 3d 1c 14 c1 bd
       -0.1492713 -0.09721665 0.035357848 -0.09427664
000230 74 0f 34 3d 71 86 63 3d 80 f7 a2 3d 95 87 b3 3d
       0.04396005 0.055548135 0.07957363 0.087660946
000240 e4 4d 09 3e 96 de 94 bd aa 4f 61 be ea 5b 33 bd
       0.13408619 -0.072690174 -0.22003046 -0.043788828
000250 da 04 d0 3d 36 ee a0 3d 5f 76 09 3e 88 0d 44 bd
       0.10157175 0.07857935 0.13424061 -0.047864467
000260 74 d8 23 bd a8 0c 42 bd 69 1c 9e bc 8f 80 69 bc
       -0.040001348 -0.04737535 -0.019300656 -0.014251842
000270 90 d3 ae bc 70 e7 3b bc 81 3d bb 38 80 d2 6e 3c
       -0.021341115 -0.011468753 8.928311e-05 0.014576554
000280 5d de 2c 3e cd 57 1e 3e f7 2c 02 be 51 cb 12 be
       0.168817 0.15463181 -0.12712465 -0.14335372
000290 65 d0 48 3d 83 e5 a7 3d e2 e0 98 bd 78 6e a3 3d
       0.049026866 0.08198073 -0.07464768 0.079800546
0002a0 40 82 68 bb fc 76 14 be 4f a9 30 3e c3 38 e9 bd
       -0.0035478026 -0.14498514 0.17252086 -0.113877796
0002b0 70 9b 0f be 95 bf 13 3e 81 9b ca bd 41 e2 01 be
       -0.14024138 0.14428551 -0.09892941 -0.12683965
0002c0 a4 0d 92 3c d0 a9 98 3c a4 8c 2e 3d cb 5f 08 bb
       0.01782877 0.01863566 0.042614594 -0.002080905
0002d0 70 aa 44 3d 46 39 e3 3d 82 0f 2f 3d 83 c8 04 3e
       0.048014104 0.110949084 0.0427394 0.12967114
0002e0 00 ab d3 3a 00 eb 78 3b 41 2c c2 3b e1 0f 6b bd
       0.0016148984 0.0037981868 0.0059256856 -0.05738819
0002f0 18 41 c4 3c 9a ee f5 3d a8 6a 24 3e 66 5e de 3d
       0.02395682 0.120084 0.16056311 0.10857849
000300 6a b5 28 3e fb 0a 27 be 35 7f 24 3d 1f 4b 00 bd
       0.16475454 -0.16312782 0.040160377 -0.03132164
000310 fc be cb 3c e8 24 23 be 65 84 be 3d 12 97 26 3e
       0.024871342 -0.15932047 0.09302596 0.16268566
000320 24 e5 32 be da 82 11 3e 4b d6 01 3d 16 98 0e be
       -0.17470223 0.14210072 0.031698506 -0.13925204
000330 02 cc 18 be 2b 48 04 3e 26 fb d2 bd cf f1 ea 3d
       -0.14921573 0.12918155 -0.10301809 0.114719026
000340 28 aa ec bd 9d 82 17 3e c1 2f 25 bd af 04 71 bc
       -0.11555892 0.14795919 -0.040328745 -0.014710589
000350 a3 1a fb bd 08 c4 aa bd 10 03 e8 bd b0 2b 6c bd
       -0.1226094 -0.08338171 -0.11328709 -0.05765885
000360 2a eb d0 bd 00 17 fb 3a 4a 4e d9 bc 97 fa fb 3d
       -0.10201104 0.0019156635 -0.026526589 0.123036556
000370 66 35 01 be dc 45 b5 bd ef f5 ed 3d 7a bf 88 3d
       -0.12618026 -0.08851215 0.11619174 0.06677146
000380 f5 2a 28 be 8a fb 1c be 80 11 75 3d ff 0f 0d be
       -0.16422637 -0.1533033 0.059831142 -0.13775633
000390 7d 1a 58 3d 1c 73 b0 3c 9e d0 19 be 99 cb 1a 3e
       0.052759636 0.021539263 -0.15020987 0.15116729
0003a0 06 fc 11 be 2a e8 87 bd a6 20 b9 bd ad e1 10 3e
       -0.14256296 -0.06636079 -0.0903943 0.14148588
0003b0 0f df 2c 3e 02 1f bd bd b7 37 25 3e fe 8f da bc
       0.16881965 -0.0923443 0.16134535 -0.026679989
0003c0 15 16 f8 3c df 2a 31 be a2 7a 07 3e c9 5d dc 3d
       0.030283967 -0.1730151 0.13230374 0.107600756
0003d0 b2 93 19 3d d5 b1 3d 3e 64 5f f7 3d 0a 4d 2b be
       0.03749437 0.18524869 0.12078741 -0.16728607
0003e0 42 8d ad bd 13 dd 0b 3e 12 9e 45 3d b2 5f ed bd
       -0.084742084 0.13658552 0.04824645 -0.11590518
0003f0 58 8c 44 3d f0 f6 99 bd 56 35 0d be c4 01 d9 bd
       0.047985405 -0.07517803 -0.13789877 -0.1059604

layers.2.weight f4 [32, 32]
000000 a2 bf 27 3d 83 fe af 3d 48 44 aa 3d 38 9d 83 3c
       0.04095424 0.08593466 0.08313805 0.016066179
000010 87 98 c3 bd 30 59 25 3e 2d 2f 46 3e dd 74 a2 bb
       -0.09550577 0.16147304 0.19353934 -0.004957779
000020 cb d0 a1 3d db 3c d8 3c a3 60 1e 3e 10 3f 07 be
       0.07901152 0.026396206 0.15466551 -0.1320765
000030 08 35 41 bd e6 c2 38 be 52 93 13 3e 1f 38 35 3e
       -0.047169715 -0.18043098 0.14411667 0.1769719
000040 7d e1 e2 3c a9 5e 1f bb 13 47 02 bd bc 7b 0a 3e
       0.027695412 -0.0024317896 -0.031806063 0.13523763
000050 84 0a 87 3d 80 f2 0f be 58 94 df bd 36 1f 32 3d
       0.065938026 -0.1405735 -0.10916966 0.043486796
000060 93 a8 92 3d a9 76 c5 3d 21 5e 4a bc 7e bd 7e bb
       0.07161059 0.09641773 -0.012351544 -0.003887027
000070 93 c3 35 3e 60 4b ce 3b c6 5b 38 3d 76 fd 82 3d
       0.17750387 0.0062956065 0.045009397 0.06396
000080 90 76 82 bd f3 4f df 3d 42 b4 46 bd fb 6b 4b bd
       -0.0637027 0.10903921 -0.04851175 -0.049663525
000090 57 bb e7 3d e0 d1 4d 3d 92 66 a7 3c 9e e8 aa bc
       0.11315029 0.05024898 0.020434652 -0.020862874
0000a0 50 fb c0 bd 93 fc 28 be 26 92 08 be 52 c5 4a 3e
       -0.09422934 -0.165026 -0.13337001 0.19801834
0000b0 ff ff c8 3d f2 a0 0b be 16 35 07 bd 84 6a b0 bd
       0.098144524 -0.13635615 -0.03300961 -0.08614066
0000c0 4f f1 c7 3d 93 3d d3 bc 08 72 bf 3d 19 0e ac 3d
       0.09762823 -0.025786197 0.093479216 0.084011264
0000d0 31 59 6f 3e d0 81 1a bd a5 c9 56 bd 6a 82 9d bd
       0.23373868 -0.037721455 -0.052438397 -0.0769089
0000e0 41 78 59 3e 09 11 ee bd b0 24 2c bd 2c 4f 2e bd
       0.2123728 -0.11624343 -0.042027175 -0.042555973
0000f0 d6 cb b1 b9 82 f6 3a bd 8e 54 80 3e 9a 68 77 3e
       -0.0003391194 -0.045645244 0.2506451 0.24160996
000100 22 7b b9 3d 43 7f c0 bd 94 53 f2 bd 8e 02 61 3d
       0.09056689 -0.09399273 -0.118323475 0.054934077
000110 90 a9 68 3d 11 b9 0c 3e 6b 9d e2 3d a8 0b c1 bc
       0.056802332 0.13742472 0.11065181 -0.023565128
000120 bb 49 d6 bd 81 05 22 3e e4 aa 1e 3e c9 43 8c 3d
       -0.10463282 0.15822412 0.15494877 0.068488665
000130 3f 38 6f 3d 6d d1 51 bb bd 34 0a 3e eb 55 30 3e
       0.05840325 -0.0032015697 0.1349668 0.17220275
000140 c2 93 1d be 46 1a ef 3c 50 c9 bc bc a4 c4 b6 bd
       -0.15388396 0.029187333 -0.023045212 -0.08924225
000150 b3 8e 3b be d1 06 13 3e 19 9e d1 bd fc af 20 be
       -0.18316154 0.14358069 -0.10235233 -0.15692133
000160 fe 29 e3 bc 50 94 96 bd d4 b0 f1 3c a4 d9 16 bd
       -0.027729984 -0.07352507 0.029503264 -0.036828652
000170 be 79 4b 3d 27 ec a2 bd a6 b9 27 3e c7 06 1f 3e
       0.04967665 -0.07955199 0.16379413 0.15529929
000180 d5 1e 94 bd 6e 0f 86 3d 31 41 56 3c 4e ab 01 bd
       -0.07232443 0.06545912 0.013077066 -0.03165751
000190 11 36 23 3e 6b 7b bc bd cf a9 2c 3d c9 fd 12 3e
       0.15938593 -0.092032276 0.04215413 0.14354624
0001a0 c8 79 15 be 2b 09 03 be 52 a3 1c 3e 29 ef d4 bd
       -0.14597237 -0.12796466 0.15296677 -0.10397179
0001b0 c3 89 67 bd a9 d6 07 be 77 b7 1a 3e 4d 71 3a 3d
       -0.056527864 -0.1326548 0.15109049 0.04551821
0001c0 9c af de bd d6 0a 82 3c 3d 49 23 be 21 6a cc bc
       -0.108733386 0.015874308 -0.15945907 -0.02495295
0001d0 7e 47 72 3d 0f 52 1f be d2 37 e2 bd 8e 70 8c bd
       0.05915021 -0.15558647 -0.11045803 -0.068574056
0001e0 50 ad 20 3e 93 cc 0b bc 4d 39 a1 bd 07 49 a8 bd
       0.15691113 -0.008532661 -0.078722574 -0.08217054
0001f0 87 75 db bd 08 6c 89 bd 38 21 73 bd 2f e9 6c 3d
       -0.10715776 -0.067100585 -0.05935785 0.05783957
000200 ad 39 5b bd 0d ff f2 3a f2 aa 00 3e 56 0c b8 bd
       -0.0535218 0.0018539146 0.1256521 -0.08986728
000210 22 df bc 3d 0f b2 31 3d 8f cc ee 3d 2c d0 eb 3d
       0.09222247 0.0433827 0.1166011 0.11514315
000220 ce f0 5e 3d 70 a8 aa bc 25 17 e7 bd ca 76 a5 3d
       0.054428868 -0.02083227 -0.11283711 0.08079298
000230 c0 bd 94 3d 1b 27 03 bd b3 aa 16 be 6c 57 0f be
       0.072627544 -0.032019716 -0.14713554 -0.13998193
000240 0d 3b 46 3e 6c 28 1a 3a d9 a6 d8 bd 2e 7a f8 3c
       0.19358464 0.0005880657 -0.10578699 0.030331697
000250 09 26 a6 bc 6f 93 11 bd de 7f da 3d 13 f9 19 3e
       -0.020281808 -0.035540994 0.1066892 0.1503642
000260 20 f9 38 3e ed 6e 04 bd 42 f5 fb 3d d4 4c 16 3e
       0.18063784 -0.03233235 0.123026386 0.14677745
000270 09 6f f7 3d f3 b4 04 bd 9f 06 06 3e bf 40 ae 3d
       0.12081725 -0.03239913 0.13088463 0.08508443
000280 78 1b bd 3b ae 56 09 be f6 15 0b bc ab 15 76 3c
       0.005771097 -0.13411972 -0.008489123 0.0150198145
000290 bb 87 01 be 33 30 d7 3d 8c 2d d3 3d 19 8e dc 3d
       -0.12649433 0.1050724 0.10311422 0.107692905
0002a0 a6 0e 34 bc e7 10 8d 3d 6f 1a b9 3d 21 be a7 3b
       -0.010989821 0.068879895 0.09038245 0.0051191007
0002b0 92 bc 1b be e6 d0 44 3d 68 d8 25 be 85 75 45 3d
       -0.15208653 0.048050784 -0.16195834 0.04820778
0002c0 e2 f0 cb bd d9 10 23 be c3 84 b3 bb e2 33 16 be
       -0.09958054 -0.15924396 -0.005478473 -0.14668229
0002d0 e5 6b a1 3d b6 3a 00 be e6 c8 31 3e 9e 1a 43 be
       0.078819074 -0.12522396 0.17361793 -0.19053122
0002e0 13 6f 23 be b2 cf a5 3d 1a a1 80 3d 8e 58 2e bd
       -0.1596034 0.08096255 0.06280728 -0.04256492
0002f0 d9 e0 90 bc 39 03 07 be 78 6d 8a 3d a5 a1 d4 bd
       -0.01768534 -0.13184823 0.06759161 -0.10382394
000300 31 7a a7 bd 6b 23 53 3e 63 c1 2b 3e c6 0f 9f 3d
       -0.08177603 0.2061898 0.1677299 0.077666804
000310 b5 f9 15 3e 97 5d 16 3e 4a f2 5a bd 15 28 28 be
       0.14646037 0.14684139 -0.05345372 -0.1642154
000320 32 27 06 be 5a cb 84 bc ba 13 86 3c d4 42 ec bd
       -0.1310089 -0.016210247 0.016366828 -0.11536184
000330 cf 75 b8 3d 21 07 7e 3a a3 c3 e7 bd ee 3e 33 3e
       0.09006845 0.00096903933 -0.113166116 0.17504475
000340 16 ea 44 3e 1b 96 12 3e b1 ef 74 bd 90 ae 82 3d
       0.19229922 0.14315073 -0.0597989 0.063809514
000350 e9 88 b9 3d dd bc 15 be b4 c9 2b 3e fa 06 55 3d
       0.09059317 -0.14622827 0.16776162 0.052008606
000360 7f 80 45 3d cc cd cc 3d 72 8e fb bd a4 52 b2 bd
       0.048218247 0.1000019 -0.12283029 -0.08707169
000370 0b 9f 12 3d c2 8a 0e be 7f 07 f2 3d 93 dd f8 3d
       0.035796206 -0.1392012 0.11817836 0.12151637
000380 d3 15 00 be 96 5f 63 be 88 a7 70 3d 41 91 01 3c
       -0.12508325 -0.22204432 0.05875352 0.007908166
000390 5f a5 98 3c 9c 59 1d be d6 45 9e 3d 5c 5d 00 3d
       0.018633543 -0.15366215 0.07728164 0.031339034
0003a0 38 29 56 bd 15 72 d5 bd 1b 4a 8e 3d 19 f0 bc 3d
       -0.052285403 -0.1042215 0.06947728 0.092254825
0003b0 57 a1 25 3e 08 cb 28 bd e4 97 48 be c0 a9 c1 bd
       0.16174828 -0.04120925 -0.19589192 -0.09456205
0003c0 74 d4 fd 3d a5 7d 48 bd ab 7a 11 3e 12 d5 37 bd
       0.12394038 -0.04894795 0.1420695 -0.044880934
0003d0 84 a2 36 be 37 36 19 be 21 8d aa 3d 9b 8f 2b 3e
       -0.17835432 -0.14962088 0.083276995 0.16754
0003e0 76 bb 22 be 8a 75 32 3e a6 6e 1b 3e 4d 48 e4 bc
       -0.15891823 0.1742765 0.15178928 -0.027866507
0003f0 11 02 b0 bd 43 19 e1 bc 3b e7 ec bd a8 0c d8 3d
       -0.08594144 -0.027477866 -0.11567541 0.10549289

layers.2.root_weight f4 [32, 32]
000000 80 3c 07 3c 53 86 eb 3c a8 6a 92 bd 4a 60 0c be
       0.00825417 0.028750574 -0.07149249 -0.13708606
000010 d6 4f 43 3d b5 73 71 bc 8c 0e 17 be f9 ad ff bd
       0.04768356 -0.014737059 -0.14751643 -0.124843545
000020 c3 79 6e 3c d6 da 9e bd 1d 2a f4 3c c5 ab ee b9
       0.014555397 -0.077565834 0.029805237 -0.00045522876
000030 ca 8b 8c 3d 3a 65 be 3d 59 8b 95 3d d1 7f ec bd
       0.068626 0.09296651 0.07301969 -0.115478165
000040 8d d3 9e 3d 84 bf f0 bd f1 44 8f 3d 33 62 9f 3d
       0.07755194 -0.11755279 0.069955714 0.07782402
000050 2d f3 25 be 35 5c 07 3e 46 a4 c3 bc 25 3b 15 be
       -0.16206045 0.13218768 -0.023882043 -0.14573343
000060 0f 7e 56 bd 01 71 6a bd 92 48 9f bd 24 25 e4 3d
       -0.052366313 -0.057236675 -0.077775136 0.111398965
000070 05 9d f0 bd dc dc 93 3d 51 26 fe bd e1 18 d2 3d
       -0.11748699 0.0721986 -0.12409652 0.102586515
000080 00 a3 e1 bb 1d f3 21 bd e3 f0 22 3d 4d d0 c5 bd
       -0.006885886 -0.03953849 0.03978051 -0.09658871
000090 c4 99 22 be a3 2f 19 3e 74 96 29 be bf c0 d7 3c
       -0.1587897 0.14959578 -0.165613 0.026337026
0000a0 b5 76 d3 3d bd 18 9a 3d 20 6c 90 3c ae fb 4d 3e
       0.10325376 0.0752425 0.017629683 0.2011554
0000b0 0a c5 44 3e 35 bf 1d 3e 73 21 0e 3e aa c2 ff 3d
       0.1921579 0.15404971 0.13879947 0.12488301
0000c0 ad 8f a5 3c 5a c9 76 bd a1 c6 97 3d e3 30 cf 3b
       0.020210112 -0.060250618 0.07410932 0.0063229664
0000d0 6d 28 c7 3b 1a cb 5a bd 10 66 0d 3e a3 e3 1c 3e
       0.006077817 -0.05341635 0.13808465 0.15321212
0000e0 55 70 df 3d 39 4a c9 bd ee e7 2e be 39 9d 4e 3b
       0.109100975 -0.0982861 -0.17080662 0.0031526817
0000f0 ee a7 f7 bd 48 3b 20 be 82 66 e8 3d bb a8 0b 3d
       -0.12092577 -0.15647614 0.11347677 0.03409646
000100 7a b7 93 3d 50 69 5a be a9 41 d2 3d 3a 3e 54 3d
       0.0721273 -0.21329236 0.1026643 0.051817156
000110 07 80 57 bd 32 96 0c bd 91 f7 3c 3e a7 3f 8b 3d
       -0.05261233 -0.034322925 0.18453814 0.0679925
000120 6c a7 25 3e 21 30 82 bb f8 a4 7d 3d d9 db 54 bc
       0.16177148 -0.0039730226 0.061924905 -0.012991869
000130 65 30 2a 3c 19 d5 00 3e 06 f3 3c bd a2 a3 ae bd
       0.010387515 0.1258129 -0.046130203 -0.08527304
000140 e8 43 aa bd cf 2e 04 3c 0c 5f af bd 65 36 16 3e
       -0.08313733 0.008067801 -0.08563051 0.14669187
000150 81 9b bb 3c ee ea c9 bd 8d 15 96 bd 8d 9e fe bd
       0.022901298 -0.098592624 -0.07328329 -0.12432585
000160 c7 13 8c bb d3 d6 1f 3c 9f 5a bd bd e2 59 85 3d
       -0.0042748186 0.009755808 -0.092458 0.065112844
000170 66 1d 62 3d 70 d4 98 3c e6 b7 b4 3d 33 1e 96 bd
       0.055203818 0.018655986 0.08824138 -0.07329979
000180 68 0c c2 bc f0 54 09 bd be b6 76 3d ae b8 6c bc
       -0.023687556 -0.03352827 0.06023287 -0.014448328
000190 d2 d8 1e 3e 62 90 70 3d 45 00 13 3e 45 c7 d5 bc
       0.15512398 0.058731444 0.14355572 -0.026095996
0001a0 33 6e 67 39 dd ad 99 bd 37 40 f0 3d 52 3c 1c 3e
       0.00022070929 -0.07503865 0.11730998 0.15257385
0001b0 47 b4 4e 3c 82 73 f0 3d 45 2f 24 3e 81 3a 06 3e
       0.012616224 0.11740781 0.16033657 0.13108255
0001c0 21 ec aa bd 4f 4b 9c 3c 61 3f 5d 3d 8e 4e 16 be
       -0.08345819 0.019078879 0.05401552 -0.14678404
0001d0 3d f3 de 3a 78 5d 38 bd b2 21 f1 bd 3e cc 33 bd
       0.0017009747 -0.045011014 -0.11774005 -0.043895952
0001e0 92 fd 27 be e2 0c c6 3d 36 9c 21 be 45 4a 2b be
       -0.16405323 0.09670426 -0.15782246 -0.1672755
0001f0 31 20 ef bc 0a a4 ed bd 53 a1 ee 3d c1 f8 7b bd
       -0.029190155 -0.116035536 0.11651864 -0.061516527
000200 ed e4 2a be 67 a6 bf bc f5 9b 9b 3d a8 a6 27 3d
       -0.16688891 -0.023394777 0.07598106 0.04093042
000210 84 dd 1e 3c 4f fb bd bd af b6 16 be db f6 d9 bb
       0.009696368 -0.09276449 -0.14718126 -0.006651742
000220 fc 54 6b 3d 7b e8 9c bd 08 86 20 3e 8b a4 2b 3d
       0.057454094 -0.0766153 0.15676129 0.041904967
000230 e9 21 fb bd 1c 4f b7 bd fe c3 9c 3d d0 3f 50 3d
       -0.12262327 -0.08950636 0.0765457 0.050842106
000240 b5 77 13 3c 8c 62 21 3e 09 41 ab 3c c7 bb db 3b
       0.009000708 0.15760249 0.020905035 0.0067057344
000250 72 08 85 3d d1 37 a4 bd 57 4b 36 3d 85 18 99 bb
       0.064957514 -0.08018459 0.044505443 -0.0046721124
000260 be 86 8d 3d d7 19 63 bd 81 1a 47 3e f4 6d d1 bc
       0.06910466 -0.055444565 0.19443704 -0.025565125
000270 a2 bd 79 3d 03 c2 e8 bd 6d 76 10 3e 65 e7 27 bc
       0.060971864 -0.1136513 0.14107676 -0.01024804
000280 89 29 2e be 82 38 32 be 0d db 8a 3d 46 85 34 3e
       -0.17008032 -0.17404369 0.06780062 0.17628965
000290 fd 7c 46 3d 32 01 eb bc 95 15 b0 bd 09 5e fd bd
       0.048459042 -0.028687093 -0.085978664 -0.123714514
0002a0 5d 96 cf bd 01 3f 04 be 97 94 d8 3d c2 30 ea 3d
       -0.101361014 -0.12914659 0.10575216 0.11435081
0002b0 60 da 0d 3d 8c 07 38 bd 94 87 11 3e 94 b4 c8 3c
       0.034632087 -0.044929072 0.14211875 0.024500169
0002c0 eb 77 36 bd ed 23 56 3c ce 2f 2d be 8e 87 b1 bd
       -0.044547956 0.013070089 -0.16912767 -0.08668433
0002d0 6a df a6 3d 7d 04 d3 3c e8 55 cb bc 0e db bd 3c
       0.081480816 0.025758976 -0.024821237 0.023175742
0002e0 ed b7 f8 bd 57 b8 f1 bd a7 85 e3 3d 71 4f 0e be
       -0.12144456 -0.11802738 0.111094765 -0.13897492
0002f0 ff e7 2b 3e 04 96 36 be c0 53 21 3e 83 39 58 3d
       0.16787718 -0.17830664 0.15754604 0.052789222
000300 a3 a4 e6 3d d1 cf 4c 3e 4f 7e bd 3d 86 21 02 3e
       0.11261871 0.2000115 0.09252607 0.127081
000310 ab f8 11 be 16 55 ee 3d 6e 9b e4 3d b3 22 96 bd
       -0.14255016 0.116373226 0.11162458 -0.07330837
000320 01 ea f4 bc 91 3e 02 be 0b 13 15 3e 68 35 24 3e
       -0.029896738 -0.1271918 0.14558046 0.16035998
000330 6c 58 28 be c9 31 11 3e 99 80 e6 bd b1 f1 b2 3d
       -0.1643998 0.14179148 -0.11254997 0.08737505
000340 21 2a fd 3c 5f 04 2d be 8a fb 0d be b2 d5 cc 38
       0.030903878 -0.16896199 -0.13865486 9.767282e-05
000350 46 2f 6b bd 22 8f 7f 3d 0f 0d 83 bc 66 1d 16 bd
       -0.05741813 0.06239236 -0.015997438 -0.03664913
000360 a5 33 35 3e 60 ae a6 bd ab e5 f4 bd 8e db 08 3e
       0.17695482 -0.08138728 -0.11957868 0.13365003
000370 5e 33 0e 3e 00 0c b5 3d 63 83 e0 bc c6 4e 99 bc
       0.13886783 0.088401794 -0.0274064 -0.01871432
000380 74 3b 15 be ad 93 e2 bd b2 11 2b be 5c 3f 8e bd
       -0.14573461 -0.11063323 -0.16705969 -0.069456786
000390 79 9d b9 3c 76 38 46 3c 3b e4 78 3d b2 13 fe 3d
       0.022658097 0.012098422 0.060764533 0.124061
0003a0 c6 41 4e bd 11 91 6d be 2a 52 73 3d da e3 fa 3d
       -0.050355695 -0.2319987 0.05940453 0.122504905
0003b0 ea c0 ba bd e2 00 18 be f1 4a 0e be 7e e4 2d 3e
       -0.09118827 -0.14844087 -0.13895775 0.16981694
0003c0 48 4d 44 3c 38 1c 44 3d 4b 9e 03 be 62 7b 4f be
       0.011981316 0.047878474 -0.12853353 -0.2026191
0003d0 e6 b0 b4 bd fc 09 8f bd b6 d8 0c 3d 19 de 34 bd
       -0.08822803 -0.06984326 0.03438636 -0.04415712
0003e0 06 be af bd 2e fb b2 3d 75 e0 5c 3e 8d 84 15 be
       -0.08581166 0.08739315 0.21569999 -0.14601345
0003f0 dc ee 5f 3e b1 2e 17 3e 13 ff cb bd 00 9e 2e be
       0.21868461 0.14763905 -0.09960761 -0.1705246

fc11.weight f4 [16, 32]
000000 1a b7 f5 3d 27 93 3e 3e 93 82 af bc a8 cd 23 be
       0.119978145 0.18610822 -0.021424567 -0.1599642
000010 19 68 15 3e e0 61 19 3e e4 e0 8f 3d f8 a6 18 be
       0.14590491 0.14978743 0.07025316 -0.14907444
000020 49 93 98 bc be f6 33 3e 30 ed c7 bd f5 23 61 bd
       -0.018624919 0.17574593 -0.09762037 -0.054965932
000030 80 de c2 bd cb 44 04 3e 00 5d 8c 3d fd c9 88 3c
       -0.09515095 0.12916867 0.06853676 0.016697878
000040 d4 13 1b 3e 06 29 b5 bd a5 ff af bc 5f 77 8d bd
       0.15144283 -0.08845715 -0.021484205 -0.06907534
000050 7b 01 34 3e a0 fd 40 be a8 96 34 bd a7 60 d0 bd
       0.1757869 -0.1884675 -0.04408899 -0.10174685
000060 c5 3c 27 3e 8b 22 92 3c ee 5b 19 3e 48 76 13 3e
       0.16331775 0.017838737 0.14976475 0.1440059
000070 f2 43 54 bd 38 87 a5 bc 02 53 5d bd 86 95 0a 3e
       -0.05182261 -0.020206079 -0.05403424 0.13533601
000080 9d 69 e5 bc 41 96 57 3e 3a 47 07 3e 7b 76 8d 3d
       -0.028004462 0.21053411 0.13210765 0.06907364
000090 9d 38 15 be 23 85 05 3e 65 9e 30 be 9d 06 10 bc
       -0.14572378 0.13039069 -0.17247923 -0.008790639
0000a0 cf 5c 93 3d ef 27 29 3d 6f b4 9b 3d 47 5c 1a 3d
       0.07195436 0.04129785 0.07602774 0.03768566
0000b0 9f 27 f1 3c 4c 06 16 3e 2a f2 a0 3c 8c 29 0b be
       0.029437838 0.1465084 0.019646723 -0.13590068
0000c0 c5 08 26 3e aa 87 ec bd a7 24 86 3d 42 2d 1b 3e
       0.16214283 -0.11549313 0.0654996 0.15153983
0000d0 fa 45 6c 3e 0d 80 2a be 0a a9 7d 3c fd 0e 35 3c
       0.23073569 -0.1665041 0.015482197 0.011050937
0000e0 ac 0b 5c 3e 05 97 49 3d 8e f6 54 3a 3e 5c 0e 3e
       0.21488827 0.04921629 0.0008123898 0.13902375
0000f0 48 40 03 be 58 59 21 be 8c 0e 58 3e d4 f7 34 3e
       -0.1281749 -0.15756738 0.21099299 0.17672664
000100 e4 11 dd 3c d3 43 65 3e 0a 3a 55 3e ce 7b 6b 3d
       0.02698607 0.22389154 0.20822921 0.057491116
000110 ef a7 96 3d c0 d2 40 3c c7 bf ae 3d 8a bd e3 bd
       0.073562495 0.011768997 0.085326724 -0.11120136
000120 de fe fe bd 72 c0 e4 3d 9c f0 87 bd 2c f7 30 bd
       -0.12450956 0.111695185 -0.066376895 -0.04320447
000130 df 0b d3 3d bd 46 81 3d 40 f3 62 bc f4 ab 19 3d
       0.103049986 0.063123204 -0.013851941 0.037517503
000140 d3 bb ba 3d 46 4a 58 3d 47 98 c4 bd 0f db 0e 3e
       0.09117856 0.052805208 -0.09599357 0.13950752
000150 dd 30 36 3e 49 72 18 3e c1 af 09 3e 5c ea a9 bd
       0.17792077 0.14887346 0.13445951 -0.08296654
000160 30 8d 44 3e f0 8c f4 3d fa f2 e7 bd 5b 6c d4 bd
       0.19194484 0.11940944 -0.11325641 -0.1037223
000170 13 dd d9 bd 5d 68 e0 bd 0a 3c 0b 3e 22 82 4e 3e
       -0.1063787 -0.10957406 0.13597122 0.20166829
000180 01 6f 29 3e 5c a5 53 3d 01 e7 ab bc ab 13 d5 3c
       0.16546251 0.05167137 -0.020984175 0.026010355
000190 39 65 1c 3d 1c 4a 88 3c 49 d0 21 3d 5e e9 0d be
       0.03818247 0.0166369 0.039505277 -0.13858554
0001a0 20 40 1e be 5e 93 9a bd 57 50 26 3e 8d a9 81 3c
       -0.15454149 -0.07547639 0.16241585 0.015827918
0001b0 dd bf 13 be 13 61 19 be 26 c1 13 bc 05 b1 1f be
       -0.14428659 -0.14978437 -0.009018218 -0.15594871
0001c0 12 26 c7 3d 9d df 0a be c3 53 72 bd aa ff 03 3d
       0.09724058 -0.13561864 -0.059161913 0.032226242
0001d0 3d d2 93 bd 8f 72 20 3e 35 28 48 be 6c 58 53 bd
       -0.07217834 0.156687 -0.19546588 -0.051597998
0001e0 77 af f0 3d 2a 2f f0 bd dc 35 0c be 2e 2d b1 bd
       0.11752217 -0.11727746 -0.1369242 -0.086511955
0001f0 b8 42 f2 bc 96 40 cc 3d 87 31 b5 bd 42 0d ea 3d
       -0.02957283 0.09973256 -0.08847337 0.1142831
000200 55 57 d9 bd cb 8c 19 3e 49 16 1f bc 04 ec f2 bd
       -0.106123604 0.14995115 -0.009709903 -0.11861423
000210 e5 86 25 3e 2c c1 42 3e 80 19 8c bd 08 bd 06 3e
       0.1616474 0.19019002 -0.06840801 0.13158047
000220 51 a1 38 be 6f d3 3a 3e cb 26 b8 bd 52 a7 5c bc
       -0.18030287 0.18244718 -0.08991774 -0.013467627
000230 78 c7 d6 3d c2 62 e0 3d d8 f9 e3 3d f5 f4 0f 3e
       0.104872644 0.109563366 0.11131638 0.14058287
000240 7f fa 00 3e 21 7f 98 bc e8 ae 13 3e d4 09 1e 3e
       0.12595557 -0.018615307 0.1442219 0.15433437
000250 c5 96 d6 bc 8d 41 f5 3d cc 33 9f 3d 57 3e b5 3d
       -0.02619494 0.119753934 0.07773551 0.08849781
000260 e5 40 b1 bd f6 6c 31 bd 73 29 81 bc 70 fe 41 3e
       -0.08654956 -0.043316804 -0.015766835 0.18944716
000270 27 00 b1 3c bd 3d 15 be f9 98 0c bd 82 94 01 3e
       0.021606518 -0.14574333 -0.034325574 0.12654307
000280 38 64 ea bd 24 03 56 3d 01 26 e0 3d 4b 6b e9 bd
       -0.114448965 0.05224909 0.10944749 -0.11397418
000290 a9 05 d7 3d 2c e4 7b bb 05 c1 17 3d 2a 5c 10 be
       0.104991265 -0.0038435562 0.037049312 -0.14097658
0002a0 a5 37 80 bd 88 36 d0 bd 1f 33 79 3c 54 be 30 be
       -0.06260613 -0.10166651 0.015209942 -0.17260104
0002b0 ad a7 d2 3d 66 b0 63 bd 55 c3 2c 3e d2 61 a4 bd
       0.10285888 -0.05558815 0.16871388 -0.0802647
0002c0 42 ef 07 3c 43 11 02 3c d0 46 f3 bd c3 54 a2 3d
       0.00829679 0.007938686 -0.11878741 0.07926323
0002d0 73 a4 57 bd b1 e4 19 3e 7b 43 f3 3d c0 0e e6 bd
       -0.052647065 0.15028645 0.11878105 -0.11233282
0002e0 30 56 56 be 77 72 0d 3d 2b b9 1c be b7 14 e2 bd
       -0.20931315 0.03453299 -0.15305011 -0.11039107
0002f0 1c 21 bc 3c e0 6a 0b be b8 a0 dc 3d 2f 3c e2 3d
       0.022965007 -0.13614988 0.10772842 0.11046635
000300 76 25 d5 3d fa fe 2f 3e 81 73 4c 3e ab 90 75 3d
       0.10407536 0.1718711 0.19965936 0.05995242
000310 df ea 08 be 32 0b 58 3e 04 8d 1a be 3b d2 61 3d
       -0.13370846 0.2109802 -0.15092856 0.055132132
000320 48 41 7d bd 8f 53 10 3e f6 a2 35 be 27 e3 30 3e
       -0.061829835 0.14094375 -0.17737946 0.17274152
000330 0d 29 81 3d 28 61 eb 3d 5c 18 f7 3d 05 e7 ac 3d
       0.06306658 0.114931405 0.12065193 0.08442501
000340 a6 a1 39 bd 38 61 e3 bd e9 9e 93 3d 12 47 88 3d
       -0.045320176 -0.111025274 0.07208044 0.066541806
000350 50 2d f0 3b d5 8d 3a be 4d e9 36 3e b4 1c e4 3d
       0.0073296204 -0.18218167 0.17862435 0.11138287
000360 f2 47 06 3e 50 73 37 be 4b 8e f1 bd dc 48 35 bd
       0.13113382 -0.17915082 -0.11794718 -0.044258937
000370 63 1f ca 3d 94 f0 10 3e b8 ec 48 3e f4 e9 16 3e
       0.09869268 0.14154273 0.19621551 0.14737684
000380 ff 3c 86 3b dc f4 7e bd 6f 95 68 bd 9b 5b 37 3e
       0.004096627 -0.062245235 -0.056783136 0.17906038
000390 7c ac 66 bc e3 be 89 3c f5 ef 32 3e 87 de c4 bd
       -0.014079209 0.016814655 0.17474349 -0.09612756
0003a0 12 91 2f bc e3 83 83 bd 78 fe e6 3d 02 3b d6 3a
       -0.01071574 -0.0642164 0.11279005 0.001634449
0003b0 e3 65 a8 bd 67 26 9b 3d 77 91 c2 bd b5 a0 b1 bc
       -0.08222558 0.07575684 -0.095004015 -0.021683076
0003c0 43 8c 67 be f1 94 e6 bd 2b 86 31 3e 26 04 06 be
       -0.226121 -0.11258877 0.17336337 -0.1308752
0003d0 5f 23 cf 3c 79 6a 20 3c 4e ef 03 3e 9c b5 8e bc
       0.025285421 0.00979101 0.12884256 -0.017420582
0003e0 d3 9c 87 bd 56 c5 b8 bd c2 f9 62 3e 48 81 ca 3d
       -0.06621709 -0.09022014 0.22165588 0.0988794
0003f0 15 7a 7f 3d da 2a 8e bd d0 5d 1a be 45 31 4f 3e
       0.062372286 -0.06941767 -0.15074849 0.20233639

fc11.bias f4 [16]
000000 d2 90 52 3e a9 40 fa 3d 37 b8 3f 3e 3e 01 8d 3d
       0.20563057 0.12219364 0.18722616 0.068850026
000010 80 f8 8f 3e d4 55 a5 3b e0 1c 1d 3e c8 4a 5a be
       0.28119278 0.005045632 0.15343046 -0.2131759
000020 7b 77 a7 3e b6 5e 07 3e 52 b5 a9 3d 62 82 8f bd
       0.32708344 0.13219723 0.08286537 -0.070072904
000030 c7 d4 3c be f9 d1 a3 bd 1e ca 8c bd d9 2c a8 3d
       -0.18440543 -0.079990335 -0.06874488 0.08211679

fc12.weight f4 [1, 16]
000000 e5 5b ae be d4 db 91 be b7 cb 54 be 22 29 57 3e
       -0.34054485 -0.28488028 -0.20780836 0.21011785
000010 62 a0 3c be 3d eb 06 3e c3 cf 7c be 1e af 44 3e
       -0.18420556 0.13175674 -0.2468863 0.19207427
000020 bf d2 1f be f7 4a 70 3e 40 6d ec bc f3 ae 9a 3d
       -0.15607737 0.23466097 -0.028860688 0.075529
000030 15 48 c9 3d 3b 06 1c 3e d2 47 5d 3e 23 c4 88 3d
       0.09828202 0.15236752 0.21609429 0.06678035
