trained_models/2022-09-16_21:20:47-GraphSAGE_16_3/base_model.pt (torch, 13063 bytes, 9 tensors)

layers.0.lin_l.weight f4 [16, 14]
0.11017034 -0.11213195 0.04685164 0.12154126 0.09018604 -0.06741193 0.11210822 0.01075181
0.06376131 0.074802965 -0.16586848 0.2278233 -0.09051643 0.15830821 0.26105055 0.060328826
0.123947136 0.03557198 0.24238904 0.12695041 0.1814352 0.14562006 -0.10158134 -0.2399444
-0.11959121 -0.1358496 -0.14509939 -0.14801389 0.22964591 0.20628986 0.034726974 0.106008075
0.20516063 -0.10578222 -0.091818 0.26903242 -0.08720087 -0.0026912477 -0.039501797 0.22579782
-0.16049692 -0.15422246 0.14795943 0.16865228 0.28337857 0.07653824 -0.17613794 -0.12822638
0.13202131 -0.11463488 0.17375083 0.21876457 0.016914371 0.15541005 -0.06561122 -0.037755944
0.14132443 -0.18722542 -0.24046487 -0.22671391 -0.03669867 0.18440326 0.17898382 -0.087696515
-0.115850136 0.2008067 0.11529988 -0.14069104 0.012535499 -0.24703161 -0.05353774 -0.04194914
-0.16558716 0.33550864 -0.08688368 -0.15814394 -0.194221 -0.14549756 0.020433154 0.088759474
0.18690427 -0.05387261 0.20153168 0.2242886 -0.18699716 -0.12515253 0.07526053 0.08184447
0.12852167 -0.037146445 0.13122262 0.2323814 -0.29288846 -0.111010835 0.14094704 0.16893886
-0.26517436 -0.14443623 -0.042686757 0.15505505 -0.15074085 -0.20503847 -0.16939509 -0.121049896
-0.19051209 -0.05152112 -0.17255558 0.25226924 -0.10633842 0.053533506 -0.2415961 0.1624185
-0.22990376 0.18470587 0.012603764 0.050363746 0.067783155 0.092552565 -0.09965341 0.02330837
-0.18664913 -0.18875915 0.31476244 0.1687121 -0.13385856 0.17482218 0.2583427 0.24789043
-0.13121691 -0.03766234 0.2590396 -0.007132773 0.1563184 0.16859148 0.06959041 0.16167597
0.12526135 -0.12627958 -0.048033476 -0.11037366 0.16336411 -0.0033315031 -0.08221992 -0.076493785
-0.16566771 -0.024657229 -0.15925872 -0.08667394 -0.15538599 0.033635356 0.092344746 0.19640109
0.11232646 0.2582524 0.07214727 -0.3018923 0.13312127 0.26515752 -0.040497847 -0.09077592
-0.036228027 -0.2722724 -0.11967586 -0.0067513925 0.16487114 0.055479947 0.16548401 -0.15055186
-0.03319866 -0.08918014 -0.20525526 0.20941263 -0.19439013 0.228431 -0.10222079 -0.004895947
-0.0609782 0.19943991 0.067242675 -0.15169077 -0.07518509 -0.10624597 0.23069978 0.46568912
0.121877685 -0.2160617 -0.26020637 -0.06808484 0.27195966 0.004131941 -0.21750838 0.012534716
-0.060097072 -0.07707995 -0.109215476 -0.15347536 0.22030601 0.30120265 -0.03414478 -0.06113739
0.26427394 -0.030699946 0.07650872 0.10992044 0.05512809 0.022658054 0.06574901 -0.041685518
0.054189555 0.093099065 -0.26930183 0.18138006 0.31591862 0.021748561 -0.12738322 0.22217456
-0.11045666 0.036796995 0.19095656 -0.1037891 0.10617777 -0.100750506 -0.38452914 -0.17621836
00000000: fda0 e13d 70a5 e5bd 81e7 3f3d a0ea f83d
00000010: 75b3 b83d 440f 8abd ff98 e53d 5c28 303c
00000020: 4a95 823d 4c32 993d 6dd9 29be 834a 693e
00000030: ae60 b9bd 8c1b 223e 6ba8 853e 5c1b 773d
00000040: ffd7 fd3d edb3 113d d534 783e 4aff 013e
00000050: 26ca 393e 6d1d 153e e109 d0bd fcb3 75be
00000060: 3cec f4bd 281c 0bbe ef94 14be f490 17be
00000070: 4c28 6b3e a63d 533e df3d 0e3d c31a d93d
00000080: a115 523e 59a4 d8bd 130b bcbd 9ebe 893e
00000090: 5f96 b2bd a55f 30bb a3cc 21bd 8b37 673e
000000a0: 4e59 24be 7eec 1dbe ad82 173e 2fb3 2c3e
000000b0: ff16 913e 15c0 9c3d 815d 34be c74d 03be
000000c0: 9830 073e b1c5 eabd bdeb 313e d203 603e
000000d0: 0290 8a3c d023 1f3e 2d5f 86bd faa5 1abd
000000e0: 5ab7 103e 05b8 3fbe 6c3c 76be b127 68be
000000f0: 5851 16bd 35d4 3c3e 8947 373e 3b9a b3bd
00000100: d642 edbd 46a0 4d3e 5822 ec3d 5011 10be
00000110: b261 4d3c dbf5 7cbe 644a 5bbd ddd2 2bbd
00000120: ae8f 29be cac7 ab3e 12f0 b1bd 7cf0 21be
00000130: dfe1 46be 50fd 14be 6e63 a73c 87c7 b53d
00000140: d563 3f3e 87a9 5cbd 525e 4e3e e9ab 653e
00000150: 2f7c 3fbe fc27 00be 3122 9a3d 139e a73d
00000160: 2f9b 033e df26 18bd 395f 063e 64f5 6d3e
00000170: 7af5 95be a659 e3bd 6c54 103e 4ffe 2c3e
00000180: efc4 87be 17e7 13be 4fd8 2ebd c0c6 1e3e
00000190: cf5b 1abe 9bf5 51be e875 2dbe 02e9 f7bd
000001a0: 9a15 43be cf07 53bd 69b2 30be 6f29 813e
000001b0: f5c7 d9bd f345 5b3d f864 77be 0951 263e
000001c0: e46b 6bbe 8923 3d3e 0580 4e3c 374a 4e3d
000001d0: e5d1 8a3d 338c bd3d 1617 ccbd 32f1 be3c
000001e0: f320 3fbe 144a 41be 8b28 a13e ddc2 2c3e
000001f0: 3812 09be 9604 333e 7f45 843e fdd6 7d3e
00000200: ba5d 06be d343 1abd d7a0 843e 09ba e9bb
00000210: ee11 203e 3fa3 2c3e 6b85 8e3d 638e 253e
00000220: 8344 003e 6f4f 01be c0be 44bd 960b e2bd
00000230: ec48 273e 5955 5abb eb62 a8bd c6a8 9cbd
00000240: cca4 29be f5fd c9bc b814 23be 1b82 b1bd
00000250: 811d 1fbe 3ac5 093d 3e1f bd3d 5e1d 493e
00000260: 6a0b e63d a939 843e f3c1 933d a191 9abe
00000270: f150 083e bac2 873e 12e1 25bd bae8 b9bd
00000280: d763 14bd 4a67 8bbe 9e18 f5bd c93a ddbb
00000290: fbd3 283e f13e 633d a474 293e 442a 1abe
000002a0: 51fb 07bd 14a4 b6bd 6f2e 52be 4470 563e
000002b0: 350e 47be d1e9 693e 2259 d1bd 2e6e a0bb
000002c0: 47c4 79bd fa39 4c3e 87b6 893d d354 1bbe
000002d0: a4fa 99bd 7d97 d9bd 903c 6c3e ce6e ee3e
000002e0: 029b f93d 473f 5dbe c539 85be 1170 8bbd
000002f0: 4c3e 8b3e 3c65 873b 84ba 5ebe 695e 4d3c
00000300: 5928 76bd 18dc 9dbd 5dac dfbd a528 1dbe
00000310: e697 613e 3c37 9a3e 66db 0bbd 336b 7abd
00000320: ea4e 873e 747e fbbc 9bb0 9c3d f81d e13d
00000330: fecd 613d 629d b93c 6ba7 863d 6fbe 2abd
00000340: def5 5d3d b9aa be3d eee1 89be b2bb 393e
00000350: 16c0 a13e 0a2a b23c bf70 02be ba81 633e
00000360: 1a37 e2bd 72b8 163d 1e8a 433e 618f d4bd
00000370: bb73 d93d 4856 cebd 01e1 c4be 9672 34be

layers.0.lin_r.weight f4 [16, 14]
0.16514105 -0.09656132 -0.10617548 0.0335405 -0.10208063 0.11750434 -0.24134395 0.026457392
0.020390728 -0.10519754 -0.15774949 0.13865413 0.22108084 -0.016613632 -0.22818542 -0.058406506
0.28044838 -0.0901795 0.23270223 0.27398336 0.07692713 -0.25197193 -0.1448359 0.2209064
0.048809625 -0.0534652 0.2406485 -0.083399214 -0.18323012 0.2861231 -0.31248233 0.29031584
-0.02567956 0.21905509 0.2470621 -0.084936514 -0.0010791395 -0.013303266 0.051094245 -0.013219151
0.17916761 0.2177419 -0.22319593 0.27061468 -0.105515674 0.17915598 0.10470659 -0.19130093
-0.028461128 0.16661412 -0.15560351 -0.05097368 0.034053776 0.2404067 -0.23866338 0.116909176
0.36221674 -0.05677208 -0.0715425 0.14525831 -0.23538178 0.22985168 -0.0883507 0.07142399
-0.07814278 0.1817624 0.06608181 0.06163655 0.012760252 -0.22041897 -0.08907053 0.21737605
-0.14614362 -0.043850478 0.16641076 -0.17524402 0.1607554 0.1155423 -0.06691523 0.020482915
0.27831405 0.17280978 -0.13381624 -0.04053251 -0.12145894 0.49057677 -0.18004277 0.12898123
0.057748806 -0.019900993 -0.28145304 -0.027424656 0.23649201 0.16575776 0.22633909 -0.12595086
-0.018921405 0.09707354 0.018580534 -0.3831927 0.29971886 -0.1934527 0.1265908 0.014270377
0.015964493 0.10108721 0.26669875 0.17875697 -0.09601154 -0.014982425 0.19046584 -0.25698572
-0.19378231 0.08536563 -0.13571563 0.05980741 0.06552441 0.256641 0.2606154 0.298429
0.12939404 0.12745294 0.16460456 -0.09180608 0.03989955 -0.22607712 0.020246673 0.2766709
0.2358965 0.2794812 -0.26156616 -0.17049015 0.060510904 0.15867156 0.20964435 0.103997216
-0.11428304 0.05079021 0.08647181 0.20273593 -0.20531496 0.054719996 0.27464613 0.14334343
-0.06355466 -0.22343244 0.21597797 0.019082455 0.16343793 0.17963289 0.25997737 0.23598385
-0.06553409 0.123594135 -0.20623398 0.3343766 -0.13517644 0.31035808 -0.061512653 -0.16323838
0.0975778 -0.1487874 0.22338544 0.11360314 0.06435084 0.3304736 -0.23694162 -0.020793857
-0.015642103 -0.16235428 -0.069802776 -0.020589419 -0.17522857 0.16231425 -0.0036226434 -0.07907401
0.23294455 -0.1717917 0.14872709 -0.19053844 0.02868656 0.2117672 -0.15166357 -0.16804752
-0.14866579 -0.042574298 -0.070806384 0.04422033 0.05710207 0.084108956 0.22525243 -0.10419426
-0.08199583 -0.15526016 0.07242057 0.064027175 -0.07830276 0.26799563 0.05209727 -0.10708559
-0.002066441 0.19438024 0.11041456 0.18249898 0.10000713 0.22729114 -0.22103591 0.16247377
0.19962978 -0.19134903 -0.037176214 -0.1939923 0.10250474 0.2152415 0.078823194 0.063972004
0.10534601 0.15717718 -0.16190876 -0.076513976 0.0064782505 -0.097225085 -0.06512362 -0.1504319
00000000: bc1a 293e f1c1 c5bd 8872 d9bd c361 093d
00000010: a60f d1bd 1ea6 f03d de22 77be 2cbd d83c
00000020: 750a a73c cf71 d7bd 1589 21be 59fb 0d3e
00000030: 0463 623e 5019 88bc 70a9 69be a93b 6fbd
00000040: ee96 8f3e 08b0 b8bd 7e49 6e3e 8c47 8c3e
00000050: f98b 9d3d 7702 81be dd4f 14be 4a35 623e
00000060: 9aec 473d 53fe 5abd 8f6c 763e 35cd aabd
00000070: ada0 3bbe ba7e 923e affd 9fbe 47a4 943e
00000080: f15d d2bc fa4f 603e d9fd 7c3e 32f3 adbd
00000090: ea71 8dba f1f5 59bc 3348 513d 2395 58bc
000000a0: b777 373e bcf7 5e3e 798d 64be 028e 8a3e
000000b0: 9a18 d8bd aa74 373e 6970 d63d 64e4 43be
000000c0: 5027 e9bc e49c 2a3e 8756 1fbe c7c9 50bd
000000d0: f97b 0b3d 2d2d 763e 2c64 74be 146e ef3d
000000e0: 7974 b93e d789 68bd e084 92bd 98be 143e
000000f0: ec07 71be 3d5e 6b3e 36f1 b4bd be46 923d
00000100: 5209 a0bd ec1f 3a3e e655 873d 9b76 7c3d
00000110: 6010 513c 83b5 61be 9c6a b6bd d497 5e3e
00000120: aca6 15be 8f9c 33bd 9567 2a3e 2b73 33be
00000130: 109d 243e 71a1 ec3d da0a 89bd c9cb a73c
00000140: 2e7f 8e3e 0cf5 303e 2007 09be 6b05 26bd
00000150: 77bf f8bd e12c fb3e 225d 38be a813 043e
00000160: 038a 6c3d 6807 a3bc 9d1a 90be aca9 e0bc
00000170: f62a 723e 67bc 293e 6fc5 673e 43f9 00be
00000180: 1001 9bbc 7ece c63d 3436 983c d531 c4be
00000190: c074 993e 7718 46be 05a1 013e 4dce 693c
000001a0: f8c7 823c d006 cf3d bd8c 883e 110c 373e
000001b0: b3a1 c4bd d878 75bc 7a09 433e a293 83be
000001c0: df6e 46be 2dd4 ae3d 0af9 0abe 9df8 743d
000001d0: a931 863d 7366 833e 626f 853e b0cb 983e
000001e0: df7f 043e 0683 023e 198e 283e d304 bcbd
000001f0: b66d 233d c380 67be 5adc a53c cfa7 8d3e
00000200: da8e 713e 2918 8f3e 00ec 85be f894 2ebe
00000210: 48da 773d cc7a 223e 02ad 563e 7efc d43d
00000220: 3a0d eabd 6509 503d 2218 b13d 029a 4f3e
00000230: 163e 52be 1322 603d 6b9e 8c3e 9fc8 123e
00000240: f228 82bd 79cb 64be 5429 5d3e cf52 9c3c
00000250: 465c 273e aff1 373e c11b 853e c0a5 713e
00000260: bd36 86bd ec1e fd3d 002f 53be 6933 ab3e
00000270: b16b 0abe 41e7 9e3e b1f4 7bbd f627 27be
00000280: dfd6 c73d b95b 18be 27bf 643e c3a8 e83d
00000290: 60ca 833d d633 a93e d3a0 72be e157 aabc
000002a0: de23 80bc 3340 26be c2f4 8ebd 24ab a8bc
000002b0: 1e6f 33be b535 263e df69 6dbb 8ef1 a1bd
000002c0: 0489 6e3e 2aea 2fbe ea4b 183e 821c 43be
000002d0: 1400 eb3c 80d9 583e b24d 1bbe a614 2cbe
000002e0: d83b 18be 6362 2ebd f002 91bd 6020 353d
000002f0: dce3 693d 5141 ac3d 93a8 663e cd63 d5bd
00000300: 6eed a7bd 85fc 1ebe 3c51 943d ae20 833d
00000310: 335d a0bd b936 893e f263 553d b14f dbbd
00000320: 216d 07bb 9d0b 473e 0721 e23d 03e1 3a3e
00000330: 8ad0 cc3d 02bf 683e 3d57 62be 865f 263e
00000340: c06b 4c3e 00f1 43be 1646 18bd eba5 46be
00000350: 01ee d13d 4568 5c3e 0e6e a13d c103 833d
00000360: a6bf d73d 0ef3 203e 69cb 25be 5cb3 9cbd
00000370: 8147 d43b f21d c7bd 885f 85bd d20a 1abe

layers.1.lin_l.weight f4 [16, 16]
0.2184696 0.23828416 -0.14583404 0.012659458 -0.18777741 -0.24149679 0.14938547 -0.17295866
-0.17282183 0.19850351 0.11655012 0.17135718 0.1277246 0.26711038 0.2449468 0.07902654
0.19793002 -0.17631392 0.19667979 0.18895675 0.15545641 -0.12624292 -0.039992854 -0.27505344
-0.13805257 0.22279486 -0.020013012 0.23193415 -0.13213943 -0.0891899 -0.08678889 0.09190804
0.18280183 -0.21777184 0.07251456 0.14366864 0.044745024 -0.09676144 0.029263617 -0.09718921
0.28559226 0.06496914 0.20892312 0.054477874 0.18174735 -0.202894 0.22653171 -0.107358925
-0.12887514 -0.087862924 0.12962598 0.17658116 -0.057534784 0.017485246 0.19684885 0.11493535
0.18539727 0.23921333 0.027497362 0.24405374 0.19856055 0.09103909 -0.0015429725 0.18450646
0.08696734 -0.098635 0.1994599 0.13245605 -0.06262389 0.0037348326 0.006289465 -0.19313578
-0.020166699 -0.03342933 0.07550875 -0.022394354 -0.21812473 0.22019152 0.14433412 -0.053157695
-0.14928167 -0.010909985 0.09002637 -0.05195755 -0.010490267 -0.10783114 0.106328145 -0.18260638
0.123435356 0.23318176 0.18850741 0.003827437 0.020699942 0.28107482 0.13657814 -0.10306399
-0.007253059 0.20210236 -0.08230857 0.15326309 -0.05028817 -0.1572621 -0.070155844 -0.2323014
0.09764144 -0.036830816 0.1473189 0.008074804 -0.23271856 0.085702986 -0.09242072 -0.23486
0.21278775 -0.044341415 0.04370973 -0.13499314 -0.017768959 0.2548029 0.28529027 -0.23640725
0.14771618 0.17201398 0.01581816 0.018994909 0.19739981 0.1608891 -0.029864756 -0.18963443
0.2219032 -0.024711415 -0.0516435 -0.17897126 0.089687794 0.04800917 -0.28743377 -0.02484089
-0.40678218 0.107703164 0.12782007 0.1292911 -0.19033033 -0.090584725 -0.035072953 0.19180386
0.011178343 -0.1832889 -0.27556637 0.14864357 0.042339142 -0.24169567 -0.069532804 0.05478794
-0.15430264 0.1272574 0.17867865 0.11904665 0.13947378 -0.09685428 -0.016113749 0.23909093
0.14136839 -0.024828618 0.044901524 0.09184298 0.08605511 0.00025369265 -0.19382752 -0.16684677
-0.06367805 -0.1535123 -0.1099772 0.023672186 -0.14002432 -0.1912982 -0.05966589 0.26362705
0.024619214 0.253323 0.12804931 -0.19882238 -0.067797795 -0.21052766 0.057698045 0.0368363
-0.26118505 -0.15032719 0.04795088 -0.0740807 0.0739915 0.07915091 -0.14284568 0.2375529
0.07808429 0.2274625 -0.1809954 0.04979469 -0.06594569 -0.06333412 0.14088537 0.13206637
0.10283032 0.18580133 0.1500804 -0.124401145 -0.14409003 -0.27842557 -0.22586176 -0.10138288
0.08434905 0.10686008 -0.09130824 -0.15341432 0.24292672 0.17851244 -0.2328374 -0.14976676
0.08438695 -0.21709062 0.1350802 -0.14434046 -0.007806664 -0.09755104 -0.23191525 0.15765062
-0.021836609 0.14054777 -0.21420474 -0.043060306 -0.23734991 0.14570223 0.014307723 -0.12631784
0.25653842 -0.16666804 0.22079997 0.064286835 0.08870575 -0.21991096 0.22673365 -0.22163548
0.15488574 0.21955597 -0.0070354124 -0.27872393 -0.0010146501 -0.14843647 0.048733864 0.0063520577
-0.1899989 -0.1799609 -0.026448186 -0.21242693 0.12442217 -0.34910837 -0.07758764 -0.40937144
00000000: 7fb6 5f3e c300 743e 8555 15be 9e69 4f3c
00000010: b948 40be ef4a 77be 81f8 183e 131c 31be
00000020: 35f8 30be 8144 4b3e d4b1 ee3d 4278 2f3e
00000030: 3dca 023e b1c2 883e 55d3 7a3e abd8 a13d
00000040: 2bae 4a3e a38b 34be 6d66 493e e17d 413e
00000050: f72f 1f3e d345 01be 8ccf 23bd ced3 8cbe
00000060: a75d 0dbe 5624 643e 54f2 a3bc 2580 6d3e
00000070: 8f4f 07be 32a9 b6bd 60be b1bd 483a bc3d
00000080: 6730 3b3e 95ff 5ebe 8382 943d df1d 133e
00000090: 8f46 373d dd2a c6bd 41ba ef3c 230b c7bd
000000a0: 2639 923e 8a0e 853d f1ef 553e 3124 5f3d
000000b0: fa1b 3a3e 72c3 4fbe eef7 673e ffde dbbd
000000c0: d8f7 03be 7af1 b3bd acbc 043e b1d1 343e
000000d0: 98a9 6bbd 383d 8f3c bf92 493e 3a63 eb3d
000000e0: c8d8 3d3e 57f4 743e 2642 e13c 39e9 793e
000000f0: 7553 4b3e b472 ba3d 913d caba 43ef 3c3e
00000100: ef1b b23d 2601 cabd 373f 4c3e 8fa2 073e
00000110: f440 80bd 18c4 743b db17 ce3b 63c5 45be
00000120: a234 a5bc 31ed 08bd 55a4 9a3d 5d74 b7bc
00000130: 175c 5fbe e379 613e 53cc 133e e2bb 59bd
00000140: 4bdd 18be cbbf 32bc bf5f b83d 71d1 54bd
00000150: 5edf 2bbc 93d6 dcbd 92c2 d93d 2bfd 3abe
00000160: adcb fc3d 33c7 6e3e 1608 413e bdd5 7a3b
00000170: ed92 a93c 0ae9 8f3e 24db 0b3e 3713 d3bd
00000180: 12ab edbb ecf3 4e3e 6591 a8bd 00f1 1c3e
00000190: f8fa 4dbd 5109 21be dead 8fbd 6be0 6dbe
000001a0: 3cf8 c73d e9db 16bd c4da 163e 2f4c 043c
000001b0: c64d 6ebe 0c85 af3d 1347 bdbd 247f 70be
000001c0: 08e5 593e 589f 35bd f908 333d a43b 0abe
000001d0: 3590 91bc 8775 823e 9111 923e be14 72be
000001e0: e942 173e 6f24 303e 1695 813c 369b 9b3c
000001f0: 2d23 4a3e 1dc0 243e efa6 f4bc 872f 42be
00000200: 983a 633e 986f cabc 2288 53bd 3e44 37be
00000210: 3cae b73d 43a5 443d 852a 93be 1f7f cbbc
00000220: c145 d0be 7a93 dc3d 44e3 023e e364 043e
00000230: f4e5 42be 7c84 b9bd a8a8 0fbd 3b68 443e
00000240: 5e25 373c 16b0 3bbe 0917 8dbe 0536 183e
00000250: cf6b 2d3d 127f 77be 3767 8ebd 5269 603d
00000260: 8301 1ebe c44f 023e 89f7 363e bbce f33d
00000270: 37d2 0e3e 895b c6bd fb00 84bc 41d4 743e
00000280: e0c2 103e 6365 cbbc a9ea 373d 2c18 bc3d
00000290: a93d b03d 0d02 8539 b97a 46be e1d9 2abe
000002a0: a369 82bd 5432 1dbe ba3b e1bd 2cec c13c
000002b0: 8962 0fbe ade3 43be 3864 74bd 20fa 863e
000002c0: 3cae c93c 8db3 813e 5c1f 033e 1898 4bbe
000002d0: 92d9 8abd 9094 57be c954 6c3d a9e1 163d
000002e0: 0cba 85be 5fef 19be 2468 443d 9fb7 97bd
000002f0: db88 973d df19 a23d 2346 12be 1141 733e
00000300: a8ea 9f3d eeeb 683e dc56 39be 84f5 4b3d
00000310: 890e 87bd 52b5 81bd 4144 103e 683c 073e
00000320: b498 d23d b442 3e3e adae 193e 07c6 febd
00000330: 568c 13be cc8d 8ebe 4e48 67be d4a1 cfbd
00000340: 32bf ac3d 75d9 da3d d1ff babd a518 1dbe
00000350: c8c1 783e f7cb 363e ed6c 6ebe 755c 19be
00000360: 11d3 ac3d 014d 5ebe 7752 0a3e fccd 13be
00000370: 0bcf ffbb d7c8 c7bd 317b 6dbe 2a6f 213e
00000380: b0e2 b2bc c1eb 0f3e 7d58 5bbe 0160 30bd
00000390: db0b 73be f732 153e f16a 6a3c 7759 01be
000003a0: 0159 833e 07ab 2abe 6319 623e d1a8 833d
000003b0: 5cab b53d 5730 61be de2c 683e 69f4 62be
000003c0: 5e9a 1e3e 48d3 603e 5189 e6bb e7b4 8ebe
000003d0: 02fe 84ba bbff 17be 299d 473d ec24 d03b
000003e0: 128f 42be ac47 38be dea9 d8bc 7286 59be
000003f0: 0dd1 fe3d 55be b2be 45e6 9ebd 2299 d1be

layers.1.lin_r.weight f4 [16, 16]
-0.22930449 -0.15963382 -0.18581672 0.22240672 0.12365788 0.048839703 -0.07310221 0.10618855
-0.16982092 -0.20843866 -0.041909374 -0.2419793 0.05660527 0.06620899 -0.17509525 0.12786676
0.06949211 0.112692595 -0.12809862 0.0831614 0.2391307 0.23364757 -0.088310145 -0.028210673
-0.010597393 0.02422953 0.19012176 0.2484162 -0.18517718 0.17378856 0.22172791 0.15856811
0.05714105 -0.12661605 0.26203868 0.114019305 -0.17890167 0.28819445 -0.09022405 -0.25267768
0.4125281 -0.060142163 -0.09740645 -0.032013617 -0.07205847 0.044433348 0.091931276 -0.035270136
0.08533828 0.011507081 0.30356303 -0.034885053 -0.18850543 -0.010324034 -0.12552992 -0.16570275
0.14735706 0.033044256 0.2541821 0.11796821 -0.20739992 -0.122458555 -0.011352159 0.05628325
-0.16720068 0.06986099 0.20071489 0.018493542 -0.07819402 -0.1574652 0.0034642103 -0.12580673
-0.101674475 -0.15196508 0.16951142 -0.15020216 0.06130301 -0.12896733 0.26168126 -0.038963944
0.03885227 0.18413536 -0.0077480557 -0.049673166 -0.18618004 0.26294893 0.12454355 0.08611226
-0.027596341 -0.16969053 0.2934479 0.20823556 0.028638475 0.0068252455 0.17802148 -0.27782023
0.0056520454 -0.0701485 0.2809087 -0.09381937 -0.10091669 0.22341892 0.34216404 0.19115485
0.317617 -0.0029672834 0.04872161 -0.050646998 -0.06730546 -0.20828155 0.16414125 0.11804471
0.23002969 -0.2443084 -0.10598569 -0.114123106 0.15309998 0.09005109 0.32508135 -0.18402532
-0.055108365 0.19156006 0.018470306 0.22185135 0.24524519 0.0409992 0.05112124 0.17507362
0.020530296 0.30474266 -0.08795727 -0.18572506 0.2152361 0.09129134 -0.2428496 0.09009709
-0.072885685 -0.0781366 -0.040225472 -0.34584868 0.09351674 -0.059575163 -0.09015389 -0.05974037
-0.11476906 0.14435336 -0.008532053 0.10445606 -0.03699238 -0.0004280012 -0.26466915 0.14298211
0.043481436 0.085095465 0.01734659 0.0017410552 -0.116212614 -0.2400039 -0.18700172 -0.11669757
0.14166015 0.09689296 0.08272364 -0.22395971 0.10989664 0.04484093 0.13710119 -0.046377935
-0.21768567 -0.12711549 0.18193199 -0.3372893 -0.007798444 0.18593438 0.15977575 -0.09260115
0.19897404 -0.019524876 -0.10742378 0.029107848 0.19767216 -0.16906336 -0.01327169 0.10131589
-0.11769901 0.18319681 0.2606112 0.2971287 0.05651407 -0.20604946 0.07380132 0.08708004
0.25570834 0.13437316 0.1204434 0.06204473 -0.06164186 -0.07258133 -0.14087772 0.13855778
-0.02659005 0.11854741 -0.23118445 -0.047971483 0.17100419 -0.19879737 -0.12226515 0.23300645
0.25291088 0.18488607 0.24087618 0.21060547 -0.024485786 -0.1030931 0.08924191 0.10629261
0.065784596 -0.23229876 -0.18190812 -0.049662463 0.07948512 -0.28545508 0.20072801 0.20484325
0.12985823 -0.23471668 -0.03181772 -0.1541188 0.0878117 -0.08536273 -0.20833941 0.019698583
0.2444981 -0.16293603 0.2223385 -0.13296303 -0.14265938 -0.2037693 0.1465126 0.08000073
0.3044049 -0.054392096 -0.11659206 -0.13191977 0.19962293 -0.30252016 -0.024063606 0.19354497
-0.08092911 -0.28827527 -0.14156723 0.0081351 -0.1988032 0.018824583 -0.1026514 -0.11734813
00000000: ccce 6abe 0c77 23be bd46 3ebe 96be 633e
00000010: 5840 fd3d 240c 483d 9db6 95bd 6279 d93d
00000020: 89e5 2dbe f270 55be 2aa9 2bbd 6cc9 77be
00000030: edda 673d 9498 873d 2b4c 33be 81ef 023e
00000040: e151 8e3d 60cb e63d 492c 03be 8650 aa3d
00000050: aede 743e 4f41 6f3e f3db b4bd 121a e7bc
00000060: b0a0 2dbc 027d c63c 47af 423e d160 7e3e
00000070: 169f 3dbe a1f5 313e a40c 633e ae5f 223e
00000080: bc0c 6a3d a3a7 01be ef29 863e f482 e93d
00000090: 0032 37be 398e 933e 63c7 b8bd f85e 81be
000000a0: e236 d33e a157 76bd 087d c7bd b620 03bd
000000b0: 6493 93bd beff 353d 7746 bc3d 6b77 10bd
000000c0: d6c5 ae3d 3288 3c3c 9d6c 9b3e a1e3 0ebd
000000d0: 9107 41be 2326 29bc ea8a 00be fbad 29be
000000e0: c5e4 163e 6a59 073d 2824 823e 5199 f13d
000000f0: a560 54be 8dcb fabd 68fe 39bc 4489 663d
00000100: a836 2bbe 4713 8f3d 3488 4d3e c57f 973c
00000110: 3024 a0bd 8f3e 21be ce07 633b 7bd3 00be
00000120: b53a d0bd bc9c 1bbe 6794 2d3e 98ce 19be
00000130: dd18 7b3d 0310 04be 16fb 853e a898 1fbd
00000140: 8f23 1f3d fb8d 3c3e 67e3 fdbb 1776 4bbd
00000150: fba5 3ebe 3ea1 863e b010 ff3d a05b b03d
00000160: b911 e2bc 5bc3 2dbe ce3e 963e b43b 553e
00000170: 3c9b ea3c 4fa6 df3b 434b 363e 743e 8ebe
00000180: cb34 b93b 04aa 8fbd 44d3 8f3e 5f24 c0bd
00000190: 69ad cebd eec7 643e 2030 af3e 19be 433e
000001a0: b29e a23e c176 42bb 5090 473d 3a73 4fbd
000001b0: 72d7 89bd c247 55be a514 283e 6dc1 f13d
000001c0: e78c 6b3e fb2b 7abe 070f d9bd 60b9 e9bd
000001d0: 3ec6 1c3e b56c b83d 1071 a63e 2271 3cbe
000001e0: 4fb9 61bd 5228 443e 0a4f 973c 002d 633e
000001f0: 8e21 7b3e c7ee 273d 8164 513d 8046 333e
00000200: 272f a83c 3b07 9c3e f122 b4bd b62e 3ebe
00000210: da66 5c3e f4f6 ba3d 91ad 78be d384 b83d
00000220: 1745 95bd 1506 a0bd 77c3 24bd 1413 b1be
00000230: b485 bf3d 1605 74bd 9aa2 b8bd 51b2 74bd
00000240: 0a0c ebbd 5ed1 133e 06ca 0bbc 0fed d53d
00000250: 5285 17bd 5965 e0b9 b782 87be e769 123e
00000260: 9719 323d 8846 ae3d 701a 8e3c 1e34 e43a
00000270: e100 eebd 95c3 75be 617d 3fbe 23ff eebd
00000280: 5c0f 113e d16f c63d 036b a93d b255 65be
00000290: 7d11 e13d 1fab 373d 4164 0c3e caf6 3dbd
000002a0: fee8 5ebe 902a 02be 614c 3a3e 2fb1 acbe
000002b0: 178a ffbb 9565 3e3e 419c 233e aca5 bdbd
000002c0: dabf 4b3e a2f2 9fbc 0001 dcbd 9573 ee3c
000002d0: 926a 4a3e f21e 2dbe 8171 59bc b57e cf3d
000002e0: 2e0c f1bd f297 3b3e d56e 853e 4121 983e
000002f0: 4c7b 673d a1fe 52be 2525 973d 0557 b23d
00000300: 34ec 823e 1e99 093e 08ab f63d 9d22 7e3d
00000310: 2d7c 7cbd 85a5 94bd 4042 10be 17e2 0d3e
00000320: 60d3 d9bc fcc8 f23d 9ebb 6cbe bf7d 44bd
00000330: b91b 2f3e 8a91 4bbe 2766 fabd 3e99 6e3e
00000340: 897d 813e c652 3d3e 3fa8 763e f6a8 573e
00000350: 6a96 c8bc 7a22 d3bd 76c4 b63d f1af d93d
00000360: 13ba 863d badf 6dbe 1f46 3abe de6a 4bbd
00000370: 18c9 a23d 2b27 92be a58b 4d3e 6ec2 513e
00000380: 8ef9 043e 9259 70be 4c53 02bd 52d1 1dbe
00000390: 9fd6 b33d a8d2 aebd ed56 55be ec5e a13c
000003a0: b65d 7a3e b4d8 26be b4ac 633e 7627 08be
000003b0: 4d15 12be e6a8 50be 6607 163e 6cd7 a33d
000003c0: f6da 9b3e 3fca 5ebd d1c7 eebd fa15 07be
000003d0: f469 4c3e ece3 9abe 0a21 c5bc a730 463e
000003e0: 29be a5bd d198 93be 00f7 10be 1549 053c
000003f0: 1193 4bbe 0336 9a3c e63a d2bd 3754 f0bd

layers.2.lin_l.weight f4 [32, 16]
0.16354948 -0.1472813 -0.082938455 0.049383942 0.15793826 0.19205786 -0.20271708 0.035253223
-0.16901536 0.13515769 0.10001817 0.15331139 -0.10535044 0.064396 -0.22590551 0.19108535
-0.072822265 0.038746756 -0.31266862 -0.2548738 -0.06145818 -0.30918306 -0.09767219 0.038524963
-0.057382304 -0.16189697 0.43487942 -0.013299547 0.11238518 0.25487766 -0.04824061 0.23830664
-0.21733667 0.135363 0.04401418 0.15646182 0.054825712 0.18048617 0.1907265 0.14823605
0.12252947 -0.044555787 0.10909553 0.07538673 -0.07198117 -0.15923764 -0.22285274 -0.19089095
-0.050565988 -0.085728616 0.023659557 -0.10949454 -0.22265172 -0.027743876 -0.103847295 -0.020842195
-0.203621 0.00802964 -0.042731673 0.03717166 -0.14620373 0.09789398 -0.08443344 0.032318294
-0.08478439 0.25516918 -0.082694955 -0.009953847 0.045804095 0.07674128 -0.21603405 -0.23921806
-0.21500687 0.06762246 0.15528065 0.23533064 0.03845934 -0.13363563 0.26791507 -0.05093452
0.10853373 0.07025407 0.08396041 -0.078655966 -0.03521777 0.15866753 0.089142844 0.07111723
0.10184098 -0.16171691 0.1815637 -0.073114 -0.2383843 0.06265224 -0.03919754 0.21617211
0.040680613 -0.05126898 -0.2336411 -0.06916797 -0.1586245 0.08947882 0.23318449 0.046910957
0.1364814 -0.1964963 -0.20175599 0.20611587 -0.12704344 0.20253809 -0.07515178 -0.050909664
-0.2602089 -0.17362532 0.13706136 -0.15509315 0.0141753815 -0.15639073 0.06292339 -0.08161318
0.20879287 0.07170454 -0.17367478 0.11841359 -0.01618843 0.13194032 -0.121493764 0.09012625
0.13833293 0.18918201 0.22127816 -0.11674402 0.068410635 0.028638834 -0.10672375 -0.20409189
0.09071575 0.073304355 0.2353252 -0.14461206 -0.012070407 -0.22290966 -0.21554418 -0.095907986
-0.05585718 0.0041128695 -0.117785215 0.06972951 0.07824311 -0.0033314228 0.14477488 -0.17975283
-0.036040455 -0.11151743 -0.04704839 0.057316124 0.09212312 -0.08673683 -0.19453374 0.101067066
0.0030368543 -0.07725648 -0.08150992 -0.09805114 0.2465821 0.08382557 0.07424463 -0.1946452
-0.14996892 0.16335143 0.1409674 0.33039427 -0.0056352373 -0.070558585 -0.16786344 0.1573562
-0.017887015 0.05711386 0.04261764 -0.12095141 0.09102038 0.023723446 -0.04244833 0.20470314
-0.10258769 -0.10762444 -0.32829195 -0.1536608 0.124561034 -0.001479214 0.19472879 -0.007146927
0.089821115 -0.13441668 0.2520174 -0.04892428 0.0036141493 0.18541507 0.26705512 -0.18444815
0.025198918 -0.0069357613 0.08884558 -0.25361365 -0.107591785 -0.13658167 -0.15068854 0.1049921
-0.25729394 0.11599633 -0.12399515 -0.077222206 0.07699055 0.22904152 -0.060752947 -0.011796541
0.1667957 0.107647985 0.045661468 0.081691764 0.18076645 -0.08377054 0.06774877 -0.06490316
-0.21108305 0.24450189 0.044504397 0.00094636925 0.06523542 -0.12606367 -0.14083576 0.20900562
0.037569422 0.21417476 -0.05435332 -0.030997314 -0.14869949 0.23166275 0.18633176 0.014709199
0.21717565 0.111848235 -0.19413224 0.23537236 0.21656373 -0.036086865 0.18230824 0.11451874
-0.14900593 0.20921864 -0.20197412 0.10587649 -0.21189465 0.12988546 0.20156844 0.15829895
00000000: 8479 273e e9d0 16be a3db a9bd d146 4a3d
00000010: 91ba 213e d1aa 443e 1195 4fbe af65 103d
00000020: 5d12 2dbe c766 0a3e 54d6 cc3d a9fd 1c3e
00000030: f9c1 d7bd 0de2 833d c653 67be e1ab 433e
00000040: d723 95bd ebb4 1e3d 1a16 a0be d27e 82be
00000050: 93bb 7bbd 3e4d 9ebe 5b08 c8bd 5acc 1d3d
00000060: b509 6bbd 52c8 25be 84a8 de3e 58e6 59bc
00000070: 342a e63d 537f 823e f297 45bd a806 743e
00000080: 818d 5ebe 999c 0a3e 3648 343d 8737 203e
00000090: ed90 603d 5ed1 383e cf4d 433e 31cb 173e
000000a0: bbf0 fa3d 2180 36bd 7a6d df3d 5c64 9a3d
000000b0: dd6a 93bd 310f 23be 8233 64be eb78 43be
000000c0: 481e 4fbd 7c92 afbd b0d1 c13c ac3e e0bd
000000d0: d0fe 63be 2047 e3bc e4ad d4bd 40bd aabc
000000e0: 0682 50be c08e 033c 6807 2fbd 5041 183d
000000f0: 6eb6 15be a47c c83d 70eb acbd 3060 043d
00000100: 70a3 adbd 89a5 823e f95b a9bd 7615 23bc
00000110: 139d 3b3d 882a 9d3d 0838 5dbe 94f5 74be
00000120: c32a 5cbe a57d 8a3d e401 1f3e 84fa 703e
00000130: 8a87 1d3d c7d7 08be 2a2c 893e b7a0 50bd
00000140: ef46 de3d 5ee1 8f3d 6ff3 ab3d 6116 a1bd
00000150: 8240 10bd be79 223e 8690 b63d e9a5 913d
00000160: 0192 d03d 1e99 25be d6eb 393e cbbc 95bd
00000170: 041b 74be d14f 803d 9a8d 20bd 395c 5d3e
00000180: b7a0 263d 6cff 51bd 9d3f 6fbe f0a7 8dbd
00000190: 766e 22be ac40 b73d eac7 6e3e b425 403d
000001a0: c8c1 0b3e 5336 49be 1f99 4ebe 0a10 533e
000001b0: ad17 02be 2566 4f3e 2de9 99bd a786 50bd
000001c0: 1a3a 85be d6ca 31be d059 0c3e bdd0 1ebe
000001d0: dc3f 683c e424 20be fadd 803d d024 a7bd
000001e0: cccd 553e d4d9 923d cdd7 31be d382 f23d
000001f0: 999d 84bc 5d1b 073e b9d1 f8bd 1d94 b83d
00000200: 26a7 0d3e eeb8 413e be96 623e 7d17 efbd
00000210: e01a 8c3d fd9b ea3c fb91 dabd 77fd 50be
00000220: 2ec9 b93d 9820 963d 17f9 703e 2f15 14be
00000230: f5c2 45bc 6e42 64be 9db7 5cbe 686b c4bd
00000240: 80ca 64bd 40c5 863b 6039 f1bd 58ce 8e3d
00000250: ec3d a03d 0054 5abb de3f 143e 2011 38be
00000260: 289f 13bd 4063 e4bd d0b5 40bd 50c4 6a3d
00000270: 0cab bc3d 14a3 b1bd da33 47be 40fc ce3d
00000280: f605 473b a538 9ebd acee a6bd 09cf c8bd
00000290: 0580 7c3e beac ab3d 920d 983d 1251 47be
000002a0: 7491 19be 9945 273e c259 103e 7029 a93e
000002b0: cca7 b8bb 0581 90bd 65e4 2bbe fc21 213e
000002c0: ca87 92bc 39f0 693d d68f 2e3d 5fb5 f7bd
000002d0: e568 ba3d ac57 c23c 4dde 2dbd b39d 513e
000002e0: 7f19 d2bd 346a dcbd e215 a8be 4259 1dbe
000002f0: db19 ff3d 30e2 c1ba fc66 473e c530 eabb
00000300: 22f4 b73d 87a4 09be 6d08 813e d364 48bd
00000310: 5ddb 6c3b 73dd 3d3e 73bb 883e fadf 3cbe
00000320: f66d ce3c 6245 e3bb acf4 b53d a6d9 81be
00000330: 1559 dcbd 11dc 0bbe 194e 1abe 1906 d73d
00000340: 08bc 83be 7c8f ed3d 2bf1 fdbd ad26 9ebd
00000350: 39ad 9d3d dc89 6a3e 15d8 78bd 4746 41bc
00000360: 7ecc 2a3e 8c76 dc3d 8507 3b3d 034e a73d
00000370: d71a 393e e48f abbd debf 8a3d f3eb 84bd
00000380: 2826 58be b45e 7a3e 3e4a 363d c415 783a
00000390: 269a 853d d616 01be 4037 10be 9205 563e
000003a0: 65e2 193d a150 5b3e 96a1 5ebd 14ee fdbc
000003b0: ae44 18be 0039 6d3e c1cd 3e3e dafe 703c
000003c0: 4b63 5e3e b010 e53d 9aca 46be 7405 713e
000003d0: e2c2 5d3e d2cf 13bd 03af 3a3e cd88 ea3d
000003e0: 0395 18be 693d 563e 4ed2 4ebe c6d5 d83d
000003f0: e9fa 58be b200 053e f567 4e3e 1f19 223e

layers.2.lin_r.weight f4 [32, 16]
0.10615417 0.013935299 0.22973931 -0.025479931 -0.2747398 -0.04701733 0.03221811 -0.1572211
0.12152445 0.20595595 0.020461539 -0.017845657 -0.121247314 -0.19766651 -0.21513318 -0.1404908
-0.328135 0.25958773 0.1772299 -0.16549073 -0.031229533 -0.27809185 0.10223405 -0.07402971
0.0054685823 -0.05135636 0.03608518 0.07411437 0.035234585 0.26897612 0.09073999 0.3274034
0.071084276 -0.06783961 0.13649246 0.19525787 -0.01881314 -0.086589605 0.26237455 0.18117587
-0.08930971 -0.13271311 -0.14920117 -0.042956118 0.028827349 0.14231932 0.17310601 -0.052324623
-0.17974162 -0.12013966 0.15728539 -0.08523765 -0.17875007 -0.06026888 0.2325424 -0.18590888
0.03883776 -0.11863917 -0.22622335 0.040498316 0.13290334 0.10072175 -0.21650168 0.021388948
0.09442478 -0.022460243 0.10540573 -0.13378279 0.06221385 -0.20424177 0.20635329 0.1856459
0.12722147 0.03947288 0.2812515 0.11506264 0.12053738 -0.1527171 0.168874 0.09318459
0.0013127915 0.018524129 -0.04363463 -0.06842465 -0.1929807 0.09483096 -0.07903247 0.26132116
-0.21753134 -0.24545309 0.015007772 -0.2667441 0.018673321 -0.01001424 0.13595933 0.3540124
-0.027036833 -0.11748609 0.1422466 -0.13092312 -0.10023054 -0.044703443 0.11408183 0.17399238
-0.23732744 0.032955732 -0.15292521 -0.1908901 0.0829108 -0.03566933 0.028904686 -0.21470508
-0.054649733 0.23561473 -0.16418919 0.010713372 0.31190467 0.23373999 -0.10806958 0.11377913
0.02021322 0.030794922 0.45710403 -0.15201397 -0.32362816 -0.050691463 0.042485878 0.118505746
0.14441597 0.13673186 -0.17800802 -0.076376766 -0.0907352 0.052342974 -0.06855737 -0.1526754
0.008209957 0.22146297 -0.20597465 -0.02348674 -0.11446058 -0.16976236 -0.08678044 -0.27142304
-0.07283044 -0.204068 0.12900102 -0.0010412931 0.14861181 -0.22711161 -0.16416717 0.094769806
-0.05648765 -0.026277125 -0.15346318 0.06600249 -0.06187725 0.092776924 -0.029301077 0.21098903
0.10924223 -0.06531643 -0.21997918 0.14561445 0.018356947 0.1350547 0.14554365 -0.26265684
0.28114697 0.054497812 0.26790425 0.1724259 0.10260444 -0.024911933 -0.22616345 0.40671685
0.13059825 -0.08109679 0.2668476 -0.15031922 0.0736876 -0.20487729 0.09958475 -0.10324465
0.14162013 -0.11227762 0.07974502 -0.027358418 -0.0873643 0.055804696 0.14159784 -0.045879442
0.13675666 -0.013024201 0.09513868 -0.13105921 0.18910295 0.19042863 -0.18552618 -0.029452132
0.17322959 -0.2178615 -0.12726828 -0.12458099 -0.020828005 -0.047281384 0.18400735 0.18812056
0.1550263 0.18963243 0.08951338 -0.03794087 -0.0071814624 -0.20473759 -0.020032972 -0.15865995
0.20494035 -0.24400328 0.16534604 0.16259132 0.2131314 -0.041150607 0.23911197 0.36329913
-0.0698061 0.08820391 0.039440032 0.14673567 -0.045330424 0.23904327 0.078394376 -0.06103795
-0.19876145 -0.18087424 0.06704991 0.007164802 -0.051448163 -0.11233337 0.13164032 0.12343992
0.21056944 -0.03301196 0.15105289 -0.1694603 -0.12947337 -0.12124094 -0.07274488 0.09042668
-0.094840914 -0.17301707 0.14639488 -0.049154203 -0.037500165 -0.058447395 -0.1355252 -0.29159716
00000000: 5c67 d93d e150 643c c840 6b3e 4abb d0bc
00000010: b2aa 8cbe 3e95 40bd 23f7 033d 91fe 20be
00000020: d0e1 f83d 1ee6 523e f59e a73c 0e31 92bc
00000030: 8350 f8bd 1769 4abe df4b 5cbe d2dc 0fbe
00000040: 5001 a8be afe8 843e c17b 353e 6776 29be
00000050: 14d5 ffbc 0e62 8ebe 1660 d13d e39c 97bd
00000060: cb31 b33b 0c5b 52bd 0ece 133d 46c9 973d
00000070: 2452 103d 3db7 893e e3d5 b93d 6ba1 a73e
00000080: a294 913d 7eef 8abd aec4 0b3e aef1 473e
00000090: 041e 9abc e455 b1bd f555 863e 2b86 393e
000000a0: 02e8 b6bd f2e5 07be 31c8 18be c1f2 2fbd
000000b0: 5527 ec3c 28bc 113e b442 313e 5852 56bd
000000c0: 300e 38be c80b f6bd 6c0f 213e 1491 aebd
000000d0: 420a 37be 80dc 76bd 981f 6e3e e65e 3ebe
000000e0: 5814 1f3d 18f9 f2bd 18a7 67be 90e1 253d
000000f0: d017 083e 3447 ce3d 9eb2 5dbe e037 af3c
00000100: c761 c13d 8bfe b7bc f6de d73d 5bfe 08be
00000110: f3d3 7e3d c124 51be 474e 533e f519 3e3e
00000120: 5846 023e 51ae 213d 3200 903e f6a5 eb3d
00000130: 4ddc f63d df61 1cbe 4eed 2c3e 90d7 be3d
00000140: f911 ac3a eabf 973c 3aba 32bd 3922 8cbd
00000150: bc9c 45be bc36 c23d c7db a1bd e3cb 853e
00000160: 89c0 5ebe 0e58 7bbe 28e3 753c af92 88be
00000170: cbf8 983c c412 24bc ec38 0b3e 1d41 b53e
00000180: 597c ddbc 8c9c f0bd 18a9 113e b610 06be
00000190: ab45 cdbd f51a 37bd bca3 e93d 0f2b 323e
000001a0: f705 73be 97fc 063d 6d98 1cbe b278 43be
000001b0: 23cd a93d 011a 12bd 85c9 ec3c a6db 5bbe
000001c0: 66d8 5fbd fd44 713e 3621 28be 2487 2f3c
000001d0: f8b1 9f3e 8959 6f3e 9553 ddbd 0805 e93d
000001e0: 3296 a53c a245 fc3c 8a09 ea3e 8da9 1bbe
000001f0: 97b2 a5be daa1 4fbd ac05 2e3d 24b3 f23d
00000200: c8e1 133e 7003 0c3e bc47 36be 6c6b 9cbd
00000210: 60d3 b9bd 9665 563d ce67 8cbd f156 1cbe
00000220: 0e83 063c 30c7 623e 05eb 52be 4467 c0bc
00000230: 4f6a eabd 2fd6 2dbe f1b9 b1bd f6f7 8abe
00000240: 2028 95bd 34f7 50be d818 043e 007c 88ba
00000250: b22d 183e f28f 68be 701b 28be ac16 c23d
00000260: 985f 67bd 2043 d7bc 7425 1dbe 502c 873d
00000270: 0073 7dbd d401 be3d d008 f0bc 820d 583e
00000280: 64ba df3d 9fc4 85bd 3942 61be f41b 153e
00000290: 4f61 963c c74b 0a3e 6509 153e f57a 86be
000002a0: 7ff2 8f3e 1939 5f3d bf2a 893e 6a90 303e
000002b0: 4722 d23d 1c14 ccbc 6497 67be 313d d03e
000002c0: 8cbb 053e 1316 a6bd 40a0 883e 48ed 19be
000002d0: 86e9 963d 5acb 51be 17f3 cb3d ee71 d3bd
000002e0: de04 113e cff1 e5bd 5b51 a33d c31e e0bc
000002f0: 0eec b2bd 7793 643d 06ff 103e 15ec 3bbd
00000300: f009 0c3e 7563 55bc 11d8 c23d 6334 06be
00000310: 34a4 413e b9ff 423e 93fa 3dbe 9945 f1bc
00000320: 1963 313e 1617 5fbe 9e52 02be 5124 ffbd
00000330: 7e9f aabc 20aa 41bd 6c6c 3c3e ada2 403e
00000340: 37bf 1e3e 012f 423e ca52 b73d e367 1bbd
00000350: 7952 ebbb bba6 51be 301c a4bc c177 22be
00000360: e2db 513e ffdb 79be 7950 293e 577e 263e
00000370: 1e3f 5a3e 8a8d 28bd c5d9 743e 5802 ba3e
00000380: 80f6 8ebd 40a4 b43d df8b 213d e041 163e
00000390: 65ac 39bd c2c7 743e 3b8d a03d ee02 7abd
000003a0: 1f88 4bbe 1937 39be 7751 893d b7c6 ea3b
000003b0: 4fbb 52bd 0a0f e6bd b8cc 063e 12ce fc3d
000003c0: 849f 573e 8d37 07bd 9cad 1a3e 0087 2dbe
000003d0: ab94 04be 2c4d f8bd 45fb 94bd a031 b93d
000003e0: f43b c2bd 632b 31be 8ae8 153e eb55 49bd
000003f0: c699 19bd 8966 6fbd 1ec7 0abe 394c 95be

fc11.weight f4 [16, 32]
0.022289567 -0.07648524 0.15949266 -0.10568383 -0.015460358 0.12300327 -0.0982007 -0.19458674
0.053742934 0.07120731 -0.2306446 0.0018789603 0.09670219 0.006702511 0.052795414 0.026508132
0.06057225 0.08592253 0.14536269 0.050197795 -0.1100674 -0.21551946 -0.0090591675 0.1497247
-0.090083435 -0.21545343 0.12585284 0.036747683 0.06351465 -0.20869377 0.15939146 0.06828176
0.11213187 0.11879677 0.022991989 0.033705022 0.15056162 -0.09866443 0.14875682 -0.17075586
-0.017885923 -0.09857294 -0.16346428 -0.064863876 0.1074698 0.044971637 -0.088337325 -0.13026458
-0.16606754 -0.15811266 0.01841537 -0.1028495 -0.07314252 0.055007074 0.008810102 -0.04224956
0.061785046 0.16338402 0.04079683 0.0513913 -0.01570754 -0.15189485 0.103645876 0.08634905
0.07329507 0.17142263 -0.1331473 0.13775706 0.17392862 0.041037217 0.023173654 0.21313925
0.17131492 -0.13930479 0.06595732 -0.12164 -0.13474582 0.18241958 0.14610994 0.103443176
0.09544972 0.11460925 0.09736024 -0.19177207 0.02553986 0.14060432 0.078575924 -0.17905585
0.08097312 0.13684262 -0.09160868 -0.0014730574 0.058690898 0.07642661 0.13688645 -0.03734811
-0.1622042 -0.20194279 0.11682586 0.0041276515 -0.19176278 -0.21651776 0.02920815 0.021757925
0.1008631 -0.17102523 -0.06981826 -0.17319392 -0.19780958 -0.19733725 -0.13282156 -0.17844065
0.10014345 0.056458883 -0.025693063 0.03438888 -0.026269954 0.037871953 0.039386936 -0.061488435
-0.16511655 -0.024059162 0.124598 -0.06306343 0.10209134 -0.017732035 -0.1274257 -0.07953739
0.07295763 0.25991234 -0.11005793 0.07092206 0.010723005 0.06724569 0.02278716 0.29316464
-0.059645392 0.0638977 0.089346066 0.07264958 -0.09902322 0.11068186 -0.086240225 -0.1482054
0.24274723 0.09748498 0.36402577 0.022626879 -0.012956966 0.17996822 0.035753746 -0.22780249
0.1822834 0.04837235 0.22195232 -0.008192412 -0.051686447 0.30726284 0.04501509 0.29604077
-0.14132743 -0.10231778 0.16702929 -0.10249306 0.05506708 0.012760603 -0.010035412 -0.22202122
-0.16125374 -0.08345146 -0.012765967 0.18716396 -0.07916361 -0.06393292 0.1784071 0.018699033
-0.09974462 0.17193435 0.15333118 0.23224102 0.11582631 -0.1340348 -0.024674714 0.2152587
-0.16827483 -0.18977712 0.1099382 0.09885066 -0.06921077 -0.092150055 -0.012135274 -0.11761357
-0.046271373 0.118653595 -0.098957404 -0.14834194 -0.15577468 0.016003963 -0.037031632 -0.13656822
-0.15816781 -0.011831821 -0.032903768 -0.069591306 0.06976798 -0.14098717 0.07729826 0.16324665
-0.2049891 0.019618059 0.036918893 0.008534667 -0.121256046 -0.20981906 -0.091035 -0.2011405
-0.0215711 -0.17268994 -0.00047581174 -0.0056315516 -0.03120179 0.111719646 0.039464988 0.057784017
-0.08130255 0.1348816 -0.15469882 0.07424538 -0.16335188 -0.12765676 -0.15519877 -0.12540925
0.033240914 -0.11593106 -0.110728085 0.043574225 0.0148289995 0.09839751 -0.021538392 -0.011960528
-0.16808231 -0.10899813 0.09585036 -0.042443555 0.11974231 0.1258517 -0.05244062 -0.15058109
0.04344775 0.12411479 -0.1700155 0.047575857 -0.06934855 0.07365685 0.1606654 0.03132986
00000000: 9c98 b63c 4ba4 9cbd 0b52 233e c470 d8bd
00000010: 714d 7dbc 23e9 fb3d 731d c9bd bf41 47be
00000020: 8d21 5c3d 23d5 913d 192e 6cbe 7247 f63a
00000030: cc0b c63d bda0 db3b 0140 583d 9527 d93c
00000040: 9c1a 783d 27f8 af3d f5d9 143e 349c 4d3d
00000050: 046b e1bd 22b1 5cbe e76c 14bc 6f51 193e
00000060: aa7d b8bd d39f 5cbe 91df 003e bd84 163d
00000070: f813 823d d2b3 55be 8437 233e 4fd7 8b3d
00000080: 65a5 e53d b94b f33d b259 bc3c 470e 0a3d
00000090: d32c 1a3e 9410 cabd b553 183e a0da 2ebe
000000a0: 8085 92bc 9ce0 c9bd 2e63 27be 5ad7 84bd
000000b0: 2019 dc3d 2e34 383d 33ea b4bd 1464 05be
000000c0: 9c0d 2abe 49e8 21be d4db 963c c2a2 d2bd
000000d0: bfcb 95bd 194f 613d 3f58 103c e00d 2dbd
000000e0: 5112 7d3d 244e 273e 941a 273d af7f 523d
000000f0: 19ad 80bc 538a 1bbe 4a44 d43d c5d7 b03d
00000100: ba1b 963d 6a89 2f3e c457 08be 3010 0d3e
00000110: 581a 323e a416 283d add6 bd3c 2d41 5a3e
00000120: 2e6d 2f3e eaa5 0ebe a214 873d 641e f9bd
00000130: cffa 09be 33cc 3a3e d89d 153e 04da d33d
00000140: 257b c33d 41b8 ea3d ce64 c73d e65f 44be
00000150: f838 d13c 94fa 0f3e 6aec a03d 6b5a 37be
00000160: 3cd5 a53d 7920 0c3e 559d bbbd 9b13 c1ba
00000170: de65 703d 8e85 9c3d f62b 0c3e 55fa 18bd
00000180: dc18 26be 17ca 4ebe 6642 ef3d 4041 873b
00000190: 765d 44be d5b6 5dbe ee45 ef3c ad3d b23c
000001a0: 5091 ce3d 3d21 2fbe e0fc 8ebd bf59 31be
000001b0: 988e 4abe c712 4abe 6002 08be 25b9 36be
000001c0: 0218 cd3d 6e41 673d 427a d2bc 5bdb 0c3d
000001d0: 1634 d7bc 9f1f 1b3d 3254 213d 4cdb 7bbd
000001e0: 5014 29be b817 c5bc 3c2d ff3d 6627 81bd
000001f0: 4415 d13d c642 91bc e27b 02be 80e4 a2bd
00000200: cf6a 953d 3b13 853e 0d66 e1bd 963f 913d
00000210: 8baf 2f3c 1cb8 893d 23ac ba3c ad19 963e
00000220: ba4e 74bd ccdc 823d 12fb b63d 4ec9 943d
00000230: b0cc cabd 2cad e23d b79e b0bd 28c3 17be
00000240: bb92 783e 35a6 c73d 9661 ba3e 015c b93c
00000250: 7449 54bc 9749 383e 8572 123d 0e45 69be
00000260: 80a8 3a3e 1622 463d 7847 633e 7739 06bc
00000270: 2bb5 53bd 8e51 9d3e be61 383d a892 973e
00000280: 23b8 10be fc8b d1bd ba09 2b3e e2e7 d1bd
00000290: 058e 613d d911 513c 926b 24bc 8859 63be
000002a0: b31f 25be 99e8 aabd 5928 51bc e9a7 3f3e
000002b0: 8820 a2bd 43ef 82bd 5ab0 363e b72e 993c
000002c0: e846 ccbd 8f0f 303e d902 1d3e 97d0 6d3e
000002d0: 5836 ed3d 6b40 09be a022 cabc c76c 5c3e
000002e0: 3d50 2cbe ef54 42be 4727 e13d 3772 ca3d
000002f0: 60be 8dbd 2bb9 bcbd 07d3 46bc 62df f0bd
00000300: 0d87 3dbd a800 f33d 2eaa cabd f3e6 17be
00000310: 6683 1fbe be1a 833c 7bae 17bd 8ad8 0bbe
00000320: bef6 21be 41da 41bc 1ac6 06bd e385 8ebd
00000330: 84e2 8e3d f15e 10be 8d4e 9e3d 212a 273e
00000340: aae8 51be 0db6 a03c 4438 173d fdd4 0b3c
00000350: 1755 f8bd cfda 56be 8f70 babd c6f7 4dbe
00000360: e0b5 b0bc a2d5 30be 5f76 f9b9 e188 b8bb
00000370: e59a ffbc 45cd e43d 0aa6 213d efae 6c3d
00000380: f481 a6bd 671e 0a3e 5e69 1ebe f60d 983d
00000390: b745 27be 74b8 02be 6dec 1ebe 486b 00be
000003a0: a027 083d 436d edbd 68c5 e2bd e37a 323d
000003b0: 55f5 723c a284 c93d 4871 b0bc 17f6 43bc
000003c0: c51d 2cbe 693a dfbd 324d c43d 4bd9 2dbd
000003d0: 753b f53d 45df 003e facb 56bd ee31 1abe
000003e0: 45f6 313d e52f fe3d 8b18 2ebe e7de 423d
000003f0: 9d06 8ebd 67d9 963d 7885 243e bd53 003d

fc11.bias f4 [16]
0.027476752 -0.081648335 0.21507531 0.07028444 0.24849506 -0.08493948 0.08670886 -0.044826426
0.28652692 -0.03725934 -0.012586545 -0.21569808 0.09782897 -0.007968051 -0.13538463 0.028967697
00000000: ed16 e13c 3e37 a7bd b43c 5c3e 4af1 8f3d
00000010: 7d75 7e3e c0f4 adbd 6a94 b13d ea9b 37bd
00000020: a8b3 923e 409d 18bd cc37 4ebc f5df 5cbe
00000030: 8e5a c83d 6e8c 02bc 45a2 0abe aa4d ed3c

fc12.weight f4 [1, 16]
0.2521954 0.17161654 -0.10482815 0.19278465 -0.26219505 0.16661377 0.062306378 0.13340427
-0.18267396 0.025434457 0.2394548 0.14614058 -0.2173696 0.02547574 0.24565698 -0.24455172
00000000: c11f 813e 3fbc 2f3e 24b0 d6bd 5769 453e
00000010: 6e3e 86be cd9c 2a3e f934 7f3d 219b 083e
00000020: e20e 3bbe ec5b d03c a433 753e e0a5 153e
00000030: 2396 5ebe 80b2 d03c 818d 7b3e c46b 7abe
