trained_models/2022-09-16_21:20:37-GraphSAGE_16_3/base_model.pt (torch, 13063 bytes, 9 tensors)

layers.0.lin_l.weight f4 [16, 14]
0.19169036 0.09126923 0.07208603 -0.025530994 0.04912067 -0.099403866 -0.0074624107 0.22835147
0.054499544 -0.108228974 0.31910402 0.025965907 0.12525804 0.19907232 -0.046986163 -0.11432037
-0.21475397 -0.30709887 0.05886413 -0.010899038 0.017461106 0.22167295 0.02394968 0.1659315
-0.06507177 0.03630577 0.025089033 0.07762984 0.18733132 -0.14056695 0.2941001 -0.21779086
0.23441954 0.10914546 -0.09403393 -0.044804662 0.15449099 0.21699542 -0.14751299 -0.030290274
0.18810429 -0.23136267 -0.0010560583 0.16801201 0.22768663 -0.20876564 0.0939691 0.28592038
-0.1559497 0.042934608 -0.29947838 -0.13107179 0.011596461 -0.16924404 -0.14076045 -0.25637385
0.19585404 0.2692997 -0.03100954 0.0022857592 -0.21745233 0.090185344 0.17595778 0.26508287
0.12966168 -0.2348351 -0.049320344 0.012130294 0.23919667 -0.18031377 0.016409837 0.1306293
0.21282472 0.11638931 0.07223852 -0.08678699 0.03789362 -0.09924507 -0.035259023 -0.12869158
-0.17240724 0.12502642 0.056416433 -0.12439166 0.2174578 -0.1027602 -0.0836292 0.12469314
0.09333891 -0.042474218 0.08274274 0.13818318 0.13520227 0.069427915 -0.010235481 0.19356264
-0.030854246 -0.19115013 -0.18489918 -0.05284834 0.2662226 0.044478588 0.043145735 0.030384341
-0.18041903 0.10742978 -0.049348675 0.0644252 0.08786786 -0.18577513 -0.09794334 -0.01477996
0.18283893 0.19550367 -0.21162868 -0.04362373 -0.176397 0.18511662 0.054879174 0.18447001
-0.18278702 0.078725226 -0.14786851 0.071727104 -0.2913335 0.12083229 0.21798044 -0.02739215
0.036220435 0.38295913 0.21332397 0.1824964 -0.072606534 -0.0260983 -0.09811822 0.18818264
-0.07766911 0.037874263 0.21935962 0.009873358 0.013277313 0.52430373 0.02449652 -0.24237032
-0.10305118 -0.1365286 -0.02776186 -0.07887185 0.22612937 -0.09886496 0.12494175 0.24755439
0.10411049 0.23610558 0.03186164 -0.064122885 0.16411509 0.2620632 -0.04058425 -0.26298636
0.022551022 -0.10883672 -0.15847684 -0.24140583 -0.041392818 0.13490628 -0.17540923 0.25651008
-0.16272286 0.056311414 -0.21108367 0.30754742 0.13953702 -0.21392229 0.047012564 -0.2160295
-0.038553286 0.15401736 0.16973986 0.16807568 -0.25288334 -0.018127238 0.0068741897 -0.3301826
-0.09561305 -0.38243827 -0.017945955 0.25263536 -0.064958386 -0.11610677 -0.09857525 -0.25478613
0.039621707 -0.2716742 -0.16067117 0.10802768 0.08485451 0.27968964 -0.2471844 0.043755572
-0.1404986 -0.13461868 -0.1219032 0.13675514 0.05295665 0.20997947 0.3077724 -0.22420967
0.025024734 0.052469347 -0.061287075 0.1539956 -0.24772203 0.09030592 0.1485615 0.14613324
0.032904774 -0.031001905 0.0046401653 0.19375372 -0.023561465 0.060277104 -0.114801444 0.0453457
00000000: 7a4a 443e 5deb ba3d d7a1 933d 6026 d1bc
00000010: c132 493d 4194 cbbd 3d87 f4bb f8d4 693e
00000020: ea3a 5f3d 27a7 ddbd 9a61 a33e 74b6 d43c
00000030: a543 003e 9dd9 4b3e 9074 40bd cc20 eabd
00000040: 77e8 5bbe 103c 9dbe 841b 713d e191 32bc
00000050: 980a 8f3c 3cfe 623e 1f32 c43c f2e9 293e
00000060: 5944 85bd 5cb5 143d 8487 cd3c 65fc 9e3d
00000070: c8d3 3f3e c8f0 0fbe 4a94 963e 9104 5fbe
00000080: ad0b 703e a887 df3d dc94 c0bd 1885 37bd
00000090: e332 1e3e 0c34 5e3e a50d 17be 4f23 f8bc
000000a0: 699e 403e 56ea 6cbe 706b 8aba 570b 2c3e
000000b0: af26 693e a9c6 55be df72 c03d 2864 923e
000000c0: 47b1 1fbe 33dc 2f3d 3b55 99be af37 06be
000000d0: 15ff 3d3c 4f4e 2dbe 8223 10be 6f43 83be
000000e0: f68d 483e a6e1 893e b807 febc adcc 153b
000000f0: d3ab 5ebe 18b3 b83d 472e 343e f1b8 873e
00000100: 08c6 043e 9d78 70be 2104 4abd 24be 463c
00000110: f9ef 743e 2ca4 38be ec6d 863c b0c3 053e
00000120: b9ee 593e 855d ee3d caf1 933d 61bd b1bd
00000130: 5736 1b3d 0041 cbbd c46b 10bd bac7 03be
00000140: 868b 30be ed06 003e eb14 673d 0ec1 febd
00000150: 42ad 5e3e f173 d2bd c945 abbd 1e5f ff3d
00000160: 7828 bf3d 72f9 2dbd 0775 a93d e47f 0d3e
00000170: 7772 0a3e 3930 8e3d b8b2 27bc 4935 463e
00000180: 0bc2 fcbc dcbc 43be 3656 3dbe 8077 58bd
00000190: 544e 883e 2e2f 363d 95b9 303d 95e8 f83c
000001a0: c4bf 38be 2504 dc3d d621 4abd 5cf1 833d
000001b0: 11f4 b33d d63b 3ebe 8596 c8bd a527 72bc
000001c0: 213a 3b3e 1d32 483e 30b5 58be ccae 32bd
000001d0: 6aa1 34be 368f 3d3e fcc8 603d b5e5 3c3e
000001e0: 852c 3bbe b13a a13d d86a 17be a9e5 923d
000001f0: aa29 95be eb76 f73d 4436 5f3e 8165 e0bc
00000200: e15b 143d 3813 c43e 9971 5a3e 56e0 3a3e
00000210: bcb2 94bd 1acc d5bc 35f2 c8bd f3b2 403e
00000220: fb10 9fbd 0b22 1b3d cf9f 603e ddc3 213c
00000230: 1689 593c c538 063f edac c83c ed2f 78be
00000240: 7f0c d3bd 27ce 0bbe d76c e3bc 9187 a1bd
00000250: 758e 673e b679 cabd 76e1 ff3d e67e 7d3e
00000260: e137 d53d a9c5 713e 5a81 023d dc52 83bd
00000270: c90d 283e 262d 863e ac3b 26bd 26a6 86be
00000280: ecbc b83c c9e5 debd c147 22be 1733 77be
00000290: 848b 29bd df24 0a3e 7a9e 33be 4a55 833e
000002a0: d2a0 26be cca6 663d 5126 58be db76 9d3e
000002b0: cbe2 0e3e 720e 5bbe 3f90 403d d636 5dbe
000002c0: 0dea 1dbd bab6 1d3e 49d0 2d3e 081c 2c3e
000002d0: ed79 81be 937f 94bc e240 e13b b20d a9be
000002e0: c6d0 c3bd f3ce c3be 6503 93bc 6c59 813e
000002f0: e708 85bd 63c9 edbd d2e1 c9bd 5473 82be
00000300: 5f4a 223d e118 8bbe fc86 24be 9e3d dd3d
00000310: 34c8 ad3d 7b33 8f3e e81d 7dbe 0b39 333d
00000320: ddde 0fbe 7bd9 09be 63a8 f9bd 8a09 0c3e
00000330: 12e9 583d dc04 573e 5894 9d3e 3897 65be
00000340: ac00 cd3c 19ea 563d 2808 7bbd 06b1 1d3e
00000350: d8aa 7dbe 4ff2 b83d 8120 183e f4a3 153e
00000360: 28c7 063d b5f7 fdbc 870c 983b 6067 463e
00000370: f903 c1bc 20e5 763d 051d ebbd 6abc 393d

layers.0.lin_r.weight f4 [16, 14]
-0.0809126 0.1455398 -0.06749424 0.12193321 0.15424727 0.11660607 0.25719315 0.20926626
0.12796132 -0.06159931 0.303947 -0.21460232 0.17680398 0.107399434 0.10202919 -0.21606705
-0.1098683 0.09775284 0.060384076 -0.01081928 0.08658554 -0.22128777 0.111817084 -0.008405012
0.109307215 -0.011196019 0.09718659 0.21470433 0.21675421 -0.2708665 0.1324747 0.07274155
0.19684747 0.054542135 -0.15170719 -0.03186394 0.11943906 -0.1905215 -0.015173008 0.20480452
-0.12751952 -0.17466684 0.2935948 -0.27271903 0.28654206 -0.0285864 -0.16428776 0.02988527
-0.03265858 0.11943085 -0.16983591 0.08559552 0.18929602 0.03537712 0.034104146 0.2393525
0.22794716 0.16652445 -0.2243585 0.0069363494 -0.11806142 -0.17815462 -0.037380278 0.0069046356
0.25896397 0.07567599 0.21162418 -0.20935002 -0.32394058 -0.13730784 0.17340283 0.17273465
-0.123503484 0.2110598 -0.21259491 -0.011780446 0.2486179 0.023296164 0.17510122 -0.0639208
-0.053554766 0.09562789 0.16331191 0.2275338 0.1297991 -0.06421152 -0.21566336 0.05760481
0.118469775 -0.019772992 0.06291485 -0.2097329 0.06150636 -0.24461152 0.10086405 0.09799239
0.013703738 -0.2538067 0.19569512 -0.26554763 0.1820556 0.13993824 -0.226433 0.046660736
-0.26530898 -0.0676689 0.041506317 -0.15632924 -0.085743554 -0.3036149 -0.12593032 0.17106977
0.15049946 0.40273395 -0.2824406 0.26894066 -0.078617506 0.12576999 -0.18620406 -0.013478404
0.18942766 0.099416934 0.2871299 -0.18388751 -0.124274835 -0.037110265 0.22503503 0.02958709
-0.28613257 0.12707184 0.04240738 -0.0067861006 -0.05677826 -0.13626678 0.22255136 0.19100945
-0.039905023 -0.08376091 -0.18343711 -0.2577822 -0.04198273 -0.1328126 -0.09565678 -0.0062452746
0.054454736 -0.06379174 0.1823475 0.22671151 -0.088373184 0.19894862 -0.27507666 -0.033344265
-0.31661677 0.04052974 -0.23688227 0.3644759 -0.22456966 0.15568307 -0.24254939 0.1691624
0.0039119446 -0.07521673 -0.020106828 -0.045396987 0.20868723 -0.2220813 0.03933529 -0.25673413
-0.13970666 -0.27706748 -0.04836672 0.1721854 0.1367126 0.05285671 0.31653866 0.15735476
-0.016957324 0.21760261 -0.29351842 0.2933126 -0.21100064 -0.057640992 0.29566118 0.05607141
-0.19751206 0.16798215 0.04324364 0.031846415 -0.048323497 -0.32052326 -0.2196 0.043255147
0.009568147 0.14336318 0.008056793 0.18870609 0.19621637 0.016206793 -0.2180673 0.13214312
0.24024229 -0.114911176 0.20862345 -0.095432915 0.030508531 -0.08674473 -0.08586042 -0.10063463
-0.19245432 0.21268757 0.16194785 0.29320294 -0.2965382 -0.07377686 -0.20282708 0.24615224
-0.044156887 -0.043206856 -0.124817915 -0.060798854 -0.030640995 0.09965709 0.29990798 -0.25580657
00000000: 81b5 a5bd 6308 153e 6c3a 8abd 1eb8 f93d
00000010: fff2 1d3e 2acf ee3d d2ae 833e e549 563e
00000020: 4b08 033e 8f4f 7cbd f19e 9b3e b6c0 5bbe
00000030: 1a0c 353e 3cf4 db3d aef4 d03d ae40 5dbe
00000040: a202 e1bd a432 c83d 4b55 773d 5943 31bc
00000050: c253 b13d 4399 62be 5b00 e53d 2db5 09bc
00000060: 76dc df3d 826f 37bc c309 c73d 74db 5b3e
00000070: d1f4 5d3e 04af 8abe 73a7 073e 86f9 943d
00000080: 6292 493e 9367 5f3d 2159 1bbe c383 02bd
00000090: 779c f43d 1118 43be 3598 78bc 47b8 513e
000000a0: 7a94 02be dddb 32be 0f52 963e d4a1 8bbe
000000b0: a4b5 923e 072e eabc 0d3b 28be f4d1 f43c
000000c0: 01c5 05bd 2998 f43d 77e9 2dbe b44c af3d
000000d0: d1d6 413e 99e7 103d cab0 0b3d d218 753e
000000e0: fb6a 693e 6385 2a3e 3cbe 65be 514a e33b
000000f0: 30ca f1bd 2a6e 36be 101c 19bd 4840 e23b
00000100: ed96 843e 03fc 9a3d 02b4 583e da5f 56be
00000110: 8adb a5be 6d9a 0cbe 8390 313e 5ae1 303e
00000120: 65ef fcbd 0f20 583e 7bb2 59be c602 41bc
00000130: b195 7e3e 99d7 be3c bc4d 333e e9e8 82bd
00000140: 3e5c 5bbd 8ed8 c33d 3d3b 273e 9ffe 683e
00000150: 0eea 043e 5481 83bd dbd6 5cbe 05f3 6b3d
00000160: 48a0 f23d f8fa a1bc 80d9 803d 39c4 56be
00000170: 18ee 7b3d 717b 7abe d091 ce3d 3cb0 c83d
00000180: a585 603c f4f2 81be 4d64 483e dcf5 87be
00000190: c96c 3a3e f84b 0f3e 0dde 67be 541f 3f3d
000001a0: 94d6 87be fe95 8abd 8702 2a3d c614 20be
000001b0: 519a afbd 6a73 9bbe e1f3 00be ea2c 2f3e
000001c0: 881c 1a3e 2533 ce3e 0e9c 90be 97b2 893e
000001d0: 3702 a1bd d9c9 003e 47ac 3ebe 86d4 5cbc
000001e0: 53f9 413e 1b9b cb3d b102 933e 024d 3cbe
000001f0: ce83 febd ef00 18bd 956f 663e a060 f23c
00000200: f87f 92be 1f1f 023e 5cb3 2d3d f05d debb
00000210: 5290 68bd 8589 0bbe 81e4 633e fb97 433e
00000220: 7373 23bd d78a abbd f0d6 3bbe 07fc 83be
00000230: 15f6 2bbd 0700 08be b4e7 c3bd 29a5 ccbb
00000240: ee0b 5f3d 3ea5 82bd 4eb9 3a3e 1027 683e
00000250: 00fd b4bd 30b9 4b3e d9d6 8cbe ff93 08bd
00000260: 981b a2be 8302 263d 4491 72be 969c ba3e
00000270: 97f5 65be 626b 1f3e de5e 78be e838 2d3e
00000280: c52f 803b 3b0b 9abd 13b7 a4bc 31f2 39bd
00000290: 1bb2 553e 4869 63be 0b1e 213d a872 83be
000002a0: 430f 0fbe cadb 8dbe 2f1c 46bd 5f51 303e
000002b0: 63fe 0b3e 4780 583d 5b11 a23e 9b21 213e
000002c0: 16ea 8abc 38d3 5e3e 0c48 96be 122d 963e
000002d0: 8d10 58be f618 6cbd e760 973e 23ab 653d
000002e0: 9a40 4abe 8303 2c3e 3e20 313d 6371 023d
000002f0: dcee 45bd a01b a4be d3de 60be 4f2c 313d
00000300: b8c3 1c3c cccd 123e a400 043c 2b3c 413e
00000310: f2ec 483e 1cc4 843c 094d 5fbe 8750 073e
00000320: 1302 763e 8d56 ebbd 63a1 553e 5572 c3bd
00000330: 07ed f93c 39a7 b1bd 96d7 afbd 8719 cebd
00000340: bf12 45be c5ca 593e a8d5 253e b21e 963e
00000350: dbd3 97be 5318 97bd e7b1 4fbe 550f 7c3e
00000360: dadd 34bd acf9 30bd 89a0 ffbd 3808 79bd
00000370: d302 fbbc 0419 cc3d 8a8d 993e 14f9 82be

layers.1.lin_l.weight f4 [16, 16]
-0.08140789 -0.18349336 -0.13139588 0.29308075 -0.24671364 0.17777438 0.12877014 -0.24080968
0.052102055 -0.22681624 -0.025637107 -0.06450791 -0.095781915 -0.1469624 -0.05825873 -0.1634368
0.07732366 -0.19354293 -0.0041702436 0.037019424 0.07547476 0.10109045 0.059168477 0.19819538
0.09397021 0.02994795 -0.044314444 0.26704356 -0.2578241 0.397799 -0.24756832 0.2667086
0.10852591 0.042290885 0.034714688 0.18578522 -0.29985362 0.1591671 -0.32285407 0.10298366
-0.11760722 -0.05888048 -0.027332587 -0.15484785 -0.056521337 0.098842025 0.021286873 -0.017319066
-0.09960617 0.015467562 0.1804228 0.13444108 0.083586484 -0.065519325 0.083642215 0.19364522
0.07122014 -0.15341462 -0.15605618 -0.14360172 0.12963435 0.20766948 0.21680485 -0.16121177
0.20564377 -0.07794733 -0.19512878 -0.22279137 0.17887518 -0.08759335 0.21712118 -0.21928905
0.15840818 0.17896055 0.08689602 0.13756175 0.109236054 -0.24323349 0.09803948 0.012591291
0.018336978 -0.09178484 -0.06656127 -0.12589674 -0.11257724 0.037092295 -0.07367726 0.102658786
0.16361044 -0.1092603 -0.07318777 0.28923824 0.062054496 0.087684624 0.27950165 0.05821065
-0.30007082 -0.013732359 0.03893968 -0.12893839 0.11551519 0.1125303 -0.20780066 0.24654038
0.08155051 -0.027563628 -0.02408606 0.02703775 0.03162447 0.1583821 0.10973774 0.22936107
-0.021919021 0.18287602 0.1871217 0.15978277 -0.07939429 -0.14596908 0.18397498 -0.13051455
0.26512635 0.057376523 0.2608699 0.25423422 0.20498553 -0.121201925 0.09951185 -0.21004783
-0.16643065 -0.13898669 -0.21163093 0.02068061 0.07099702 0.2278808 0.14214918 0.09734169
-0.080084294 0.11681994 0.16297784 0.021826016 0.14530951 -0.08512095 0.09374494 0.235469
0.031532902 0.06540598 -0.2193716 -0.1648046 0.03287622 -0.11453949 -0.1350134 -0.14582692
-0.18763623 -0.11057716 0.19969003 0.21876448 0.08195446 0.09933077 0.0358286 -0.17505756
0.2457076 0.050382484 0.2172425 0.05063016 -0.20198335 -0.18412383 0.18363348 -0.19441183
-0.16148688 -0.21711439 -0.04934824 -0.096046135 -0.07557129 0.101739705 -0.047470264 0.022521337
0.1390028 -0.09802767 -0.04602949 -0.18089195 0.04823964 -0.23001292 0.15720378 0.08411365
0.13733192 -0.22642958 0.099785306 0.3408182 -0.09390002 -0.103012875 -0.11042198 0.11321816
0.24491458 0.088883474 -0.13948718 0.17781341 -0.11450626 -0.1846771 -0.0347481 -0.07125353
-0.10431866 -0.16682583 0.1337995 0.1664891 -0.19133468 -0.045919802 0.07468279 0.05899388
0.1515717 -0.051618233 -0.021121914 -0.12407762 0.15802887 0.053773843 0.15744245 -0.044229086
-0.018811818 -0.10247435 0.17991133 -0.30732265 0.24258645 0.041170236 -0.0951483 -0.2442774
-0.20601453 0.16683948 0.18234484 -0.1567588 0.057806913 -0.18885626 0.097628385 -0.10150745
0.1752243 0.23053606 -0.22799383 -0.027301753 0.11529546 -0.043709643 -0.09110557 0.14915109
0.11051036 0.0446676 -5.3695167e-05 -0.06810309 -0.116208024 -0.20034112 0.14225848 0.1737615
-0.20401078 0.11375626 0.16292961 0.1385531 -0.043680318 -0.017507061 -0.062474474 0.21760689
00000000: 2eb9 a6bd afe5 3bbe a48c 06be ae0e 963e
00000010: 80a2 7cbe 7d0a 363e 52dc 033e d096 76be
00000020: f768 553d 8442 68be e904 d2bc b91c 84bd
00000030: 4f29 c4bd 507d 16be b5a0 6ebd fa5b 27be
00000040: de5b 9e3d 1e30 46be 8aa6 88bb aea1 173d
00000050: 8392 9a3d 8308 cf3d a55a 723d bbf3 4a3e
00000060: 7473 c03d 6755 f53c 1083 35bd efb9 883e
00000070: 8501 84be 4fac cb3e 8d82 7dbe 088e 883e
00000080: d542 de3d 3539 2d3d fd30 0e3d 7b3e 3e3e
00000090: 6a86 99be b3fc 223e 214d a5be 19e9 d23d
000000a0: 0edc f0bd a82c 71bd 97e8 dfbc 6f90 1ebe
000000b0: eb82 67bd b06d ca3d cf61 ae3c b7e0 8dbc
000000c0: 52fe cbbd a86b 7d3c c1c0 383e ecaa 093e
000000d0: 642f ab3d ff2e 86bd 9c4c ab3d ef4a 463e
000000e0: dddb 913d b918 1dbe 31cd 1fbe 540c 13be
000000f0: debe 043e 4fa7 543e 1702 5e3e b314 25be
00000100: 4894 523e daa2 9fbd d7cf 47be 6c23 64be
00000110: 0e2b 373e 2464 b3bd 0455 5e3e 4f8d 60be
00000120: c135 223e 6f41 373e 8af6 b13d fddc 0c3e
00000130: 27b7 df3d 3312 79be ecc8 c83d b44b 4e3c
00000140: 6e37 963c b1f9 bbbd 4651 88bd 13eb 00be
00000150: e58e e6bd 17ee 173d 1ae4 96bd c53e d23d
00000160: 7f89 273e ddc3 dfbd 78e3 95bd 0917 943e
00000170: db2c 7e3d ff93 b33d d71a 8f3e 4a6e 6e3d
00000180: e2a2 99be b0fd 60bc 377f 1f3d 6d08 04be
00000190: 3a93 ec3d 4976 e63d b2c9 54be 1575 7c3e
000001a0: f403 a73d 1ecd e1bc 2150 c5bc 467e dd3c
000001b0: a988 013d eb2e 223e 2ebe e03d a1dd 6a3e
000001c0: 858f b3bc da43 3b3e d59c 3f3e 189e 233e
000001d0: 7999 a2bd eb78 15be f063 3c3e 9ba5 05be
000001e0: a4be 873e a503 6b3d bd90 853e fd2a 823e
000001f0: bae7 513e b738 f8bd decc cb3d c716 57be
00000200: cc6c 2abe 8752 0ebe c7b5 58be 626a a93c
00000210: e366 913d 9659 693e 8e8f 113e 145b c73d
00000220: 3c03 a4bd 4b3f ef3d aae3 263e 79cc b23c
00000230: 04cc 143e e553 aebd 59fd bf3d c91e 713e
00000240: a528 013d 92f3 853d f3a2 60be 89c2 28be
00000250: 37a9 063d ae93 eabd f440 0abe a753 15be
00000260: b623 40be 4776 e2bd 8b7b 4c3e cc03 603e
00000270: bdd7 a73d ee6d cb3d 03c1 123d 4a42 33be
00000280: c69a 7b3e dd5d 4e3d d174 5e3e 9261 4f3d
00000290: b9d4 4ebe f58a 3cbe 6a0a 3c3e e513 47be
000002a0: d15c 25be 3c53 5ebe 6121 4abd d6b3 c4bd
000002b0: 1fc5 9abd e85c d03d 2e70 42bd ab7e b83c
000002c0: c056 0e3e bbc2 c8bd 6b89 3cbd bd3b 39be
000002d0: ee96 453d 8288 6bbe 07fa 203e c743 ac3d
000002e0: bda0 0c3e 28dd 67be 3d5c cc3d b97f ae3e
000002f0: a74e c0bd 6af8 d2bd eb24 e2bd ecde e73d
00000300: e3ca 7a3e 8a08 b63d bad5 0ebe b814 363e
00000310: 4282 eabd fe1b 3dbe 0654 0ebd 5fed 91bd
00000320: 06a5 d5bd 64d4 2abe bc02 093e 1e7c 2a3e
00000330: 3ded 43be 6716 3cbd 4af3 983d 91a3 713d
00000340: 9d35 1b3e a46d 53bd dd07 adbc 681c febd
00000350: 52d2 213e f641 5c3d 9838 213e 8f29 35bd
00000360: 3e1b 9abc 12de d1bd ad3a 383e 6559 9dbe
00000370: 9568 783e 1fa2 283d 1ddd c2bd db23 7abe
00000380: 79f5 52be f8d7 2a3e 9bb8 3a3e 6185 20be
00000390: f1c6 6c3d 8963 41be 64f1 c73d 23e3 cfbd
000003a0: 006e 333e a511 6c3e 3777 69be eda7 dfbc
000003b0: 0720 ec3d e208 33bd 8f95 babd 10bb 183e
000003c0: 4153 e23d 60f5 363d bf36 61b8 a279 8bbd
000003d0: 79fe edbd 3926 4dbe 35ac 113e 89ee 313e
000003e0: 34e8 50be 0bf9 e83d 05d7 263e dde0 0d3e
000003f0: 22ea 32bd f86a 8fbc 3ce5 7fbd 57d4 5e3e

layers.1.lin_r.weight f4 [16, 16]
-0.073795654 0.20030558 0.2308671 -0.11568679 0.056145627 0.19977483 -0.079677634 0.082533725
-0.0028565216 -0.11375986 0.1422394 0.019036418 0.26755214 -0.22622298 0.13160297 0.25613946
0.10244689 -0.13615601 -0.1177707 0.18528904 -0.2177961 -0.19449224 -0.2576845 0.21276085
-0.1545611 0.15882412 0.300244 -0.022087593 0.20406562 0.13808618 0.18114755 -0.15111007
-0.03972902 -0.015090365 0.16603462 0.2823646 -0.2424349 0.02364872 -0.22329196 -0.036692943
-0.07455488 0.085545875 0.1260886 -0.005593112 0.080535084 0.06434162 -0.24330683 0.13306265
0.08266416 0.088156976 0.0040574945 -0.25538012 0.2647496 0.15190266 0.08970689 0.040140685
-0.16070402 0.16100815 0.10832696 -0.40164143 0.12384919 -0.31622055 -0.17735508 -0.22211893
-0.043240827 -0.03940764 0.20778905 0.1782297 0.19429718 0.065375194 0.13615479 0.108907126
0.14139405 0.14082733 0.08388829 0.4172089 0.13905418 -0.08207443 0.2743492 0.11679274
-0.019249322 0.22357476 0.17380206 -0.025754446 0.26786536 0.217271 0.27330768 -0.2129651
-0.12810552 -0.07170523 0.28169268 0.21828045 0.21724886 -0.2192853 -0.11630207 -0.08850263
0.006933987 -0.11429323 -0.1442384 0.18900257 0.027007094 -0.14917234 0.089757495 -0.14853956
0.06613171 -0.25005496 0.12512721 -0.056761328 -0.067868106 -0.14245571 -0.23124255 -0.12892766
0.1149706 0.10176692 0.22792014 -0.060113814 0.26065865 0.0975751 0.13334407 -0.19259651
-0.01738332 -0.07331848 0.22351079 0.09935933 -0.13970426 -0.22635539 -0.23189938 0.10905596
0.014648702 0.19817717 0.12977934 0.25674236 -0.061027616 0.05164026 0.20954889 0.012690395
-0.05964809 -0.031313226 -0.11651059 0.12375092 0.039431453 0.26768035 -0.18665001 0.21121253
-0.21235801 0.1966426 0.092474066 0.0289525 -0.1987005 0.19206883 -0.17859903 0.19611433
-0.19240497 -0.17836477 -0.2263157 0.16995981 -0.07009989 0.12831017 -0.25255665 -0.042498972
0.18136352 0.098372266 0.2621661 -0.021075817 0.21037312 0.2446003 0.24009442 -0.22651245
-0.03070163 0.14373034 -0.043563392 -0.48586413 -0.2075594 0.13546257 0.14995815 0.15174526
0.03126589 -0.3094193 -0.123381 0.13743168 0.22619283 -0.2962341 -0.25049964 -0.1211775
-0.09480412 -0.065208875 0.22937392 0.2914348 -0.3603184 -0.19924128 0.0045945994 0.33690646
0.0978232 -0.1299924 -0.052371588 -0.06226769 0.0953449 -0.24979505 0.19638877 0.16559
-0.07173069 -0.100420035 -0.09177474 0.07890032 -0.37425068 -0.1508005 -0.07584535 0.078889966
0.1091155 0.22092986 -0.12521382 -0.09987062 -0.13998303 -0.04683729 -0.05764774 -0.27577862
-0.15926227 -0.14022686 -0.04619485 -0.03386887 0.002382487 -0.044313285 -0.083606504 -0.20063627
0.10341337 -0.21542968 0.004882452 0.14198235 -0.2263005 0.049291335 0.22784324 -0.08617964
0.19865093 0.09659822 0.20101811 0.083015755 -0.017942218 -0.1613089 0.17065287 -0.17326307
-0.06153163 -0.06996596 -0.1488901 -0.07629915 0.18944542 0.16967076 0.14129493 -0.062025655
-0.24959144 -0.13485658 -0.235267 -0.19998243 -0.20936097 -0.22121127 -0.2687959 -0.06530609
00000000: 2d22 97bd e81c 4d3e 6d68 6c3e 32ed ecbd
00000010: f5f8 653d c691 4c3e 072e a3bd 7107 a93d
00000020: 7b34 3bbb eefa e8bd 35a7 113e 43f2 9b3c
00000030: 98fc 883e ffa6 67be eec2 063e b624 833e
00000040: adcf d13d 7b6c 0bbe c431 f1bd 69bc 3d3e
00000050: f105 5fbe f928 47be 39ef 83be fbdd 593e
00000060: 4445 1ebe caa2 223e 95b9 993e 0af1 b4bc
00000070: 94f6 503e 7766 0d3e be7e 393e 99bc 1abe
00000080: e6ba 22bd 943d 77bc fb04 2a3e 1892 903e
00000090: db40 78be f6ba c13c a6a6 64be 574b 16bd
000000a0: 3bb0 98bd ad32 af3d 5f1d 013e 6d46 b7bb
000000b0: 94ef a43d 8ac5 833d 6d25 79be 9341 083e
000000c0: d44b a93d a58b b43d bbf4 843b 2fc1 82be
000000d0: 428d 873e 5f8c 1b3e 3fb8 b73d 8f6a 243d
000000e0: 988f 24be 52df 243e 86da dd3d f2a3 cdbe
000000f0: a5a4 fd3d a9e7 a1be 929c 35be 2573 63be
00000100: 4b1d 31bd e869 21bd a7c6 543e d981 363e
00000110: d7f5 463e 6ee3 853d 296c 0b3e b30a df3d
00000120: 9ac9 103e 0a35 103e a0cd ab3d 689c d53e
00000130: 3864 0e3e a416 a8bd 8077 8c3e 0831 ef3d
00000140: c1b0 9dbc c8f0 643e 2bf9 313e fdfa d2bc
00000150: a625 893e 4a7c 5e3e fcee 8b3e 8613 5abe
00000160: 182e 03be 31da 92bd 063a 903e e984 5f3e
00000170: 7c76 5e3e 538c 60be c82f eebd de40 b5bd
00000180: 8036 e33b 9212 eabd 3bb3 13be e489 413e
00000190: fb3d dd3c a2c0 18be c7d2 b73d c11a 18be
000001a0: 1070 873d 3407 80be 5921 003e 917e 68bd
000001b0: 6ffe 8abd e9df 11be d9ca 6cbe 9d05 04be
000001c0: b575 eb3d 2d6b d03d e663 693e e739 76bd
000001d0: 0d75 853e 74d5 c73d 598b 083e 0538 45be
000001e0: 7767 8ebc 0028 96bd 03e0 643e e87c cb3d
000001f0: a20e 0fbe b5c9 67be 0877 6dbe bb58 df3d
00000200: 1c01 703c f5ee 4a3e e0e4 043e bc73 833e
00000210: 18f8 79bd bd84 533d fc93 563e 60eb 4f3c
00000220: 8e51 74bd 4c42 00bd 1b9d eebd 1f71 fd3d
00000230: e082 213d 660d 893e 2e21 3fbe 1948 583e
00000240: 6174 59be ae5c 493e 0b63 bd3d cb2d ed3c
00000250: 2578 4bbe b1ad 443e aae2 36be 32d2 483e
00000260: cf05 45be 41a5 36be 4ebf 67be f209 2e3e
00000270: 8890 8fbd be63 033e 1b4f 81be 6713 2ebd
00000280: 5cb7 393e 6677 c93d a33a 863e 31a7 acbc
00000290: 0d6c 573e 8078 7a3e 50db 753e e1f2 67be
000002a0: fc81 fbbc 0c2e 133e 876f 32bd 2fc3 f8be
000002b0: 748a 54be b3b6 0a3e a18e 193e 1c63 1b3e
000002c0: a910 003d 356c 9ebe 2daf fcbd e4ba 0c3e
000002d0: 189f 673e ffab 97be 7d41 80be e92b f8bd
000002e0: aa28 c2bd 3b8c 85bd ffe0 6a3e f136 953e
000002f0: a77b b8be e805 4cbe 4b8e 963b 017f ac3e
00000300: 8857 c83d ba1c 05be 9783 56bd 680c 7fbd
00000310: 3044 c33d 46ca 7fbe 231a 493e 6d90 293e
00000320: 8ae7 92bd 05a9 cdbd 65f4 bbbd 7e96 a13d
00000330: c99d bfbe 726b 1abe cf54 9bbd 1091 a13d
00000340: f277 df3d 703b 623e 0d38 00be f888 ccbd
00000350: b657 0fbe 75d8 3fbd 0920 6cbd db32 8dbe
00000360: a615 23be a197 0fbe d036 3dbd 16ba 0abd
00000370: 8023 1c3b d981 35bd e339 abbd 9873 4dbe
00000380: 64ca d33d 9999 5cbe fafc 9f3b d263 113e
00000390: 51bb 67be b6e5 493d bd4f 693e f37e b0bd
000003a0: 266b 4b3e 4ad5 c53d b1d7 4d3e 2a04 aa3d
000003b0: 8ffb 92bc 292e 25be a0bf 2e3e e06b 31be
000003c0: 9708 7cbd 504a 8fbd a576 18be bb42 9cbd
000003d0: fbfd 413e 2cbe 2d3e 9eaf 103e 9d0e 7ebd
000003e0: e694 7fbe d817 0abe d5e9 70be 32c8 4cbe
000003f0: b962 56be 3585 62be 9e9f 89be 33bf 85bd

layers.2.lin_l.weight f4 [32, 16]
-0.13302393 0.16656493 0.11885858 0.22236909 -0.10600566 0.10248319 -0.030696334 -0.041508686
-0.120351546 -0.24011503 0.025933646 -0.09161606 0.28934917 -0.13615155 -0.02243704 -0.219627
-0.17779873 0.03478925 0.13077843 -0.22282213 -0.20644295 -0.029687297 0.091190875 0.24188511
-0.03915049 -0.13050736 0.17229323 -0.060282618 -0.11690639 -0.23615251 0.18666454 0.16283269
0.10670439 -0.08480431 -0.01910046 0.15172283 -0.044203322 -0.0017634175 -0.116469786 -0.16573542
0.18886682 -0.017650485 0.119225614 -0.25129646 0.028687488 -0.15764447 -0.13498157 -0.19029543
0.095077425 -0.17260785 0.2723295 -0.18829633 0.13992035 0.15094848 0.08623246 -0.21852624
-0.22724229 0.0065103886 0.17569408 -0.078554675 -0.13342026 0.109607115 0.19617994 -0.20905131
-0.013594117 -0.021155428 -0.036186267 -0.07012167 0.059456296 -0.2653789 -0.015028246 -0.1097105
-0.15368609 -0.1224037 -0.18063359 -0.08807435 -0.14886507 0.0597399 -0.2601439 0.19065368
0.22019698 -0.07083353 -0.29747146 -0.16072436 0.11235957 0.08348207 -0.09017803 -0.11307274
0.2417938 -0.23573443 -0.14802645 0.037216593 0.18354839 0.24943362 -0.014529614 0.03861868
-0.056015622 -0.2333728 -0.00926141 -0.18923703 0.19768594 -0.2026785 0.2014819 -0.05765161
0.22011177 0.0070169074 -0.19889596 -0.22106358 0.2460435 -0.22091061 -0.027103228 0.2230168
-0.1791918 -0.23739627 0.13458891 0.02031916 -0.14595892 0.21325205 0.026887627 -0.28067797
-0.18007648 -0.0385924 0.19584258 -0.17800517 -0.061903194 -0.22864914 -0.011374806 0.04130727
0.12664571 0.06866653 0.23139279 -0.030604644 -0.11426252 0.14990203 -0.050850075 0.13890126
-0.03496914 0.06559837 0.029050874 0.16958049 0.015192955 0.0064172284 -0.25985944 0.08120937
0.100298025 0.10891315 -0.18548281 -0.07276431 -0.19209903 0.048794072 0.058623634 0.20908399
-0.05119636 0.085800566 -0.20404835 0.067958534 -0.18585947 0.017535796 0.22429736 -0.15526308
-0.01285351 -0.1256663 0.123710655 -0.019558001 0.19927397 0.13549253 0.20480841 0.023155672
0.17699221 -0.15209368 -0.22587343 0.12098644 0.13349377 -0.06622798 -0.13404068 0.13608141
-0.16658345 -0.24410118 -0.08409698 0.09012677 -0.11374095 -0.013427168 0.17986499 -0.24429542
-0.10981292 -0.03785789 0.11840238 0.18977493 -0.20733446 -0.069072306 0.21991032 -0.002170648
0.16668244 -0.071991585 0.23727562 -0.041386954 0.08891387 -0.2580658 0.09351267 -0.17176682
0.033275276 0.04433298 -0.25171185 0.14242189 -0.09553703 -0.10601117 0.20644759 0.10500602
-0.006270971 0.14527754 0.019110978 -0.00066904275 0.22268951 0.08283155 0.11727881 -0.24747512
-0.0040482455 0.020918787 -0.13385999 0.22204335 0.054204706 -0.014551894 0.013742118 -0.09041557
0.12385044 0.24765499 -0.075542286 -0.101822294 0.11617627 -0.04164392 0.1218803 -0.06961441
-0.16625026 -0.02145651 0.0026423822 -0.17309563 -0.048693806 -0.07415222 -0.028693354 -0.03731374
0.11462302 0.13376841 0.2553215 -0.21693926 -0.114810005 0.0937338 0.22134507 0.14012945
-0.00760438 0.087572455 -0.10796454 -0.06329382 0.06213208 0.013337333 -0.039140627 0.1753348
00000000: 6d37 08be ff8f 2a3e 216c f33d b9b4 633e
00000010: 7f19 d9bd b5e2 d13d e176 fbbc 0305 2abd
00000020: df7a f6bd b7e0 75be cc72 d43c 33a1 bbbd
00000030: 9325 943e 506b 0bbe e2cd b7bc e6e5 60be
00000040: df10 36be 2c7f 0e3d c8ea 053e 7c2b 64be
00000050: c865 53be c632 f3bc 48c2 ba3d bbb0 773e
00000060: 445c 20bd b9a3 05be a36d 303e e8ea 76bd
00000070: 9e6c efbd f7d1 71be fd24 3f3e 9dbd 263e
00000080: d587 da3d e2ad adbd 9178 9cbc 3b5d 1b3e
00000090: 8b0e 35bd 7922 e7ba b687 eebd 8cb6 29be
000000a0: 4e66 413e c097 90bc 8f2c f43d eea9 80be
000000b0: 0602 eb3c 8d6d 21be 9c38 0abe cedc 42be
000000c0: f4b7 c23d 1dc0 30be c66e 8b3e c1d0 40be
000000d0: 4847 0f3e 3d92 1a3e a59a b03d 58c5 5fbe
000000e0: 34b2 68be 1955 d53b 26e9 333e 46e1 a0bd
000000f0: 529f 08be b279 e03d 65e3 483e 8c11 56be
00000100: dcb9 5ebc 264e adbc 0d38 14bd f39b 8fbd
00000110: 7288 733d bedf 87be 0839 76bc e6af e0bd
00000120: e35f 1dbe cbae fabd 03f8 38be 5360 b4bd
00000130: 1670 18be d3b1 743d 9531 85be b83a 433e
00000140: 517b 613e 2b11 91bd 2e4e 98be ed94 24be
00000150: c61c e63d a6f8 aa3d 42af b8bd ae92 e7bd
00000160: cb98 773e 5e64 71be 3f94 17be 6d70 183d
00000170: 1cf4 3b3e 876b 7f3e 9e0d 6ebc 9f2e 1e3d
00000180: a370 65bd 47f9 6ebe 2bbd 17bc 5ac7 41be
00000190: 2f6e 4a3e f48a 4fbe 4551 4e3e 1824 6cbd
000001a0: fb64 613e 16ee e53b 62ab 4bbe 7e5e 62be
000001b0: d4f2 7b3e 6436 62be 9707 debc 845e 643e
000001c0: 0e7e 37be 0218 73be add1 093e 5e74 a63c
000001d0: 4176 15be bf5e 5a3e 7143 dc3c 06b5 8fbe
000001e0: f865 38be 1013 1ebd f58a 483e fd46 36be
000001f0: 348e 7dbd 0023 6abe 655d 3abc d031 293d
00000200: 6aaf 013e 0aa1 8c3d 3bf2 6c3e 97b6 fabc
00000210: 7802 eabd eb7f 193e 2b48 50bd 223c 0e3e
00000220: cd3b 0fbd 7058 863d 19fc ed3c 82a6 2d3e
00000230: dfeb 783c 9d47 d23b 4c0c 85be 1951 a63d
00000240: 0d69 cd3d dc0d df3d 35ef 3dbe 7405 95bd
00000250: 9cb5 44be 4bdc 473d 561f 703d 1d1a 563e
00000260: 46b3 51bd 35b8 af3d 0df2 50be d82d 8b3d
00000270: f251 3ebe 3ba7 8f3c 35ae 653e 49fd 1ebe
00000280: 8797 52bc abae 00be 035c fd3d 1a38 a0bc
00000290: 7a0e 4c3e 8ebe 0a3e 4cb9 513e f7b0 bd3c
000002a0: 723d 353e 72be 1bbe 5d4b 67be bdc7 f73d
000002b0: 97b2 083e 89a2 87bd f641 09be ed58 0b3e
000002c0: da94 2abe a9f5 79be 0a3b acbd 6294 b83d
000002d0: 04f1 e8bd a0fd 5bbc 872e 383e 9428 7abe
000002e0: 99e5 e0bd e010 1bbd f27c f23d 5c54 423e
000002f0: 7c4f 54be c875 8dbd 2c30 613e 6e41 0ebb
00000300: cdae 2a3e 5370 93bd 61f8 723e 5e85 29bd
00000310: 7a18 b63d 3321 84be 9283 bf3d a4e3 2fbe
00000320: a84b 083d 8096 353d 60e0 80be 0bd7 113e
00000330: eba8 c3bd 621c d9bd ff66 533e 650d d73d
00000340: b87c cdbb a3c3 143e a08e 9c3c b362 2fba
00000350: b808 643e 96a3 a93d df2f f03d 1e6a 7dbe
00000360: 25a7 84bb e05d ab3c 9812 09be 555f 633e
00000370: c105 5e3d 116b 6ebc 9f26 613c cc2b b9bd
00000380: 4da5 fd3d 4599 7d3e eab5 9abd 3588 d0bd
00000390: d3ed ed3d d192 2abd 619c f93d 0092 8ebd
000003a0: 823d 2abe 90c5 afbc d12b 2d3b fb3f 31be
000003b0: 2873 47bd 1edd 97bd 530e ebbc 4bd6 18bd
000003c0: 79bf ea3d 96fa 083e 80b9 823e 5325 5ebe
000003d0: 8221 ebbd 82f7 bf3d 48a8 623e 187e 0f3e
000003e0: 2a2e f9bb 3059 b33d 831c ddbd 31a0 81bd
000003f0: 357e 7e3d d484 5a3c ec51 20bd f78a 333e

layers.2.lin_r.weight f4 [32, 16]
0.10346649 0.24755828 0.040254045 0.003093546 0.036186524 -0.0022429833 -0.06796314 0.23577888
-0.023099922 -0.119575754 0.10885062 -0.30308974 0.17507857 0.034139536 -0.04659297 0.22886331
-0.017238077 0.28125057 -0.13409132 -0.14647715 -0.093278445 0.047692172 0.06815529 0.23265184
-0.09378826 -0.21931317 -0.011062546 -0.30724296 -0.03895105 -0.1806203 -0.091657385 -0.080507115
-0.18524924 -0.12370134 0.11234125 -0.03170623 0.21661913 0.2089615 0.113471515 0.1227535
-0.13664356 0.15644878 0.30048442 -0.21436732 -0.24443634 -0.0058365865 0.00846014 -0.17081551
0.17220502 0.25057468 -0.0034577798 0.23625122 -0.15673804 0.1761479 0.056921605 -0.07390224
0.0006150504 -0.095739156 0.29155234 -0.07815675 0.15588483 -0.010908266 0.22640987 -0.037183687
0.2389622 -0.10981115 0.10492835 -0.05842943 0.18420376 -0.13194008 0.13896969 0.18115108
0.003373884 0.21549222 0.14649409 0.16044837 0.26158556 -0.0985637 -0.03154717 0.05488215
-0.110142164 -0.15020075 0.19132067 0.102011696 0.19242796 0.11318187 0.054276317 0.18214743
-0.19971126 -0.1270344 -0.065399654 -0.13826609 0.1039147 -0.1842411 0.078014106 -0.22366886
0.1661803 -0.051918093 -0.10535997 0.044388767 -0.16887952 -0.17698444 -0.16013671 0.10354884
-0.19181861 -0.2207247 0.06524479 -0.22190176 0.2590783 -0.080485314 -0.022999693 0.03442243
-0.05422938 0.096670255 0.16284364 -0.028303463 -0.021993171 -0.14832117 0.19263558 0.13312823
-0.26003507 0.048744768 0.07522679 0.24381314 -0.01164037 0.10341185 -0.05206027 0.20196044
0.11631025 -0.087485395 -0.059149675 -0.09324961 0.11788286 0.0467831 0.18763961 -0.10180397
-0.2753763 0.12970755 -0.055485606 0.38407454 -0.01593468 0.29691738 0.16085525 0.021595392
0.13512509 -0.16630822 -0.25093216 0.1908921 0.08783158 0.13621768 -0.25827375 -0.20561448
-0.13060436 -0.21251321 0.16549096 0.049639743 0.34997064 -0.25897434 0.06113402 -0.0072396477
-0.26707676 -0.25272933 0.11196216 -0.15682058 0.036044642 -0.006775213 -0.14075956 0.18434252
-0.05626864 -0.1712028 -0.13879377 -0.10380939 -0.025132935 -0.09487017 0.2214368 -0.104796454
0.23913422 -0.21893273 0.105577044 0.1008953 0.053552195 0.024609784 0.12645456 -0.12860374
0.03213547 -0.20895143 -0.22667176 0.10740608 -0.20193274 -0.18002006 0.054319773 -0.2022874
0.25580844 0.054692093 -0.022141214 0.24162073 -0.046259705 -0.17199586 0.2575122 0.14030291
0.16930069 0.06757947 -0.03533037 0.08777551 0.13507827 0.11295888 -0.036221445 0.11702086
-0.24925976 -0.21240546 -0.090114206 -0.25006527 0.2125097 0.16941592 0.19400495 0.02860396
0.06379827 -0.17840299 -0.22860956 -0.03270135 0.14393054 0.012761161 -0.14375535 0.14897408
0.1183854 0.063915014 0.2974354 -0.16475429 0.1076062 -0.18209203 0.090017006 0.19767894
0.29651257 0.18203612 0.24461873 0.21841845 0.19679008 0.12413596 -0.1158302 -0.19351313
0.17378452 -0.09303078 0.2873576 0.05841246 0.06413475 -0.012620127 0.103390954 -0.21348886
0.18291396 0.15363728 -0.12539186 -0.19208147 -0.075774305 -0.1602382 -0.018883077 0.11490777
00000000: 3de6 d33d eb7f 7d3e 6de1 243d 17bd 4a3b
00000010: 5238 143d 04ff 12bb 4230 8bbd 0570 713e
00000020: 0c3c bdbc 22e4 f4bd 13ed de3d 942e 9bbe
00000030: cc47 333e e6d5 0b3d 45d8 3ebd 255b 6a3e
00000040: de36 8dbc 1300 903e 3c4f 09be 1bfe 15be
00000050: c508 bfbd de58 433d 0095 8b3d 493c 6e3e
00000060: 0f14 c0bd a293 60be ae3f 35bc f34e 9dbe
00000070: 238b 1fbd 87f4 38be deb6 bbbd eae0 a4bd
00000080: fab1 3dbe 2157 fdbd 2b13 e63d 64de 01bd
00000090: 68d1 5d3e 01fa 553e c163 e83d 3066 fb3d
000000a0: 4aec 0bbe 1c34 203e 18d9 993e 1b83 5bbe
000000b0: 854d 7abe d640 bfbb 669c 0a3c 43ea 2ebe
000000c0: 8356 303e 534b 803e eb9b 62bb d7eb 713e
000000d0: f07f 20be 1d60 343e a126 693d 0f5a 97bd
000000e0: 553b 213a e412 c4bd 5946 953e a510 a0bd
000000f0: 46a0 1f3e 95b8 32bc fdd7 673e ec4d 18bd
00000100: 82b2 743e abe4 e0bd ade4 d63d b353 6fbd
00000110: e99f 3c3e 4d1b 07be 124e 0e3e ab7f 393e
00000120: 611c 5d3b fea9 5c3e 8c02 163e 944c 243e
00000130: 8bee 853e c4db c9bd 9b37 01bd 1bcc 603d
00000140: 3792 e1bd 3ace 19be 91e9 433e 82eb d03d
00000150: d60b 453e e5cb e73d d850 5e3d db84 3a3e
00000160: 1c81 4cbe 4e15 02be 41f0 85bd a095 0dbe
00000170: 3bd1 d43d b3a9 3cbe dcc5 9f3d 7309 65be
00000180: 2b2b 2a3e 11a8 54bd f8c6 d7bd ffd0 353d
00000190: c1ee 2cbe 693b 35be e1fa 23be 6a11 d43d
000001a0: 196c 44be a805 62be 0f9f 853d 373a 63be
000001b0: e9a5 843e 7cd5 a4bd da69 bcbc 89fe 0c3d
000001c0: a01f 5ebd 0efb c53d 7cc0 263e aadc e7bc
000001d0: 062b b4bc 81e1 17be 4342 453e c452 083e
000001e0: 5123 85be 98a8 473d 8110 9a3d 27aa 793e
000001f0: 40b7 3ebc 98c9 d33d 263d 55bd b8ce 4e3e
00000200: 1134 ee3d 8b2b b3bd ee46 72bd a7f9 bebd
00000210: 926c f13d a39f 3f3d 9924 403e 9a7e d0bd
00000220: 1ffe 8cbe 0ed2 043e e044 63bd 6ba5 c43e
00000230: 7289 82bc 8e05 983e 3db7 243e d2e8 b03c
00000240: 3b5e 0a3e b44c 2abe 2e7a 80be 3879 433e
00000250: 0be1 b33d a67c 0b3e 753c 84be 9a8c 52be
00000260: 26bd 05be 109d 59be 7676 293e 0b53 4b3d
00000270: 5a2f b33e 4998 84be ab67 7a3d 913a edbb
00000280: 49be 88be bd65 81be 6b4c e53d 9395 20be
00000290: 8ca3 133d 9b02 debb 4623 10be 49c4 3c3e
000002a0: f279 66bd c94f 2fbe f41f 0ebe 049a d4bd
000002b0: 96e3 cdbc 4b4b c2bd 54c0 623e 869f d6bd
000002c0: 9adf 743e e72f 60be c738 d83d 32a2 ce3d
000002d0: 8c59 5b3d 759a c93c 4e7d 013e b3b0 03be
000002e0: 7ca0 033d 5df7 55be a41c 68be b8f7 db3d
000002f0: 75c7 4ebe 2e57 38be 697e 5e3d 6e24 4fbe
00000300: 53f9 823e d104 603d 7e61 b5bc 6d6b 773e
00000310: d17a 3dbd af1f 30be a4d8 833e 91ab 0f3e
00000320: 295d 2d3e 1b67 8a3d 94b6 10bd a6c3 b33d
00000330: f551 0a3e fc56 e73d f05c 14bd a2a8 ef3d
00000340: f33d 7fbe d180 59be cc8d b8bd 8e08 80be
00000350: 259c 593e 5e7b 2d3e 3ca9 463e da52 ea3c
00000360: aba8 823d 46af 36be a018 6abe daf1 05bd
00000370: 8762 133e 3014 513c 9a34 13be a98c 183e
00000380: 0b74 f23d e0e5 823d 7449 983e 59b5 28be
00000390: a460 dc3d 5576 3abe d65a b83d 596c 4a3e
000003a0: 7fd0 973e ad67 3a3e 557d 7a3e 16a9 5f3e
000003b0: 5783 493e ff3a fe3d 6238 edbd 4e28 46be
000003c0: 92f4 313e ec86 bebd 8920 933e e741 6f3d
000003d0: 1459 833d a6c4 4ebc a3be d33d d39c 5abe
000003e0: cc4d 3b3e 1753 1d3e b966 00be 01b1 44be
000003f0: 8f2f 9bbd 7c15 24be afb0 9abc c454 eb3d

fc11.weight f4 [16, 32]
-0.010285605 0.10119164 0.20667946 0.08183533 0.0041256687 -0.06641062 0.17792802 -0.029932326
0.012067766 -0.120172 0.0052530738 -0.10626665 0.14382944 -0.075573914 0.17215452 0.14202233
-0.046584412 -0.14938575 0.105638936 -0.11222965 0.39281312 0.045790423 -0.15009992 -0.039488718
-0.1083627 -0.08585519 0.1756979 0.11430834 -0.00077377784 0.29900512 -0.1394246 0.1745316
-0.1513732 -0.027852524 0.08383667 0.09061206 0.01669855 0.06996613 0.14672138 0.08995148
-0.20331879 0.1662675 0.13231856 -0.006135564 -0.17433538 0.017833365 0.12813562 0.2235026
-0.11641727 -0.049436558 -0.07461175 0.07353821 -0.060502287 0.06959566 0.09388988 -0.1931872
-0.03466971 -0.04819016 0.13845456 -0.098820716 0.122058354 -0.01960064 -0.16810486 -0.16100064
-0.079694174 0.030277915 -0.07190977 0.030317098 0.00926188 -0.04016283 -0.1775369 -0.14102492
-0.08546103 -0.09994846 -0.06001603 -0.021568842 -0.10136892 0.20162854 0.13534486 -0.17472047
-0.15038778 0.13074934 0.10104782 0.14746259 -0.06190084 0.07852119 0.09776161 -0.01350764
0.041921616 -0.058829557 -0.123884745 -0.019198855 0.05654217 -0.1415922 0.057569366 -0.055161607
-0.01981679 0.11921588 0.13481297 0.11189495 0.2811267 0.10638074 0.10841438 -0.050991174
0.061740197 0.014187767 -0.165635 0.047308426 0.1068798 -0.036516916 0.15509942 0.20318069
0.06907873 0.02065712 -0.0905188 -0.049179405 0.36420456 -0.0029807067 -0.12030972 0.12395448
0.12818584 -0.09194681 -0.1567565 0.047485072 -0.16267148 0.31547344 0.0056180013 -0.045659576
-0.09928794 -0.045189828 0.09250746 -0.12007858 0.13941254 0.12439454 -0.16264117 -0.07334609
-0.086895086 0.090227485 0.05055289 -0.03833633 -0.05288715 -0.0908254 -0.061995525 0.16929252
-0.058461744 -0.13932444 -0.13976963 -0.016102118 -0.02035676 -0.07094048 0.023074346 0.05634296
0.012982388 -0.08189868 0.105916 0.013053089 -0.17226487 0.060933214 0.15646242 -0.064999014
-0.10182627 -0.13940944 -0.0987708 -0.12917352 -0.05807368 0.074109524 -0.048879426 0.13719697
0.1485859 0.107028805 -0.035402607 -0.027359674 -0.09041547 0.18197812 0.22387408 -0.14588663
0.15075502 -0.14921752 -0.01554417 0.14643526 -0.14307445 -0.035321712 0.034221068 -0.01091777
0.19828892 -0.032594025 -0.10938982 0.14249922 0.13178448 -0.14716007 0.09084007 -0.051128004
0.19044779 0.14832921 -0.017291835 0.14929809 -0.09418088 0.025537854 0.15391311 -0.11474336
0.12980318 0.12244578 -0.045701846 -0.0009412495 0.075916484 -0.104815826 0.0100960685 0.11520764
-0.09303199 -0.073355585 0.14694214 -0.16718085 0.029678335 0.13483319 -0.023113608 -0.16250701
-0.016344544 0.13790408 0.09546129 0.03900994 0.057159968 0.16846627 -0.024343513 0.16768107
-0.101603426 -0.1398276 0.031598303 0.09113299 -0.082127266 -0.11470058 -0.048357714 -0.021937793
-0.06483936 0.15012167 -0.13164832 0.051591493 -0.15565686 -0.09398534 0.073381044 -0.06765457
-0.17669214 0.00051193667 -0.02576485 -0.2008752 0.10079477 -0.046857264 -0.027260307 -0.056118295
-0.19486454 -0.13900319 -0.026976358 0.065656416 -0.18451704 0.052203335 -0.033168096 -0.120297536
00000000: f484 28bc 903d cf3d c8a3 533e 4899 a73d
00000010: 9e30 873b 4b02 88bd c332 363e a334 f5bc
00000020: e1b7 453c bd1c f6bd fa21 ac3b 54a2 d9bd
00000030: 0648 133e 7fc6 9abd 4649 303e 4d6e 113e
00000040: 4ccf 3ebd 94f8 18be 3a59 d83d a9d8 e5bd
00000050: cd1e c93e bd8e 3b3d cbb3 19be ecbe 21bd
00000060: 43ed ddbd d9d4 afbd 26ea 333e 7e1a ea3d
00000070: 5ad7 4aba 3317 993e 53c5 0ebe 69b8 323e
00000080: 9301 1bbe fa2a e4bc 8fb2 ab3d d192 b93d
00000090: 66cb 883c 674a 8f3d 213e 163e 7b38 b83d
000000a0: cd32 50be 0742 2a3e 847e 073e d70c c9bb
000000b0: f984 32be 4717 923c fc35 033e dedd 643e
000000c0: 2d6c eebd fd7d 4abd 0cce 98bd 339b 963d
000000d0: 3fd1 77bd 2b88 8e3d 5649 c03d ded2 45be
000000e0: d301 0ebd 0c63 45bd 08c7 0d3e 8462 cabd
000000f0: bbf9 f93d 8591 a0bc ae23 2cbe 5add 24be
00000100: b336 a3bd 6409 f83c 6e45 93bd 905b f83c
00000110: 24bf 173c c881 24bd 3ccc 35be d668 10be
00000120: 3106 afbd c7b1 ccbd 5ed3 75bd 24b1 b0bc
00000130: 829a cfbd b677 4e3e d897 0a3e ece9 32be
00000140: 41ff 19be 28e3 053e 29f2 ce3d 6f00 173e
00000150: bc8b 7dbd b8cf a03d 3d37 c83d 264f 5dbc
00000160: 00b6 2b3d 43f7 70bd 49b7 fdbd eb46 9dbc
00000170: c398 673d 8cfd 10be dbcd 6b3d 23f1 61bd
00000180: d256 a2bc 7527 f43d 690c 0a3e 2e29 e53d
00000190: d7ef 8f3e 25de d93d 5c08 de3d 1fdc 50bd
000001a0: 4ae3 7c3d cf73 683c 399c 29be 7bc6 413d
000001b0: cce3 da3d c392 15bd 62d2 1e3e 990e 503e
000001c0: 2679 8d3d 1f39 a93c ec61 b9bd 5870 49bd
000001d0: 0579 ba3e f657 43bb f164 f6bd d9db fd3d
000001e0: 2643 033e 9c4e bcbd c784 20be b57f 423d
000001f0: 5a93 26be bc85 a13e 3617 b83b 8905 3bbd
00000200: 7a57 cbbd f818 39bd 8d74 bd3d c2eb f5bd
00000210: 29c2 0e3e 91c2 fe3d 688b 26be 7a36 96bd
00000220: 0df6 b1bd 30c9 b83d 8c10 4f3d 8e06 1dbd
00000230: 32a0 58bd ab02 babd 05ef 7dbd 055b 2d3e
00000240: 9575 6fbd 11ab 0ebe c51f 0fbe 97e8 83bc
00000250: 38c3 a6bc 3e49 91bd 6906 bd3c e0c7 663d
00000260: 15b4 543c 7fba a7bd 7dea d83d a0dc 553c
00000270: 3466 30be 1b95 793d af37 203e 341e 85bd
00000280: 4b8a d0bd 59c1 0ebe 5848 cabd 1046 04be
00000290: abde 6dbd bcc6 973d cb35 48bd 5d7d 0c3e
000002a0: e726 183e eb31 db3d 5302 11bd 6521 e0bc
000002b0: bf2b b9bd 7958 3a3e 3f3f 653e 4e63 15be
000002c0: 865f 1a3e 7acc 18be f9ac 7ebc 20f3 153e
000002d0: 1c82 12be 80ad 10bd 642b 0c3d 72e0 32bc
000002e0: 400c 4b3e 5081 05bd c507 e0bd 51eb 113e
000002f0: 83f2 063e 21b1 16be 5c0a ba3d 996b 51bd
00000300: bf04 433e 9de3 173e 9ba7 8dbc 99e1 183e
00000310: e8e1 c0bd c334 d13c 669b 1d3e 91fe eabd
00000320: 20eb 043e dac4 fa3d dc31 3bbd 2fbe 76ba
00000330: 1a7a 9b3d aea9 d6bd fb69 253c fcf1 eb3d
00000340: 8e87 bebd 743b 96bd 0078 163e 7531 2bbe
00000350: fb1f f33c b611 0a3e c058 bdbc 3d68 26be
00000360: fee4 85bc ba36 0d3e 3581 c33d e3c8 1f3d
00000370: 9220 6a3d 6c82 2c3e 0c6c c7bc 96b4 2b3e
00000380: 7515 d0bd f72e 0fbe 396d 013d efa3 ba3d
00000390: 5732 a8bd 23e8 eabd bd12 46bd e3b6 b3bc
000003a0: 80ca 84bd 7fb9 193e d1ce 06be 9a51 533d
000003b0: 8364 1fbe 637b c0bd cd48 963d 7b8e 8abd
000003c0: c9ee 34be 7d33 063a cf10 d3bc 3ab2 4dbe
000003d0: 7d6d ce3d 67ed 3fbd 0251 dfbc 4cdc 65bd
000003e0: 928a 47be da56 0ebe 86fd dcbc df76 863d
000003f0: 09f2 3cbe 2ad3 553d 45db 07bd 8e5e f6bd

fc11.bias f4 [16]
0.4132138 0.25106815 -0.14571711 0.25884485 0.008205907 -0.22889338 0.04219367 -0.1755043
0.3751285 -0.17653473 -0.053705826 -0.22012162 0.10228347 -0.109242596 0.10713922 -0.09539214
00000000: c290 d33e 018c 803e de36 15be 5087 843e
00000010: 1272 063c 0763 6abe 45d3 2c3d 66b7 33be
00000020: d810 c03e 85c5 34be a4fa 5bbd 9067 61be
00000030: ff79 d13d 95ba dfbd cf6b db3d f45c c3bd

fc12.weight f4 [1, 16]
-0.48137355 -0.062451974 0.011082354 -0.41769615 -0.24650556 0.185827 -0.23601298 0.108681895
-0.24492304 0.2006831 0.09858472 0.19605422 -0.12722962 0.059030443 -0.1278083 -0.1383191
00000000: 9876 f6be a4cd 7fbd c392 353c 45dc d5be
00000010: f46b 7cbe 6f49 3e3e 63ad 71be 9d94 de3d
00000020: 1bcd 7abe df7f 4d3e c9e6 c93d 70c2 483e
00000030: 7b48 02be e8c9 713d 2ee0 02be 86a3 0dbe
