trained_models/2022-09-16_21:28:10-GraphSAGE_64_3/base_model.pt (torch, 61447 bytes, 9 tensors)

layers.0.lin_l.weight f4 [64, 14]
00000000: f932 babc abef eebb 0ff5 613e c91f 3abe
00000010: 5362 08be a2db 78bd 2510 a4bc 6c6c 41bc
00000020: b018 553e 2059 86be 047e 8b3d b447 6e3e
00000030: 68d2 39be f1ff ab3d 701f 60be 753d 58be
00000040: 73b6 10be ef8d 8b3e 59d5 83bc a826 3fbe
00000050: cf48 1a3e 479d 063e 1e41 323c 5a85 25be
00000060: 89b5 13be fb9c 643e b1d6 1dbb 90a0 3d3e
00000070: 44ec 633e ba61 33be 7980 d63d 98f9 35bd
00000080: 0ff3 183e 5b7c 943d f35a 983d 4240 813d
00000090: c443 95be 43a0 583e bb04 d43d 5877 1bbe
000000a0: 4ee5 243b a1c8 3bbe 0ee9 65be a278 e6bc
000000b0: cccf a7bb 8bd7 c9bd 18b0 24bd faba 283d
000000c0: d614 713d 73e0 36be e17e e83c 3a56 cf3c
000000d0: 471e 6c3e 8242 5d3d a5ef 53be 5aa6 813e
000000e0: 7d72 87bd 6b18 e4bc e52e fd3d 4a78 723d
000000f0: b4f1 6abe 24df 20be fa96 4f3e e3ed 8dbc
00000100: a0ae 0d3d e29a 18be d91f 933d f98b 643e
00000110: f5bf 49be 4b67 493e 8c7d 60be 1bfb 6abe
00000120: 44cc babd be91 36be 8bea fd3c 853f 293e
00000130: 8714 11be 7fb2 1e3e 941b 72bd eb7d e239
00000140: 4799 8abd 8c67 043d 6f2e 22bd 1c0a 51be
00000150: ace7 053e 6f23 5d3e 2744 51be 3909 2b3e
00000160: b988 713d 454f e53d 9e2c 4bbe f9d5 2bbe
00000170: 5f49 943d 02ac 803d 7b09 ee3d 20b8 48be
00000180: 0b9e 23bd e57e 19be 1814 0d3e b805 9e3e
00000190: c944 bb3b fd90 d2bd ca6f 613d e457 fdbd
000001a0: 119c 4ebd fc43 2ebe b6bf c6bc 43d0 55be
000001b0: 7cb2 103e 1632 f1bd a664 90bb cc9d 1dbd
000001c0: c1cc 1fbc 06ff 5b3d b755 cebc ea62 cebd
000001d0: 1d45 963d 0db7 773d a72d 4fbe e5d1 3e3d
000001e0: 0731 4abe 7ca2 f0bc 47d4 793d d5d5 a93d
000001f0: fe09 30be ef47 55be 54f0 3bbd 756c 813d
00000200: 04c6 32be c51a 823e f4a7 14be 48f3 013e
00000210: 1f35 4e3e 125d 89bd cea6 2ebd 2ae3 173d
00000220: ec0e 023e 92e5 8fbd 8aef a43d 321a d43c
00000230: 0134 fcbd f558 ed3d 5b4f 7bbe 6836 903e
00000240: e190 113e 4b11 24bb 96d2 04bc 4345 c83d
00000250: 6219 12be 9e32 8f3d c264 26bd c1c6 1e3e
00000260: f1e7 fcbd c739 d2bd 9394 7ebe a9a8 2d3d
00000270: 8f23 7dbe 918c 6dbe b8c7 c93b 6847 763e
00000280: e647 20be e8f4 bd3c 8800 fb3d 6ab3 263e
00000290: 30a6 99bd 2ae3 d0bd 7e78 01be 7862 9e3d
000002a0: 5d72 1fbd a98f 04bd 3266 a13e 0196 513e
000002b0: 4845 a2bc be42 24be 6fe3 20be 21e5 fc3d
000002c0: 0e60 76be 525a 5c3d cc7b 92bd e88f 81be
000002d0: a422 84bc f61d a1bc 853e 423e fcbb 55bd
000002e0: e949 e33d c06b 113e 7c68 643a 98a7 903e
000002f0: b18b 59be be44 d0bd 2ff0 58be 38ac 2abd
00000300: a7e6 073d 3715 e7bd a5c4 72be 2a4b 82be
00000310: 2972 a5bd c43e 9a3d 17bb a63b dfd0 003e
00000320: 4394 82be 298c 80be 7eed 413e a8c2 103e
00000330: 127f 61be 0a77 373e f27f 9dbd 737e e8bd
00000340: cedf 95bd 3bc8 07bd dc43 1bbe 9744 3f3e
00000350: c507 76be 7c4e b63d 70c6 e33d cea3 72be
00000360: d258 2cbe 0fc2 9f3e 43ad e9bd 4e43 c33d
00000370: 2e06 88be fb2e 313e 07b3 8bbb a141 1bbe
00000380: c621 903d c35c 503e 3a4d 5cbe f322 c9be
00000390: 8ad1 d4bc 53df 843e 9aac 713d 7e32 8fbe
000003a0: bb93 78be c270 a1be 5440 aabc fd92 02be
000003b0: 4e6f 653e 0be3 3d3d e7f5 2b3c b8de d93c
000003c0: 8c8e 4ebe d20e 9dbd ddd2 a8bd 7c7f 763e
000003d0: b189 a23d 364e 60be f5c2 9b3d c7ef a0be
000003e0: 5b2e ffbd d4b6 0f3e 26b1 693e a48e 83bd
000003f0: bb90 59bd d868 813d a9cc 913d 4ed5 9ebc
-0.022729384 -0.0072917542 0.22066139 -0.18176188 -0.13318758 -0.060756333 -0.02002723 -0.011805635
0.20810199 -0.26239872 0.06811145 0.2326954 -0.1814667 0.08398426 -0.21886992 -0.21117194
-0.14132099 0.27256724 -0.016092943 -0.1866709 0.15066837 0.13145934 0.010879783 -0.16164151
-0.14424719 0.22325508 -0.0024084265 0.18518281 0.22258097 -0.17517748 0.10473723 -0.044427484
0.1493647 0.072502814 0.07439222 0.06311084 -0.29153264 0.21154885 0.10352465 -0.15182245
0.002516109 -0.18338253 -0.22452185 -0.028133694 -0.005121207 -0.09855565 -0.040207 0.04119394
0.05885776 -0.17859058 0.028380813 0.02530967 0.23058425 0.054018505 -0.20696886 0.2532223
-0.06613634 -0.027843675 0.1236246 0.059196748 -0.22943765 -0.15710121 0.20272437 -0.017325347
0.034590364 -0.14902833 0.07183809 0.2231902 -0.19702132 0.1966831 -0.21922892 -0.22947352
-0.09120992 -0.17829034 0.030995628 0.16528137 -0.14167987 0.15497778 -0.05910833 0.00043199895
-0.067675166 0.032325312 -0.039595064 -0.20414013 0.13076657 0.21595548 -0.20436154 0.16702737
0.05896828 0.1119676 -0.19841239 -0.16780843 0.07240557 0.06282808 0.11622902 -0.19601488
-0.039945643 -0.14989813 0.13777196 0.30863738 0.005714987 -0.102815606 0.05503825 -0.123702794
-0.050441805 -0.17018121 -0.024261337 -0.20880227 0.14130586 -0.11777131 -0.0044065295 -0.038480565
-0.009753407 0.053710006 -0.025187356 -0.1007746 0.07337401 0.060477305 -0.20232259 0.04658689
-0.19745265 -0.029374354 0.06099346 0.08292738 -0.17191312 -0.20828222 -0.04588349 0.06319515
-0.1745835 0.2541105 -0.14517194 0.1269046 0.20137452 -0.06707205 -0.042639546 0.037081875
0.12701005 -0.07026209 0.08053501 0.025891397 -0.123146065 0.11589233 -0.2454199 0.2816651
0.14215423 -0.0025034721 -0.008106848 0.097788356 -0.14267495 0.06992076 -0.040623434 0.15505506
-0.12348927 -0.102649264 -0.24861364 0.042397175 -0.24720596 -0.23198153 0.0061578415 0.24050677
-0.15652427 0.02318807 0.12255961 0.16279379 -0.07502401 -0.10199578 -0.1264362 0.07733625
-0.038927425 -0.032363568 0.3152328 0.20467378 -0.019808426 -0.16041085 -0.15711759 0.1234839
-0.2406008 0.053797074 -0.07152519 -0.25305104 -0.0161298 -0.019667607 0.18969162 -0.05218123
0.110980816 0.1420126 0.0008713079 0.28252864 -0.21244694 -0.101693615 -0.21185373 -0.041668147
0.03317895 -0.11283343 -0.23707826 -0.2544797 -0.08078415 0.07531503 0.005088221 0.12579678
-0.2550374 -0.25106934 0.18938252 0.14136755 -0.2202113 0.17916504 -0.07690419 -0.11352243
-0.07318078 -0.03314994 -0.15162605 0.18678509 -0.24026401 0.089016885 0.11121833 -0.23695299
-0.16830757 0.31202742 -0.1141 0.09534322 -0.26567215 0.17303078 -0.004263285 -0.15161754
0.07037692 0.20347886 -0.21513835 -0.39284477 -0.025978822 0.25951633 0.059002496 -0.2796821
-0.24275105 -0.3153134 -0.020782627 -0.12751384 0.2240574 0.046359103 0.010495639 0.026595458
-0.20171565 -0.076688424 -0.08243344 0.24072069 0.07936419 -0.21904835 0.076055445 -0.31432936
-0.124600135 0.14034587 0.22821483 -0.06423691 -0.05311654 0.063188255 0.07119114 -0.019388821

layers.0.lin_r.weight f4 [64, 14]
00000000: e7d4 7dbd f9e2 933e 135d 5cbe daf6 0dbd
00000010: 4cc6 2bbe 865e 693e 7c3f 3e3c c36e 7abe
00000020: 93a8 733d 7c18 f33d 4dc4 61bd 42de 2f3e
00000030: 8e98 183d e249 933c bdfe 6a3e aee1 08be
00000040: 68ff 20bd c7cf ddbd a2e4 7e3c 7fce cbbd
00000050: 4ad7 66be a201 32be 6a37 79be ef9b 33bd
00000060: f855 5dbe e549 023d fe69 43bd 3b63 2dbe
00000070: 4686 87be ccfe e63d 6f23 c63d 43ea 65be
00000080: 1bd8 26be a3a2 863e a76e a63c 8d18 67be
00000090: 83e5 f7bc 6b27 72be 0937 5dbd 08de 33be
000000a0: 9fc5 ed3c 12c7 5c3d 0f2f c1bd ee89 54be
000000b0: 0ab8 903e 4ec8 e1bd 0fd7 1fbe 4bc8 35be
000000c0: 24dd 05bd 90f9 a23d 8c74 cebd 11e9 2e3e
000000d0: 860d 8c3e cf07 e6bb e910 543d b1b6 81be
000000e0: 4556 00be 10f3 ef3c da6f a9be c601 813e
000000f0: a535 95bd 97e5 ab3d eb71 73bd 5434 8dbe
00000100: 703d 0dbe 1841 03be 4b1c 573d ab60 8c3b
00000110: e5ce 6fbe ff26 0cbe fa39 9bbd f980 09be
00000120: 3ba7 013e ac85 25be 6924 4b3e 6976 4d3e
00000130: f906 673c 3845 c9bc ee1a 2d3e e0fd 8d3e
00000140: 4fdd 4a3d 5706 a93e aa92 a3bd 5379 e63c
00000150: a63b bf3d 203f 6a3e 919f 4a3d 55f5 443e
00000160: 390f 74be e103 6b3d ffa2 3fbd 925a 5abe
00000170: 6c80 99bd 9152 063d 9269 b93d 3a81 883d
00000180: 4578 66bd 7c69 4dbd 830e 87be e73e ca3e
00000190: 0220 27be f69c 39be 0cbd d03d 19b5 033e
000001a0: e804 4cbe 5edb 5fbe 8b51 993e 14cd b1bd
000001b0: b525 8b3e f78b 02be 6dc4 53be 0d12 16be
000001c0: 1c55 863e 6837 593d 5d90 523e 0c24 41be
000001d0: 7b60 1ebe 2d98 b4bd 6cf3 803e 5656 983d
000001e0: b56f 073d 0f0e 4b3e 99c9 163e 7b66 0fbe
000001f0: 5e21 25be c20a 2a3e 87d7 5abd 2009 00be
00000200: d73e 10be 331e 2e3e 66ae cb3b e665 2bbe
00000210: 536a 6ebd e71b 37bd 41cd 463e e82a 2d3e
00000220: fb85 0b3e a896 613e 023b 65be 6828 80bd
00000230: 9ab4 923e edf2 ca3e d511 db3b 7efe 733d
00000240: 065a c93d d09e c5bd dab1 16be b409 fc3d
00000250: 239c f13d e7f3 2cbe f577 453e d425 a1bd
00000260: 91cb 7f3e d925 0b3e dbf1 5fbe 9727 673c
00000270: 9f1a e2bd 8aad 77be c74a 74be fe90 38be
00000280: b492 0fbe e705 643e a639 463e d1da 2d3e
00000290: bd2d 0a3e 389e 2b3e a814 27be f960 84be
000002a0: 453c 4bbe 5b48 9dbe dc05 9f3d b68d 03be
000002b0: 1560 01bd 9a2d 033e c97d 08bc 8be0 05bd
000002c0: 8c38 debc 309b f73c 02c2 81bd a678 903e
000002d0: 49c1 d5bc 7125 803e b736 d43d 58e6 c2bc
000002e0: 2a76 1c3e b044 1d3c ddb5 443e 0810 473e
000002f0: 2af7 103e 73b5 6ebe 7ac3 10bb 69ac 6dbe
00000300: 734d 4e3e ecfc f13c 4fa7 6b3d 02a2 63bd
00000310: 13e3 98bd f89a 063e 8a66 683e a26a 1fbe
00000320: 6d6c 42bd fc9c 25bd fab0 a2bd 8199 44be
00000330: f881 bd3d de0f 693b 4e34 adbd 6ea3 823d
00000340: 94aa 363e 3d09 703c 776b 3e3e 54f5 49be
00000350: 7045 2cbe 09cb 66be 8995 773a 621d bf3d
00000360: 2725 02be 9f6c 4dbe c3a3 e5bd e7a5 e73d
00000370: 5950 02be 50e4 3abe eb43 c7bd 3e51 743d
00000380: e1e5 103e 868f 1ebd 7093 603c a0d0 293e
00000390: e0e5 233e c478 a03e 017c ee3c f25a c2bd
000003a0: 995d 55bd a3d1 c33d a40f 68be 44ce 243d
000003b0: 2c5d cb3b 4add 723e e4a3 e4bc 33bd 023d
000003c0: 6e5e 303e 3d10 a2bc 100c 6bbe 28b4 763e
000003d0: 8a6c aa3d f629 87be 4c20 283e 9c95 673b
000003e0: 0e57 4cbc 57bc 6dbc 8363 913e d96f 58be
000003f0: 1a75 843d fae3 543e be72 58bb ede7 273e
-0.061970618 0.28884104 -0.2151988 -0.034659244 -0.16774863 0.22789964 0.011611816 -0.24456315
0.059486937 0.118699044 -0.055118848 0.17174628 0.037254862 0.017979566 0.22948737 -0.1336734
-0.039306074 -0.10830646 0.01555744 -0.099514954 -0.22543064 -0.17383435 -0.24337545 -0.04384988
-0.21614826 0.031808753 -0.047708504 -0.16932385 -0.2646963 0.112790674 0.09674727 -0.22452645
-0.16293375 0.26295957 0.020316435 -0.22567959 -0.030260807 -0.2364785 -0.054007564 -0.17565167
0.029024897 0.053900786 -0.09432804 -0.20755741 0.2826541 -0.11024533 -0.15609382 -0.17752187
-0.0326816 0.079577565 -0.10080823 0.17081095 0.27354068 -0.007019974 0.05177394 -0.25334695
-0.12532909 0.029290706 -0.33093148 0.25196666 -0.072856225 0.083934 -0.059434813 -0.27578986
-0.13792968 -0.128178 0.052517217 0.0042839847 -0.23418768 -0.13686751 -0.075794175 -0.13428105
0.1266145 -0.16164273 0.19838108 0.20064701 0.0141007835 -0.024569139 0.16904804 0.27732754
0.049527463 0.3301265 -0.07986958 0.028134024 0.09337549 0.22875643 0.04946858 0.19234212
-0.23833932 0.057376746 -0.046786305 -0.21323612 -0.07495198 0.032793585 0.09053339 0.06665273
-0.05626704 -0.050149426 -0.2637826 0.39501116 -0.16320804 -0.18126282 0.10192308 0.12862052
-0.19923747 -0.21861026 0.29945025 -0.08681694 0.27177206 -0.12748705 -0.20680399 -0.14655323
0.26236808 0.053031355 0.20562883 -0.18861407 -0.15466492 -0.08818088 0.25185716 0.07438342
0.033065517 0.19829582 0.14725341 -0.14003937 -0.1612601 0.16605666 -0.0534282 -0.12503481
-0.14086471 0.17003708 0.0062158583 -0.1673809 -0.058206867 -0.044704344 0.19414236 0.16910899
0.13625328 0.22030127 -0.22385791 -0.06257707 0.28653413 0.39638463 0.0066854754 0.059568875
0.09831624 -0.09649432 -0.14716282 0.12306538 0.11797359 -0.16889916 0.19284041 -0.07868543
0.24979998 0.13588656 -0.21869604 0.01410856 -0.11040234 -0.24187294 -0.2385665 -0.1802406
-0.14020807 0.22267877 0.19357929 0.16978003 0.1349401 0.16759574 -0.16316473 -0.25855234
-0.1984721 -0.30719265 0.077647895 -0.12847027 -0.03158577 0.12810364 -0.008330771 -0.032684844
-0.027126573 0.030225366 -0.06335832 0.28217047 -0.026093142 0.25028566 0.103619985 -0.023791477
0.15279451 0.009598896 0.1921 0.19439709 0.14156786 -0.23311405 -0.002208917 -0.232103
0.20146732 0.029539548 0.057532605 -0.055574425 -0.07465186 0.13145053 0.22695366 -0.15568021
-0.047466684 -0.040432915 -0.07943912 -0.19199182 0.09253305 0.0035562436 -0.08457242 0.06378828
0.17838508 0.01465064 0.18595682 -0.19722492 -0.16823363 -0.2253839 0.0009444585 0.09331776
-0.12709485 -0.20060967 -0.11212876 0.1131094 -0.12725963 -0.18251157 -0.09729751 0.05964779
0.14150192 -0.038711093 0.013707027 0.1658349 0.16005659 0.31342137 0.029111864 -0.09490003
-0.052091215 0.095614694 -0.22662216 0.040235773 0.0062061753 0.23717228 -0.02791018 0.031918716
0.17223522 -0.019783134 -0.2295382 0.24092162 0.083214834 -0.263992 0.1641857 0.0035336977
-0.012471927 -0.014510236 0.28396234 -0.21136416 0.06467648 0.20790091 -0.0033027376 0.16397066

layers.1.lin_l.weight f4 [64, 64]
00000000: 8374 893d eb9a 99bd 9004 efbd 47ea 6ebc
00000010: 0755 4e3d ad25 10bd 5ac4 e43d 7f67 a03d
00000020: b027 e1bc 31f4 073e 59c0 8abd 367b 1f3d
00000030: c6d0 bf3c 42a1 b8bc 1d2f e83c ea2c 8bbd
00000040: a104 b63d 43df 023d bce3 be3d ebbd 01bc
00000050: 9cf0 93bd 611a d23d 9f57 b73b 10aa 853d
00000060: f7ff c33d b868 f6bb 1c23 babd 5402 03bd
00000070: 89bf 73bc 7f7e f9bd bedc f8bd b102 44bc
00000080: 9140 81bd 3613 823d 850b 76bd a070 26be
00000090: 521d 003d 2815 fa3c 7129 9abd 9551 15bd
000000a0: 42e2 7d3d 405a 85bd 142f 2a3d 5b18 88bd
000000b0: ef42 c73d 10c9 e0bd c207 023d e6db 543d
000000c0: 5b7f 96bd 4ce6 843c 691d 09be 8374 31bd
000000d0: d1c5 f7bd e796 3c3a fb73 dd3d 1fb9 c23d
000000e0: 2fd8 95bd 1b71 dd3a 16a3 25bd 7714 5ebc
000000f0: 229e c8bd f331 7d3d 349c ca3d bf41 2ebd
00000100: a048 7c3d 9d1c 633c 7136 cdbd d3d5 95bb
00000110: 7606 8dbc e3f4 eb3d 7450 0dbe 27ea 053e
00000120: 2923 753d 8146 f93c 8e9b 853d f163 22bd
00000130: c3de 77bd 573c bd3d 4da1 00bd 468c 0cbe
00000140: acf4 d43d 2a80 f2bc 6613 f5bc a3fc 5d3d
00000150: a207 783d 7e1a eb3d f815 a1bd 9417 a3bd
00000160: 002f a9bb d5fe c5bd 1396 a13d 4636 d9bd
00000170: 2c86 f7bc 8fe6 b23d 23cd 0d3d 20dc 2b3e
00000180: b467 81bd 7114 cb3c 5973 c63d 8dea 91bd
00000190: 699b 35bd 4fb8 02bd ff13 a33d c46e 533b
000001a0: b24b bd3d de14 0bbe a4f6 0abe d809 1abe
000001b0: 5607 203b f9ad 01be e3ae 21be 6268 9f3d
000001c0: f54b cabd 81df e2bd bc98 443d 1dc5 c43d
000001d0: bc87 a0bd cd11 053e 8c73 a73d aec2 87bd
000001e0: 2d8d 463b 03fa a53d ec51 0d3d 7726 213d
000001f0: 984a 203d 91e3 07be 82a1 3cbd 637e 183e
00000200: ca3a af3d 9a20 d1bd a3e9 d93d 7100 1ebd
00000210: 3264 42bd f099 c73d eaad b33d 6d91 4c3c
00000220: 349c 1ebd 67d2 b2bd 2bb5 9bbc 18df 60bd
00000230: a5c9 6e3c cc27 053e 1a19 93bd bf8e 873b
00000240: c79b 3eba 143a ee3d b86e 9039 1ae3 af3c
00000250: ce67 ebbc 22dd f7bd 81ee cbbd f21d 15bd
00000260: 7a5a f73c 9915 71bd 44bf 38bd 453e d33d
00000270: e57c f3bd ced3 453d 0b3e 1dbd b921 013d
00000280: 3c91 c7bd 5da8 10bd bd6f 7f3c 9727 89bd
00000290: 8fd5 37bd a844 da3d eea9 43bd 65b2 d43d
000002a0: 8850 143d cd57 053d e7f2 d2bd 9906 a4bd
000002b0: b3a0 e9bd 068e ab3d 63ed c9bd 3a8f fd3d
000002c0: bae2 37bd 2a51 81bd 552b a7bd 0c99 2f3d
000002d0: fc71 ccbd 7429 0ebe f9dc efbc 7042 d43d
000002e0: bc92 87bc 6c5e aebd d258 8cbd 6538 0fbd
000002f0: d6c6 64bc 7731 0bbd 45c9 6abd 216f 033e
00000300: 52d9 ad3d 6911 a8bd 8ce6 ebbc ccc9 ca3d
00000310: 8cd0 a33d ffb3 333d a839 1d3e 3cab 5b3b
00000320: 7a3b ef3d e019 193d 335c 5b3c 395d c53d
00000330: edc5 78bd 55f1 963d 417c 7c3d dcbb b4bd
00000340: fafb e0bd 936d 54bc c1f7 c13d e36d f13d
00000350: ad9b 6c3d 75a0 30bd 2d5d e0bd f559 aa3d
00000360: f54b b1bc b1a6 af3d 8cf7 b63d 3aa7 d63d
00000370: 2c8d 873d 7c20 2bbd 7d6d fdbc b6d9 afbd
00000380: 017f 74bd 94c5 05be 1110 7dbc b010 cebd
00000390: 7c94 da3d e131 973c f599 053e 2d47 d53c
000003a0: ac8f 9c3c 8fc2 e53d 3194 5d3b 6a68 643d
000003b0: 7661 c83d ede6 0f3e 5824 513d e08d 623c
000003c0: 2ec5 d53d 9f17 883d 923a f63d df9a a03d
000003d0: 38b0 133d f432 dbbc 0c88 fe3d d0fe 053e
000003e0: 008f 6e3c 1e89 0a3a 2e83 9e3d ce33 983d
000003f0: 021e 81bc 7281 003e ed17 9cbd d803 43ba
0.06711676 -0.075002514 -0.11670792 -0.014582223 0.050374057 -0.03519218 0.111702636 0.0783224
-0.027484745 0.13276745 -0.06774969 0.038935862 0.02341498 -0.022537831 0.028342778 -0.06795676
0.08887602 0.0319512 0.09320781 -0.007918815 -0.07223627 0.102589376 0.005595162 0.065265775
0.09570306 -0.0075198077 -0.09088728 -0.031984642 -0.0148772085 -0.1218233 -0.12151478 -0.011963532
-0.06311143 0.063513204 -0.06006958 -0.162539 0.031277962 0.030527666 -0.075274356 -0.036454756
0.061983354 -0.065113544 0.041548803 -0.066452704 0.097295634 -0.1097585 0.03174568 0.051967524
-0.0734851 0.016223095 -0.13390125 -0.043324005 -0.12098277 0.0007194117 0.10813137 0.09507965
-0.073166244 0.001689467 -0.040438734 -0.013554684 -0.097957864 0.061815213 0.09893075 -0.04254317
0.061592698 0.013861802 -0.100201495 -0.004572609 -0.017214995 0.11521318 -0.13800222 0.13077603
0.059847984 0.030429127 0.0652381 -0.039646093 -0.060515177 0.092400245 -0.03140383 -0.13725385
0.1039823 -0.029602129 -0.029916476 0.05419601 0.060554154 0.11479662 -0.07865518 -0.079634815
-0.0051630735 -0.09667746 0.078899525 -0.10606055 -0.030215345 0.08735382 0.03461946 0.1678319
-0.06318608 0.02479002 0.096899696 -0.07124815 -0.044337664 -0.03191405 0.07962798 0.0032262066
0.09242953 -0.13582179 -0.13570648 -0.15042818 0.0024418435 -0.12664022 -0.1578937 0.07783581
-0.09877769 -0.11077786 0.04799722 0.09607909 -0.07838389 0.12995072 0.08176336 -0.06628929
0.003029655 0.081043266 0.034501955 0.039343324 0.03913364 -0.13270403 -0.046052463 0.14891963
0.08556135 -0.102112964 0.10640266 -0.03857464 -0.047458835 0.09746158 0.08773406 0.012485844
-0.038723186 -0.08731537 -0.019007286 -0.05490026 0.014574443 0.13003463 -0.07182522 0.0041368897
-0.00072711374 0.11632171 0.00027548312 0.021470595 -0.028736021 -0.121027246 -0.099576004 -0.03640551
0.03019451 -0.058858488 -0.04510428 0.10314611 -0.11889056 0.048297696 -0.038389247 0.0315263
-0.09744498 -0.035316814 0.015590605 -0.06697004 -0.0448814 0.106576264 -0.04776948 0.103855886
0.036209613 0.032554436 -0.10300236 -0.08009071 -0.11407604 0.08376698 -0.09859731 0.12380834
-0.044893958 -0.06314309 -0.08162562 0.042870566 -0.09982678 -0.13883 -0.029280173 0.103642344
-0.01654946 -0.08514103 -0.06852879 -0.03496589 -0.013963422 -0.03398272 -0.05732085 0.12835361
0.08488716 -0.08206446 -0.028796457 0.09901771 0.079987615 0.04387283 0.15354025 0.0033518812
0.11681266 0.037378192 0.013388681 0.096369214 -0.06073563 0.07370249 0.061641935 -0.08824894
-0.10985561 -0.012965578 0.094710834 0.11788537 0.05776565 -0.043121774 -0.10955272 0.08317939
-0.021642664 0.08576716 0.089339346 0.10481115 0.06618723 -0.041779026 -0.030935997 -0.08586447
-0.059691433 -0.13063651 -0.015445725 -0.10061777 0.106728524 0.018456401 0.13047011 0.026034916
0.019111477 0.1121875 0.0033810253 0.05576364 0.09784214 0.14052935 0.05106005 0.013827771
0.10438 0.0664513 0.1202289 0.07842039 0.036056727 -0.026757695 0.12428293 0.13085485
0.014560461 0.0005284714 0.07739864 0.07431756 -0.01576138 0.1254938 -0.07621751 -0.00074392324

layers.1.lin_r.weight f4 [64, 64]
00000000: cc8d d73d 8dd0 a73d a247 9dbd 743e bbbc
00000010: 6486 ab3c 263a 23be 763b 753d ba3a 81bc
00000020: af31 083d af04 f83c 7107 ac3d 5883 00be
00000030: edea 1f3d d9b1 4bbd bdbe eb3d 995c 553d
00000040: 79b6 d4bd c540 e23c 92a2 b43d 1f35 f8bd
00000050: 47ad 8c3d b53d 15bd 112c 27be 5891 cbbd
00000060: 9516 83bd 3dd3 823d 83e0 aa3d 58b3 893c
00000070: a1bd 073d c58c 6dbc a5cb 9f3c 6dc4 2fbb
00000080: e5e8 b6bd 8eef c23c 9502 e43c 0e3f 28be
00000090: 9374 c13d 5326 f33c ac0a ebbc e5c7 d4bc
000000a0: 943a f53c f168 debb d3d2 83bd 39d0 4bbd
000000b0: e321 43bc 7ce9 00be 845b 4dbb c21d 483d
000000c0: f32d 113d e5bd 88bc 9a42 183d 1bdc 863d
000000d0: 00c7 5a3d 1d7f cf3d 4909 f53d 2d0c 733d
000000e0: 1644 1abd 30b9 203e 2f8a 4bbd 48d0 8d3d
000000f0: 22fb 2ebd 34f1 fa3c 96cd 18bd 14cd 723d
00000100: 796d f13d 09fb bebd c503 d73d b99a 25be
00000110: 2b73 41bd d36d 0e3e 7abe d43d af26 88bd
00000120: 9a22 c63d 57a5 b5bd 428e f3bc 1140 103d
00000130: 2cfb f03c a8bd 8b3d 438c f13c 62b4 403c
00000140: 2481 993d 08c6 053e 9413 c7bc 2c4d 2bbd
00000150: 2823 e53d adad aebd 50be 17be 574d 73bd
00000160: b925 92bd 4f73 ec3d 6ee8 d5bd 06c8 583d
00000170: ecb2 0bbe 9ccc 913d d2d8 4a3d 2e4c 043d
00000180: 5cf7 84bd 4175 433d 8a03 b8bb 11c2 ccbc
00000190: fd6f 39bd 7ee3 2f39 bdd3 9cbd e695 24bd
000001a0: e3f1 733d 2fef 46bc 4d05 093d e091 7f3d
000001b0: 187e c8bc 96dc 80bc 9c5b 10ba 3d27 77bd
000001c0: 7a60 afbd bc3f bc3d 76f2 d3bd ed6e cd3c
000001d0: a547 fbbd c6a6 ebbd c49b c63d d8f7 233e
000001e0: bf0c efbc 378c 893d 7b10 383d 198a 8b3d
000001f0: 724a 403d 0832 60bd d8f7 8b3d c2e5 733d
00000200: 7309 c93d 844e 773d cc0d 21bd 77d4 5bbd
00000210: 7a23 a4bd ae1f c83d b76a 5f3d 35f3 63bc
00000220: d96b 2ebd aadf 25be a5bf 8cbd ba3d d0bc
00000230: d8d3 8c3d 6b88 fb3c 2c8c b73c e8e9 1cbe
00000240: 4d23 4b3e 31d0 923c f318 4c3d 66d7 6f3d
00000250: a952 f03c 3371 4e3d 7407 ccbc a2fc 48bd
00000260: b644 ccbd 745a c8bd 0405 aebd 36fb b9ba
00000270: dfdc ac3c 12d6 043e c137 123e 1971 f73c
00000280: 532e aabd c2c1 59bd a36f fa3d 095d 123e
00000290: 7752 8c3d 4047 0c3e c764 c23c 5aed dcbc
000002a0: 46a0 973d dbfb c1bd 98f4 173c e193 3b3d
000002b0: 2c0c febd 6d67 c1bc 2235 113e 9a32 b43d
000002c0: 2ce9 903d d073 0d3e e6e8 113c 8d15 36bd
000002d0: 5c03 57bd 928f 19be 9bcd c4bd a1e2 153e
000002e0: b9bd 82bd 3501 263d e897 083d e780 743d
000002f0: 64a4 02bd 8a12 483d 36e0 803d 40d6 963e
00000300: 7ddf 82bd dfb1 e43d 4ade d4bd 306d 96bd
00000310: fa8d d43d 56ca b83c 3038 f33d 4404 cb3d
00000320: f96d babd 1bff 6f3c 4c91 64bd 7041 723c
00000330: 26b1 14bd 75e1 ab3d 94f0 db3c 6116 b13c
00000340: c1d3 0b3d 3da1 d93d 72cd 85bd bfee 5e3d
00000350: 42fc 313d 0eaf afbd 440f a1bd d1cf 37bd
00000360: 0eae 55bd 3f36 9b3c 78a4 f1bd 0b5a 3dbd
00000370: 7fe5 343c c723 b4bd 09ea db3d da41 d2bd
00000380: e7e7 cd3d 1062 ea3c fb9d c93d 9c39 553d
00000390: c281 af3c 40fa 92bd 7eb6 933d 9cb3 dcbd
000003a0: 9b55 763d 1475 92bc a6d5 5abc e5bd ec3d
000003b0: 7f35 5fbd 1806 073e a703 133c cbb6 8e3c
000003c0: 3cf2 95bd 64bd 1b3d 9b34 243b 14bd 843d
000003d0: e8d7 1a3d 6ac2 7b3d fb76 bcbd 3ada c4bd
000003e0: ea4b 833d 6f16 8dbd 2bbf e33d 7a0b 843d
000003f0: 3e9c d73d 5cc1 5abc 822a 063e e817 d43b
0.105250925 0.08194075 -0.076796785 -0.022856928 0.020938106 -0.1594015 0.05987116 -0.015775073
0.033250507 0.03027567 0.08399857 -0.12550104 0.039042402 -0.049730156 0.1151099 0.05209026
-0.103863664 0.027618775 0.0882007 -0.12119507 0.068689875 -0.0364358 -0.16325404 -0.099398315
-0.064007916 0.06387947 0.083436035 0.01680915 0.03313983 -0.014498894 0.019506285 -0.002681996
-0.0893114 0.02379587 0.027833262 -0.16430303 0.09446063 0.02968136 -0.028691612 -0.025974223
0.029935159 -0.0067874123 -0.06436696 -0.049759123 -0.011909935 -0.12589067 -0.0031335065 0.048856504
0.03544421 -0.016692111 0.03717289 0.065849505 0.053412437 0.10131667 0.11964662 0.059337784
-0.037662588 0.15695643 -0.04969233 0.06924492 -0.042719968 0.030632593 -0.037305437 0.05927761
0.117884584 -0.09325225 0.10498766 -0.16172303 -0.047228973 0.13909082 0.10387893 -0.06648003
0.096745685 -0.08869427 -0.02973092 0.03521735 0.029416643 0.068232834 0.029485827 0.011761757
0.07495335 0.13063824 -0.024301328 -0.041821644 0.11188346 -0.0852922 -0.14818692 -0.05939993
-0.07136101 0.11545431 -0.10444723 0.052925132 -0.13642472 0.07119104 0.049523182 0.032299213
-0.064924926 0.047719244 -0.0056156563 -0.024994882 -0.045272816 0.00016774048 -0.07657573 -0.040182017
0.059556853 -0.012141987 0.03345232 0.062394977 -0.024474189 -0.015730184 -0.0005506815 -0.060340155
-0.08563323 0.09191844 -0.1034898 0.025077308 -0.122695245 -0.11506419 0.09697679 0.16012514
-0.029180882 0.06716197 0.044937592 0.068134494 0.046945997 -0.054735214 0.06834382 0.059545286
0.098162554 0.060377613 -0.0393198 -0.05366942 -0.08014579 0.097716674 0.05454513 -0.013912966
-0.04258332 -0.16198602 -0.06872491 -0.025420059 0.068763435 0.030704698 0.022405706 -0.15323603
0.19837685 0.017921539 0.04982848 0.05855503 0.02933629 0.050400924 -0.024905898 -0.049069054
-0.09974043 -0.097828776 -0.084970504 -0.0014189247 0.021101413 0.12972286 0.14279081 0.030205296
-0.08309617 -0.053163297 0.12228324 0.14293303 0.068516664 0.13699055 0.023729695 -0.026968647
0.074036166 -0.09471866 0.009274624 0.045795325 -0.12404665 -0.023608888 0.14180425 0.08798714
0.07075724 0.1381371 0.008905625 -0.044454146 -0.052493438 -0.14996174 -0.09609529 0.14637233
-0.06383843 0.040528495 0.033347994 0.059693243 -0.031895056 0.048845805 0.06292765 0.29460335
-0.06390283 0.11166739 -0.10393961 -0.073450446 0.103786424 0.022557419 0.11875951 0.09912923
-0.09103007 0.014648224 -0.05580263 0.014786109 -0.036301754 0.08392612 0.026848115 0.021617116
0.03413749 0.10626457 -0.06533326 0.054426905 0.043453462 -0.08578311 -0.0786424 -0.044875924
-0.052167945 0.018946765 -0.11798948 -0.04622845 0.011041044 -0.087958865 0.10737998 -0.102664664
0.100539975 0.028611213 0.098445855 0.052056894 0.021424178 -0.07176638 0.07212542 -0.10776445
0.060140233 -0.017878093 -0.013356602 0.11559657 -0.054494377 0.13185918 0.008973039 0.017421147
-0.07321593 0.038022414 0.002505577 0.06481376 0.03780356 0.061464705 -0.09202381 -0.09611936
0.06410964 -0.068890445 0.11120447 0.064475015 0.10527848 -0.0133517645 0.13102153 0.0064725764

layers.2.lin_l.weight f4 [32, 64]
00000000: 2a09 4cbd b411 efbc 3aec c43d 0d14 8a3d
00000010: 54bd 753d b0de e63d 28b7 683e a3dc 97bd
00000020: 63d8 103e cd89 adbd 3388 a53c 285f f5bd
00000030: 89b3 993d e1ee e03d 4d3b 71bd 6e26 ea3d
00000040: 04ff 17be 5340 a33d 250a 9abc 062d 81bd
00000050: ed74 aa3d fa32 66bd 97c0 ed3d e898 ee3d
00000060: b91f 443d dd1b c13c 4dbf 9c3d d46d 52bd
00000070: b439 3b3d 559e 4d3c 235b 023e 28ac eabd
00000080: ef2f ffbb fd3e a13b 25e2 c4bd dd76 b2bc
00000090: 9a2f 0d3e 9db9 9fbd 243a 6dbd 9aad b1bd
000000a0: 4ad5 de3d b5f3 cdbc c62b ac3d 6384 803a
000000b0: 0bc4 3abd 929c 9dbd 0675 043e 4518 a4bd
000000c0: cec0 023e f515 e53d 8769 69bd 6540 b1bc
000000d0: 298e 013d 29d6 b13d b7ef e33d f60f 7b3d
000000e0: 09b8 09bb 35f7 c13d 382d afbd 0623 d2bd
000000f0: 1829 993c 8939 15bd d010 e3bd e232 6a3d
00000100: e21c e53d 1349 ee3d d526 f63d 2a54 82bd
00000110: ba48 f1bd fc65 58bd 5339 dfbd 7b0b 273c
00000120: ab56 f3bc 6d3b f9bb bd3c 24be f7b7 8abc
00000130: 5fcd cf3d c82b 9fbd f832 a7bd a0c4 2d3c
00000140: 6eb2 a93b 3efa f53d e037 933b 5999 49bd
00000150: 2bbb a03c 13dd f23d 9b8d c7bd 0389 d0bd
00000160: 392a 6cbd dc14 9b3d 5154 c6bd 4d17 d43c
00000170: 1f29 a33d e5ab 3bbd 8d72 f3bc 674b ed3d
00000180: 4bd6 903c 147e d5bd d8a2 35bc a80f 823d
00000190: 2e59 96bd e473 e03d 08e0 cc3d 8427 42bc
000001a0: 20b3 02bd 807d 543d 4eaa 87bb 64bb 123e
000001b0: 717a a8bd 9912 4d3d db2e 0ebe 950b bf3d
000001c0: 38cd a0bc 361d 363e 1553 b2bd 53fe 5e3d
000001d0: df5d 993d 52be ac3d 7086 ba3c 9fa5 9bbd
000001e0: 3d83 b9bd 0cda c03d 2475 613d 8db3 433c
000001f0: 27a2 363e 4165 b4bd 3d73 18bc 25db 2dbd
00000200: 3973 12bd fe11 d53c e25f 973a 8b9e a33d
00000210: 8b6e 2c3d e10a 553d b0ee 7c3d 06e4 eb3d
00000220: 9c1b e1bc d8d3 8a3d c1cb 093d acc2 683b
00000230: 01eb 813d 9983 5cbd 4bb3 783c 5496 09bd
00000240: 4353 393e 1585 963d 1f30 8bbd 3f21 043e
00000250: d797 dfbd 2e6d 0dbd 6e6d 65bd 3a09 eabd
00000260: d1d3 d2bd 70e2 80bd 3c3f 0fbe ba49 523d
00000270: 5f68 203d 3826 60bd 830a b2bd 3004 b43d
00000280: 36ba f8bb cbf0 863c a316 163e d1f4 ccbc
00000290: 4f32 86bb e810 8a3d 296b 923d 0e0e 20bc
000002a0: 51f4 54bc f845 c5bd 2f84 4d3c 476c 943d
000002b0: d6da 93bd 494f e43d 084e 4e3b 482f d9bc
000002c0: 248c 4c3d e280 173e 0133 c4bd 5eb8 063e
000002d0: 899b cebd 503e fabd 8ee8 873c acfe 8ebd
000002e0: 7931 ef3d 9f7f ae3d 182b a93c bec9 bcbc
000002f0: 9820 263e 45e4 a93d e3ae dc3d 2819 b8bd
00000300: 37f1 a0bd f9f9 a83c aad1 6d3b 70af 843d
00000310: c012 0fbd 6225 a7bc 6418 ccbd 138b 90bd
00000320: 662d f2bc 308c 9d3d b688 cdbd 1b89 94bd
00000330: f0ef 653d 7fb9 7abd 39bb c53d 5f85 50bd
00000340: aa05 063e 4ab3 893d a288 22bd 3eb3 763d
00000350: ede3 a33d 261a abbd 67ba 9f3d 67ab 8f3d
00000360: e7fd fb3d b655 d73d 72a9 ed3c 547b 67bd
00000370: 69a5 12be b369 58bd 0ff1 d6bd 6c71 e13d
00000380: 6327 703d 2021 cabd 7334 313d 9c1d 473d
00000390: 2f59 dfbc fc08 afbd 5362 a4bd c664 eb3d
000003a0: 0f12 803c f0ff f6bc 055b a43d d53f 01bd
000003b0: afca d8bd 6650 87bd 4e61 dcbd 4fa3 3cbc
000003c0: c951 2c3d aed5 3fbd e7f8 11be 909e 5a3d
000003d0: a167 e93c ef73 dc3c 4c2e d1bd b871 cbbd
000003e0: e67c b9bd 8eaf e5bd b403 343d f5b7 07bd
000003f0: df92 c93d 0fb7 00be cec1 803d 5a3a d03c
-0.049813427 -0.029183246 0.09615369 0.06742106 0.05999501 0.11272943 0.22726119 -0.0741513
0.14145045 -0.08473549 0.020206546 -0.1198104 0.07504947 0.109830625 -0.058894444 0.11433111
-0.14843374 0.07971253 -0.018803665 -0.06307416 0.08323083 -0.05620096 0.11608999 0.11650258
0.047881816 0.023572857 0.07653675 -0.05137427 0.045709327 0.012549956 0.12730078 -0.114586174
-0.0077876966 0.004920839 -0.09613446 -0.021785194 0.1378769 -0.07799075 -0.057916775 -0.0867569
0.108805254 -0.025140623 0.084067866 0.0009805079 -0.045597117 -0.07695879 0.12935266 -0.080124415
0.12768862 0.111858286 -0.056985404 -0.021637151 0.031629715 0.08683426 0.11129706 0.06129452
-0.0021014235 0.09470979 -0.08553547 -0.102605864 0.018696353 -0.036431823 -0.11087191 0.057177432
0.111871496 0.116350316 0.12019125 -0.06363709 -0.117814496 -0.052831635 -0.108996056 0.010195608
-0.029704412 -0.007605961 -0.16038795 -0.016933424 0.10146593 -0.077720225 -0.081640184 0.010605961
0.005178741 0.120106205 0.004492745 -0.04921851 0.019620499 0.11858573 -0.09743806 -0.10182383
-0.057657454 0.07572338 -0.09684051 0.025890017 0.079668276 -0.04581823 -0.029717708 0.115866475
0.017680308 -0.10424438 -0.011086188 0.063506424 -0.073412284 0.109596044 0.10003668 -0.011850242
-0.03190911 0.0518775 -0.004140175 0.14329296 -0.08226479 0.050066564 -0.13885061 0.09328381
-0.019629106 0.1778458 -0.08707253 0.05444176 0.074886076 0.08434738 0.022769183 -0.07599949
-0.09058235 0.09416589 0.055043355 0.011944664 0.17835294 -0.08808375 -0.009304819 -0.04244532
-0.035754416 0.026009556 0.0011548961 0.07989224 0.04209761 0.052012328 0.061751068 0.115181014
-0.027478985 0.06778687 0.03364158 0.0035516424 0.063436516 -0.05383644 0.0151794655 -0.03359063
0.18098168 0.07349602 -0.06796288 0.12903307 -0.10917633 -0.03452795 -0.056012563 -0.11427541
-0.10294307 -0.062931895 -0.13988966 0.051339842 0.039162036 -0.05472395 -0.08693411 0.08789861
-0.0075905574 0.01647224 0.14657073 -0.025019081 -0.0040953527 0.06741506 0.071493454 -0.009768976
-0.012997703 -0.09632486 0.012543722 0.07247215 -0.07219474 0.11147935 0.0031479616 -0.026511803
0.049938336 0.14795259 -0.09580041 0.13156268 -0.1008826 -0.122189164 0.016590383 -0.069821686
0.11679358 0.085204355 0.020650432 -0.023045417 0.16223371 0.08295492 0.107755445 -0.08989173
-0.07858508 0.020627009 0.00362883 0.064787745 -0.03492999 -0.020403568 -0.0996559 -0.07057776
-0.029562663 0.07692754 -0.10035841 -0.07252713 0.056137025 -0.06121206 0.096548505 -0.050908443
0.13088098 0.0672365 -0.039681084 0.060229532 0.08002458 -0.08354597 0.07799225 0.07015114
0.123042874 0.10514395 0.029011462 -0.0565141 -0.14320911 -0.052835178 -0.10495197 0.11007962
0.058631312 -0.09869599 0.04326291 0.048612222 -0.027264206 -0.085466355 -0.08026566 0.114938304
0.015633611 -0.030151337 0.08025173 -0.031555016 -0.10585534 -0.06607132 -0.10760747 -0.011513545
0.042070184 -0.04683464 -0.14255105 0.053373873 0.028491797 0.02691075 -0.102139086 -0.099337995
-0.090570256 -0.11215125 0.043948844 -0.03313442 0.098424666 -0.12569831 0.06286965 0.02541845

layers.2.lin_r.weight f4 [32, 64]
00000000: 951a dabd 828c 433d 088d a83c e721 a33d
00000010: 9780 ed3d c2c7 2ebd 3733 513e 412a aaba
00000020: 98bc 9ebd 4582 aebd 6d22 013e a624 11be
00000030: 8875 f93d 3983 8fbd cbd9 aabc 29d2 e43d
00000040: 1ec2 d5bc 2532 23bd 7917 043d 71d6 ea3d
00000050: 6f9a bf3d 7098 c13d f4b9 f93b 8f98 dbbc
00000060: 8a26 50bd 7b15 bebd d0e8 9a3d 257a 63bd
00000070: ff91 f83d 48c4 883c 217a 7bbd fc5c 7e3d
00000080: 8302 fc3d 8743 da3d 57c9 523d caca 3ebd
00000090: 9eef 04bd e819 74bd 725e 2fbd 0972 913d
000000a0: c419 bc3d 887a b93d 82bf 263d 1b5e cfbd
000000b0: 3192 4c3d b86a c6bc 318f 05bd 7c53 883d
000000c0: 69bb 89bd 477c 563d 4341 e2bc 6f2d 11bd
000000d0: 686e a33d 98c3 d5bd c6cd 963c 507d b4bb
000000e0: b07d c2bd 80a4 bd3d e870 98bc 4888 12bd
000000f0: 2ebd 1dbe 483c 47bd e987 03be 56fc 103d
00000100: dc02 8abd abc2 0e3e b5b0 003d 2db8 c63c
00000110: 1dda b8bd dac3 c33d 4eb6 803d 8052 6dbd
00000120: e327 a23d 11b5 cdbb e634 6ebe 4d2c c43d
00000130: 6e0b c43d 6fb1 7b3d 3274 913d 5ebf 9ebd
00000140: 4bd6 3e3e 0ac6 0ebd b262 0bbe 5c04 253e
00000150: 389d 30bd 6afd 5dbd 9c92 b1bb 57b7 c63d
00000160: 973d 30be 3d4e 11be 3707 983c 36cd c3bb
00000170: 3c05 853d 926c 843d 0d34 acbd 844c d43d
00000180: daf6 98bd b4c1 b63d 0969 503e b6cb 3a3d
00000190: fea8 90bd bdb5 04bd 23b5 c8bc d7e6 31bd
000001a0: 38ac c9bd b5ee 9ebd 251c 143e 7420 803d
000001b0: 6c4d 4ebd 0336 6c3e 25ae bcbd cfbb 933c
000001c0: 1c75 db3c ad89 073e 410a ee3c b3fc 2c3e
000001d0: d1a1 5f3c a952 d43d 3c77 4b3d fb68 d13d
000001e0: bfe4 71bd cdb3 bb3d 609c b93c ef6b 413d
000001f0: acb9 143e 4f1c 16bd 1b2e 8f3c 4256 b4bd
00000200: 3b05 6e3d 4ce4 d33d 712a 1f3e 2dcf 8d3b
00000210: 3547 71be 6769 d03d be18 41bd 0406 88bd
00000220: 2d6f 4ebc b0c7 b83d 33aa cabd 2663 093e
00000230: f393 ab3d 1e60 35bc dbba cebd 68e1 04bd
00000240: 5434 0c3e 68e5 0d3e ef55 7d3d 2bee d0bd
00000250: 6772 ff3c 3b1e 3f3d 60ea 853d 148b b53c
00000260: 7612 c4bd 42d1 253d e698 afbd 69de 043e
00000270: a6bf 173c 1bfb af3b fe47 47bd 5aa0 f9bd
00000280: cf6e d7bd 00ea cfbd d6de bbbb 69a2 bbbd
00000290: d8b9 c4bd 35ec 383e 8bb2 a93d efc1 8c3c
000002a0: 4142 01bc 7141 57bd 0c8a 3e3e d5f9 d2bc
000002b0: a841 e33c 316d 97bb d4f7 a83d 835a ac3b
000002c0: 155c a8bc 3ca4 ce3d e0f1 bd3d a8fa 8e3d
000002d0: 7c15 1b3e ee63 0d3e 0d07 c1bc 0bbd da3d
000002e0: 6fb3 213e 2244 9bbc c649 e83d 070d 123d
000002f0: 1e33 023e 2281 113e f9fc 263d 8470 e7bc
00000300: bc09 a93d 68bf 333d c7cb 95bd c747 493c
00000310: 51e3 1fbe e87f c83d 44a0 17be 22ef b2bd
00000320: 0fc5 393d d3c2 46bd 2400 b73d 4e87 9b3d
00000330: 1778 bebd 3916 523d 1485 babd a73b e2bd
00000340: 869d a7bd 495e ce3c 8e28 1abc 980f 0a3d
00000350: 31ef 29bd 3c64 1b3d fe15 fe3d 0d05 f13c
00000360: 92a0 00bd 8187 fb3d 7651 19bd e688 2fbd
00000370: fe7d c53c c5bc d4bd 625f 213d 2d9a 2fbd
00000380: 0d94 c93d 7f31 f6bc 07fd 353d 9103 d53d
00000390: 891c 31bd 7374 be3d 83ed bdbd 32e2 733d
000003a0: 78a5 9abd c11c f9bd 7701 e63c 5056 01be
000003b0: 16cd f63c 87b3 213d 0fb8 363d 996e 4f3d
000003c0: 4473 0abd 8c96 983d d1e1 973d 19c0 abbd
000003d0: ea8b 203b ca06 3f3a d782 133d 4038 5e3c
000003e0: 5dd8 df3d 073b 27bc 8c61 063d 11d8 efbc
000003f0: 1e62 e5bc 087f f2bb 38f3 56bd cfc2 2abc
-0.10649601 0.04774142 0.020575061 0.07965451 0.11596792 -0.042670973 0.20429693 -0.0012982563
-0.07750815 -0.08520941 0.12610789 -0.14174137 0.121806204 -0.070074506 -0.020855805 0.11172897
-0.026093539 -0.039842743 0.032248948 0.11466683 0.09355628 0.09452903 0.0076210443 -0.026806144
-0.050818004 -0.09281441 0.07563937 -0.055536408 0.121372215 0.016695157 -0.061395768 0.062100396
0.123051666 0.10657411 0.051461544 -0.046580113 -0.03245508 -0.05959502 -0.04281468 0.071018286
0.09184602 0.09056574 0.04070998 -0.10125371 0.049944106 -0.02422081 -0.03260726 0.066565484
-0.06725199 0.052364614 -0.02761901 -0.03544372 0.07980043 -0.10437697 0.018408667 -0.0055081025
-0.09496629 0.092598915 -0.018608525 -0.0357745 -0.15404198 -0.048641473 -0.12844814 0.035396896
-0.06738827 0.13941447 0.03141852 0.024257744 -0.09025977 0.0955884 0.06284772 -0.057940006
0.07917764 -0.0062776883 -0.23262367 0.09578762 0.095724925 0.06144851 0.071022406 -0.07751344
0.18636434 -0.034856834 -0.13611868 0.16114944 -0.043118685 -0.054196753 -0.0054190885 0.09702938
-0.17210995 -0.14190002 0.018558128 -0.005975391 0.06495139 0.06466021 -0.084083654 0.10366157
-0.07468958 0.08923665 0.20352568 0.04560443 -0.07063483 -0.03239988 -0.024500435 -0.043433037
-0.09847301 -0.077603735 0.14463861 0.0625619 -0.050366804 0.23067479 -0.09212903 0.01803389
0.02678924 0.13236113 0.029057624 0.16893272 0.01364942 0.10367329 0.049674258 0.102251016
-0.05905604 0.09165154 0.022657573 0.047222074 0.14523953 -0.03664809 0.01747804 -0.08805515
0.058110457 0.103462785 0.15543534 0.004327676 -0.2356232 0.10176354 -0.047142737 -0.066417724
-0.012599749 0.09022462 -0.09895744 0.13416728 0.083778284 -0.011070279 -0.100942336 -0.032441527
0.13691837 0.13857043 0.06184953 -0.10201677 0.031182481 0.04665969 0.06538844 0.022161044
-0.09573834 0.040482767 -0.08574085 0.12975468 0.009262001 0.0053705103 -0.04865264 -0.12188788
-0.10519182 -0.10152054 -0.005733351 -0.09161837 -0.096057594 0.18058856 0.082860075 0.017182318
-0.007889331 -0.052552644 0.18607348 -0.025753895 0.027741268 -0.004621171 0.082503945 0.0052598133
-0.02055172 0.10089919 0.092746496 0.06981403 0.15144914 0.13807651 -0.023562932 0.10680588
0.15791105 -0.018953387 0.11342196 0.035656955 0.12714812 0.14209417 0.040768597 -0.028251894
0.0825381 0.04388371 -0.07314258 0.012285179 -0.15614058 0.09790021 -0.1480723 -0.08737017
0.045353945 -0.048525643 0.08935574 0.07594167 -0.09300249 0.051290724 -0.09107414 -0.11046534
-0.08184342 0.025191443 -0.009409083 0.033706278 -0.041487876 0.037937388 0.124065384 0.029421354
-0.03140313 0.12281705 -0.037431203 -0.042855166 0.02410793 -0.103875674 0.039397605 -0.042871643
0.098426916 -0.030052898 0.04443076 0.10401071 -0.043240104 0.09299555 -0.092738174 0.05954189
-0.07551092 -0.121636875 0.02807687 -0.12630582 0.03012709 0.03947785 0.044609126 0.050642584
-0.033801332 0.074505895 0.07416118 -0.08386249 0.0024497458 0.00072870834 0.03601345 0.013563216
0.1092994 -0.010206944 0.03280787 -0.029277833 -0.028000887 -0.007400397 -0.052478045 -0.010422423

fc11.weight f4 [16, 32]
00000000: c3d6 e93d c98c 8a3c 237f ccbc 0b51 99bd
00000010: 0567 523d db3f efbd e160 30be 0ee0 e3bd
00000020: 31ab a4bd 3590 673d 95d7 aabd b151 1f3e
00000030: 8a0c 9bbd 5571 d3bd 3b82 dbbd a7d4 d23d
00000040: 06fe 67bd 3f2a ec3c 8e01 3b3c 06cf fb3c
00000050: ee52 8bbd ec3b 83bd 513e bdbd c68d 5bbd
00000060: 648f 0abd e959 2fbc 2877 f6bc 4dc6 803b
00000070: d71d a53a bb49 19be 4464 f73d a148 11be
00000080: 7e98 623d e806 07be 6639 b83a 1ff1 253e
00000090: 55af 8dbc e20b 113e 44fb 673c f6e9 f7bb
000000a0: e9e2 ad3d 37e8 293e 9f85 89bd 1e82 17be
000000b0: aa1e 58bd 6c3c 30be d0b4 dabd 6ab7 f03d
000000c0: 8d46 c1bd c35e e0bd fb28 c3bd 3af9 eebd
000000d0: 5f9c cabd 172c 193e 7fb9 003e 2ed0 ae3d
000000e0: cb13 1fbe ab4f 083d 588e 16be 6d67 ebbd
000000f0: 5f5a 523d 0cfe f23b 3a0a 4cbd 9b1d a7bd
00000100: 28cd d43c 0e6c 9b3d 50de c339 6e67 b7bb
00000110: 1f7f 853d d881 163e ea41 f6bd 8d88 1c3d
00000120: 8703 b33d d81a 12be 0b9b 67bd d175 b73d
00000130: 363e 5a3d f355 aebd f453 9d3d ec9e dcbd
00000140: 4a98 823d ae3a 223e 09b3 c3bd a8e5 8b3d
00000150: 309e 0ebe cc21 de3d 23b4 6d3c e8e1 403d
00000160: ee24 1ebe 64ff 37bd 4cc5 cf3c c010 89bd
00000170: b24a 58bd 5a9e 98bd 656d 3ebe 988a c5bd
00000180: 9569 fcbc 6a18 c63d b79e fd3d 084e ec3c
00000190: 3bd5 aebd 91f3 00bd 8675 483d 66ab 053e
000001a0: e151 2dbd ec61 e83d bfb0 08be a719 1e3e
000001b0: dfb3 883d a0b9 d63b ca49 d8bd 7ae2 0abe
000001c0: 469e 8bbd 4994 2ebd c2c1 c2bd 8703 3f3c
000001d0: 4e34 d9bd 6cb9 97bd 8bde 13be a438 2dbe
000001e0: 7d05 02be e983 f63d 1b0f 15bc 1e66 703d
000001f0: eaea 973b c452 adbd f08b a93d cf7d 85bc
00000200: 13b6 2fbe cc25 be3d dd8a a4bc 0851 90bb
00000210: 5123 123e a959 f63c 3e41 d23d e474 c4bd
00000220: 8a3e 14be 8d74 f2bc a18c 2abd ecac 1fbe
00000230: b31b c03d d266 953d 6815 0fbd de34 00be
00000240: b440 80bd 2023 a33d 9793 03be b433 ec3b
00000250: 0322 98bd c54b 033e 461a bd3d b554 cb3d
00000260: 7d86 8abd 52b2 d7bc d9b8 15be 3f56 28be
00000270: 0dc6 57bd 3822 0dbe a03d ba3d 1ffd 463c
00000280: c1e7 a03c c014 3abd 5060 17be b713 20be
00000290: c469 003e f248 833d 16cb dbbd d4e8 a93d
000002a0: 960a 18be a1e0 aabd a90d ba3c 71dc a2bd
000002b0: 7621 09be ba61 d03d dae1 b9bd 8ce0 773d
000002c0: 6f55 1bbd c915 d3bc 7380 0e3d f580 c43d
000002d0: 9465 643d 0528 e23c 7ae4 cdbd 0a22 ebbd
000002e0: 8a4e 9c3d 2f46 6abc bbfd 2d3e 441d 8e3d
000002f0: 1173 15bd ca0e a73c eac6 173e b806 383d
00000300: f0c6 b1bd 854e a9bd 753e 0b3e abed 883d
00000310: 879d 1cbd 342e 0e3e 7573 e53d 493a 9dbd
00000320: ceae 3e3d 5bd4 003e 4d99 013e 1d35 09be
00000330: df37 7f3d 7fb4 963c 7517 f2bd ab7c ecbc
00000340: 5958 dcbd 9fa6 0cbe 9636 f7bd adae 85bd
00000350: 83a7 05be 529f 35bd 57dc d93d 52e1 12be
00000360: ec46 843d 3aa5 debc 4124 ae3b d990 a83d
00000370: 104b c2bd aab3 7ebd 8921 fe3d 6a9d 263e
00000380: 05c5 a9bd 437b 3a3e 94e6 2d3e bd4c 313d
00000390: bfa1 98bd 6cc6 12be b8e6 cebd 35ff 62bd
000003a0: 0793 113d feab 2f3d f218 0f3e 2475 62bd
000003b0: 1097 00bd ed15 6b3d 0fce 29be 9906 633e
000003c0: 33e9 033c af00 fbbd 5baa 04be 927a c0bd
000003d0: abde 003e 6e5b 743d 1404 a73d 583b 503e
000003e0: 0a16 923d ff03 0abe dbc8 2d3d 68f1 cabd
000003f0: 7061 b33d cc07 7f3d e88b 963c c358 cd3c
0.11417916 0.016912835 -0.024962967 -0.07486161 0.05136778 -0.11682101 -0.17224456 -0.111267194
-0.08040465 0.05653401 -0.083419 0.15558507 -0.07570751 -0.10324351 -0.10718199 0.102944665
-0.05663874 0.028828738 0.011413945 0.030738365 -0.06802927 -0.064079136 -0.092404015 -0.053602003
-0.033828154 -0.010702589 -0.030086115 0.0039298893 0.0012597394 -0.14969532 0.12079671 -0.14187862
0.05532121 -0.13186228 0.0014055192 0.16205262 -0.017295519 0.14164689 0.0141590275 -0.007565732
0.08490545 0.16592489 -0.06714939 -0.1479573 -0.05276362 -0.17210549 -0.106790185 0.117537335
-0.094372846 -0.10955574 -0.09529301 -0.1166863 -0.09893107 0.14958225 0.12570761 0.08535801
-0.15534894 0.033279102 -0.14702737 -0.11494336 0.051355716 0.0074155387 -0.04981444 -0.08159944
0.025976732 0.07588969 0.00037358934 -0.0055970466 0.06518387 0.14697969 -0.12024291 0.038216162
0.08740907 -0.14268053 -0.056544345 0.089580186 0.053281985 -0.08512487 0.076820284 -0.107724994
0.06376703 0.15842697 -0.095556326 0.06830913 -0.13927531 0.1084629 0.01450828 0.04709044
-0.15443775 -0.044921294 0.025362633 -0.06692648 -0.05280561 -0.07452078 -0.18596418 -0.09645575
-0.030812064 0.09672625 0.12383788 0.028845802 -0.08536764 -0.031482283 0.048940204 0.13053665
-0.042314414 0.11346802 -0.13348673 0.15439473 0.06674933 0.00655289 -0.10560949 -0.13562956
-0.06817298 -0.042621884 -0.095096126 0.011658556 -0.106056795 -0.07408413 -0.14440362 -0.16916138
-0.12697406 0.120368786 -0.00909784 0.058691137 0.0046361582 -0.08463052 0.08278644 -0.016295342
-0.171593 0.09284553 -0.020085746 -0.004404191 0.14271285 0.03007205 0.1026635 -0.095926076
-0.14476982 -0.029596591 -0.04163802 -0.15593308 0.09380283 0.07295002 -0.034932524 -0.12520167
-0.06262341 0.07965684 -0.1284927 0.007208312 -0.07428362 0.12821873 0.09233527 0.09928266
-0.06763933 -0.026330147 -0.14621295 -0.1643915 -0.05267911 -0.13782585 0.09093785 0.01214531
0.019641759 -0.045429945 -0.14782834 -0.1563252 0.12540346 0.064103976 -0.10732095 0.082963616
-0.14847788 -0.08343626 0.022711592 -0.07952202 -0.1339167 0.1017489 -0.09076281 0.06051688
-0.037923273 -0.025767224 0.034790467 0.09594909 0.055760935 0.027606973 -0.10053344 -0.11481102
0.07632168 -0.01429896 0.16991322 0.06939176 -0.03648669 0.020392794 0.14821973 0.044928282
-0.086805224 -0.082669295 0.13598044 0.066859566 -0.038236167 0.13884813 0.11203662 -0.07677133
0.046553425 0.12581007 0.12656136 -0.13399167 0.062309142 0.018396614 -0.1182088 -0.02886804
-0.107590385 -0.13735436 -0.12070958 -0.065274574 -0.13052182 -0.044341393 0.106377296 -0.14343765
0.0645884 -0.027178396 0.0053143804 0.082307525 -0.09486973 -0.06218306 0.1240874 0.16270986
-0.082895316 0.18211083 0.1698249 0.043286074 -0.074527256 -0.14333504 -0.101026 -0.055419166
0.035540607 0.042888634 0.1397436 -0.055287495 -0.031394064 0.057393957 -0.16582511 0.22170486
0.0080512045 -0.1225599 -0.1295561 -0.093983784 0.12584941 0.059657507 0.08155075 0.20335138
0.0713311 -0.13478087 0.04242788 -0.09909326 0.08758819 0.062263295 0.01837726 0.025066739

fc11.bias f4 [16]
00000000: 59d4 8e3d 8748 92bd 22d6 02be f882 0dbe
00000010: 1663 393d d910 f23d 151d 11be e5ee 7f3e
00000020: 93c4 e73c 1773 2e3e 8e7a 853d b3fe 96bb
00000030: 9b03 8d3e b062 eb3b 9fbd d5bd d088 853d
0.06974096 -0.0714274 -0.12776998 -0.13819492 0.04526051 0.1181962 -0.1417125 0.24993475
0.028291976 0.17036091 0.06517516 -0.004607999 0.27541813 0.0071833953 -0.10436558 0.065202355

fc12.weight f4 [1, 16]
00000000: 0b8f 3b3e 9a9b a5bd 1d0d 043c 755c 3c3e
00000010: ada3 163e 570e 383e 7419 5bbe 8783 0bbe
00000020: 0e27 a3be 3f24 413d afe9 17be a41f 823d
00000030: 1c1c 1cbe 5cdb 733d 7859 de3c 56bd 103e
0.18316285 -0.08086319 0.008059767 0.18394645 0.14710875 0.1797422 -0.21396428 -0.13624392
-0.31865734 0.047153708 -0.14835237 0.06353691 -0.15245098 0.05953537 0.027142271 0.14134726
