trained_models/2022-09-16_21:18:03-GraphSAGE_16_3/base_model.pt (torch, 13063 bytes, 9 tensors)

layers.0.lin_l.weight f4 [16, 14]
0	0x3cb8d06c	0.02256032
1	0x3eabb9c4	0.33540165
2	0xbe389206	-0.18024454
3	0x3e697cdc	0.22801536
4	0xbdae6a6b	-0.08516391
5	0xbe6a3c96	-0.22874674
6	0x3bd01e23	0.006351249
7	0xbda621b0	-0.08111894
8	0x3ded612a	0.11590798
9	0x3e56cdc0	0.20976925
10	0x3dda327c	0.106541604
11	0x3e3904c2	0.18068221
12	0x3d6ff71c	0.05858527
13	0x3e1f0e16	0.15532717
14	0x3df292ed	0.1184443
15	0x3e935c22	0.2878123
16	0xbdb305ca	-0.087413386
17	0x3e61d316	0.22053179
18	0xbe351b2d	-0.17686148
19	0xbdb82824	-0.08992031
20	0x3da6870b	0.08131226
21	0x3e23b6f1	0.15987755
22	0xbd1dcbf9	-0.0385246
23	0xbe774d40	-0.24150562
24	0xbe08b70f	-0.13351081
25	0x3e6a0f3a	0.22857371
26	0x3e681729	0.22665085
27	0xbd9d157f	-0.07670116
28	0x3e4765cb	0.19472425
29	0x3db6b9cc	0.08922157
30	0x3e57e253	0.2108243
31	0xbe707a5a	-0.23484173
32	0x3cf07fa3	0.029357737
33	0xbe4848a2	-0.19558957
34	0x3d253105	0.04032995
35	0xbd1d4fda	-0.03840623
36	0x3e869938	0.26288772
37	0xbc62599f	-0.013815313
38	0x3e58e564	0.21181256
39	0x3d87fce6	0.066400334
40	0xbcf3d6ed	-0.02976557
41	0xbd5ee4d8	-0.05441746
42	0xbe4d9ae0	-0.20078611
43	0x3d4298b4	0.04750891
44	0x3c1f214b	0.0097125275
45	0xbd70a659	-0.05875239
46	0xbe51d228	-0.20490324
47	0x3d0b7748	0.034049302
48	0xbd2692e0	-0.040667415
49	0xbe67c049	-0.22631945
50	0x3d813fc5	0.06310991
51	0x3e1e8933	0.15482025
52	0xbe7cba26	-0.24680385
53	0xbe356909	-0.17715849
54	0x3e683838	0.22677696
55	0xbd6d774f	-0.05797511
56	0x3e0c6771	0.13711335
57	0x3ea4055c	0.3203534
58	0x3b44407a	0.0029945658
59	0x3e1a5c2c	0.15074223
60	0x3bf436d1	0.0074528237
61	0x3daa68ed	0.08320794
62	0x3d80f976	0.06297581
63	0x3dff6d29	0.124719925
64	0xbd18751e	-0.037221067
65	0x3e028d0f	0.12749122
66	0x3d08c875	0.033394296
67	0x3d012c6e	0.031536512
68	0xbe060714	-0.13088638
69	0x3e79b729	0.24386276
70	0xbe1dea49	-0.15421404
71	0xbdedef95	-0.11617962
72	0x3e1dfb6c	0.15427941
73	0xbe45b5c8	-0.19307625
74	0x3e776854	0.24160892
75	0x3e8127ef	0.2522578
76	0xbdd1228b	-0.10211667
77	0xbdd8ac51	-0.10579742
78	0xbe63f41a	-0.22261086
79	0xbd8edcc9	-0.06975705
80	0x3d8313b1	0.0640024
81	0xbd03348a	-0.032032527
82	0x3cd0eb3f	0.0255028
83	0xbe6783c5	-0.2260886
84	0xbe3bc9ba	-0.18338671
85	0xbdfae3e2	-0.122504964
86	0x3e1e29e4	0.15445668
87	0x3e1b9036	0.15191731
88	0x3d3fff14	0.04687412
89	0x3d813a11	0.063099034
90	0xbe262fd4	-0.16229182
91	0x3e1ce114	0.15320235
92	0x3cfeab96	0.031087678
93	0xbe56bc76	-0.2097033
94	0x3e456112	0.1927531
95	0x3de596d2	0.11210407
96	0xbe2c0d29	-0.16801895
97	0xbdf26b3a	-0.11836858
98	0x3d1b1043	0.037857305
99	0xbe3c3cba	-0.1838254
100	0x3dd12344	0.102118045
101	0x3e3e2537	0.18568884
102	0xbe84d639	-0.2594469
103	0xbe181721	-0.14852573
104	0x3c2e1e7f	0.010627388
105	0x3d343e27	0.044004586
106	0xbd3baad2	-0.045817204
107	0x3de2f4f6	0.11081879
108	0xbe1b4003	-0.15161137
109	0x3d96e2f8	0.073675096
110	0x3e55db97	0.20884548
111	0xbe4aec65	-0.1981674
112	0xbe885718	-0.26628947
113	0x3ea67c47	0.3251669
114	0x3d3b673e	0.045752756
115	0xbe671ea7	-0.22570287
116	0xbdf232e3	-0.11826112
117	0xbdd1c5a8	-0.10242778
118	0xbdb7e239	-0.089786954
119	0xbdedef4b	-0.11617907
120	0xbd31f725	-0.043448586
121	0xbe4c427a	-0.19947234
122	0x3e416b88	0.18888676
123	0x3ddaa38f	0.106757276
124	0xbdea6cf1	-0.1144656
125	0xbd80bd41	-0.06286097
126	0x3e4cac70	0.19987655
127	0x3e34f4cd	0.17671509
128	0x3d03761a	0.032095052
129	0xbe86bbf6	-0.26315278
130	0x3e5041bd	0.20337577
131	0xbe4ac1c7	-0.19800483
132	0xbe5a3873	-0.21310596
133	0xbda2eb30	-0.07955015
134	0xbe74256a	-0.23842397
135	0xbe61373f	-0.21993731
136	0xbe72af49	-0.23699678
137	0xbd91ab12	-0.07112707
138	0xbe49af17	-0.19695698
139	0x3dcc7a85	0.09984306
140	0x3e69af30	0.22820735
141	0xbdbbd721	-0.09171892
142	0x3e3c90fe	0.18414685
143	0x3e214c67	0.15751801
144	0x3d658d4d	0.056042958
145	0xbe0e1645	-0.13875683
146	0x3e3ace3b	0.18242733
147	0xbdaede3d	-0.08538482
148	0x3ca0f6ba	0.019648898
149	0xbe025d35	-0.12730868
150	0x3e3126c8	0.1729995
151	0xbe53f83d	-0.20700164
152	0x3da21487	0.079140715
153	0x3e3f0ae1	0.18656494
154	0xbdd969e9	-0.10615904
155	0xbda7e04f	-0.0819708
156	0x3e4b6a0e	0.19864675
157	0xbdb65276	-0.08902447
158	0x3e1fc43b	0.156022
159	0x3e70847f	0.23488043
160	0x3d7cfeea	0.061766542
161	0xbe583bcc	-0.2111656
162	0xbe2b946e	-0.1675584
163	0xbe8be62a	-0.2732404
164	0x3e6d8c7b	0.2319812
165	0xbdb531ab	-0.08847364
166	0xbd1c6b57	-0.038188305
167	0x3d6f9145	0.05848815
168	0x3e0a1ebf	0.13488291
169	0x3e98e74a	0.2986396
170	0xbe900d21	-0.28135017
171	0xbd93706b	-0.071991764
172	0xbcedf999	-0.029049681
173	0xbbe9600c	-0.0071220454
174	0x3c8ee52d	0.017443264
175	0x3e806021	0.2507334
176	0x3ae15aae	0.0017193162
177	0xbe2e5a3f	-0.17026614
178	0x3e232375	0.15931495
179	0x3e236270	0.1595552
180	0x3e2e16bd	0.17000861
181	0x3dc2b32f	0.09506833
182	0xbe635ad6	-0.2220262
183	0x3e3842f4	0.1799429
184	0x3e81b0b6	0.25330132
185	0x3ba48eef	0.005021922
186	0x3d62c450	0.055363
187	0x3d6f4128	0.058411747
188	0xbd94208a	-0.07232769
189	0xbdcba901	-0.09944344
190	0xbdaded6e	-0.08492552
191	0x3d6ef9f4	0.058343843
192	0xbde2732d	-0.11057124
193	0xbc554faa	-0.013019482
194	0xbe1b059e	-0.15138862
195	0xbe6bdd14	-0.23033553
196	0x3e39f88f	0.18161224
197	0xbe77bc59	-0.24192943
198	0xbd82354d	-0.063578226
199	0x3e4278c6	0.18991384
200	0x3e360aab	0.17777507
201	0x3d83f507	0.0644322
202	0xbe3bf61f	-0.18355606
203	0x3e2dd461	0.16975547
204	0x3df48938	0.11940235
205	0xbe808cfe	-0.25107569
206	0xbc82e73e	-0.015979405
207	0xbe67b610	-0.22628045
208	0xbd299ff3	-0.041412305
209	0x3e4add6d	0.1981103
210	0x3d3f07a4	0.046638146
211	0xbde3b610	-0.1111871
212	0x3dc12528	0.09430915
213	0xbe4a0abd	-0.19730659
214	0xbdeab793	-0.11460795
215	0xbe042ab8	-0.12906921
216	0xbdf4c99e	-0.11952518
217	0xbe71d54f	-0.23616527
218	0xbd234c7c	-0.039867863
219	0x3e36a0dd	0.17834802
220	0xbe7fd61e	-0.24984023
221	0xbd6f0aa3	-0.058359753
222	0x3e89b735	0.26897588
223	0x3db51b43	0.088430904

layers.0.lin_r.weight f4 [16, 14]
0	0xbcc28e57	-0.023749514
1	0x3e802d16	0.25034398
2	0xbe4d9ae3	-0.20078616
3	0x3e6cc618	0.23122442
4	0xbc7590a7	-0.014988101
5	0x3dfaa55e	0.122385725
6	0x3d0d14f9	0.03444383
7	0xbbad1319	-0.0052818176
8	0xbc1f49df	-0.009722202
9	0xbc91eaf4	-0.01781223
10	0xbd9c7ae1	-0.07640625
11	0xbd262f6f	-0.04057258
12	0x3dd19945	0.10234312
13	0x3ac734a7	0.0015198187
14	0x3e202041	0.15637304
15	0x3dc9c710	0.09852421
16	0x3e063b6d	0.13108607
17	0xbcdf62d5	-0.027268806
18	0xbc9c11af	-0.019051401
19	0xbd9a8b53	-0.07546105
20	0xbe74422d	-0.23853369
21	0xbe33a2e5	-0.17542608
22	0xbe6a1a7f	-0.2286167
23	0x3e6a0e3c	0.22856992
24	0xbd890b0b	-0.066915594
25	0x3e602d06	0.21892175
26	0xbc9ceb80	-0.019155264
27	0x3e4dfb16	0.20115313
28	0x3e83f570	0.2577319
29	0xbead14ce	-0.33804935
30	0x3e47ce86	0.19512376
31	0xbe6e1fc3	-0.23254304
32	0x3e84744c	0.25869977
33	0x3e74e9fe	0.23917386
34	0xbe0b0ede	-0.1357989
35	0x3cfd50d0	0.030922323
36	0x3d041c7c	0.032253727
37	0xbe4e59d8	-0.2015146
38	0xbe380b7f	-0.17973135
39	0x3e3f3a05	0.18674476
40	0x3d856bb6	0.06514685
41	0x3d0e13e2	0.03468693
42	0xbe49c40d	-0.19703694
43	0x3dbcc201	0.09216691
44	0xbe512be5	-0.204269
45	0x3e63b2ec	0.22236222
46	0x3df4cc7c	0.11953065
47	0x3d9579fa	0.07298656
48	0x3d1bdab8	0.038050383
49	0xbe486a80	-0.19571877
50	0x3e18bb36	0.14915165
51	0xbdc40f38	-0.09573215
52	0xbcb1a108	-0.021683231
53	0xbe7586e8	-0.23977244
54	0xbe4aabe6	-0.19792137
55	0xbe2aafc2	-0.16668609
56	0xbe33cca7	-0.17558537
57	0xbd15bb57	-0.036555614
58	0x3dac6a13	0.084186696
59	0x3dea82b3	0.1145071
60	0xbe7df24f	-0.24799465
61	0xbdb60413	-0.08887496
62	0x3d0be65d	0.03415524
63	0xbe01404b	-0.12622182
64	0x3e2c064b	0.16799276
65	0xbd293d86	-0.04131844
66	0xbe904542	-0.2817784
67	0x3e70e698	0.23525465
68	0x3d0c1343	0.034198057
69	0x3da31f89	0.07964999
70	0xbdc45f22	-0.09588458
71	0xbcaa7c3e	-0.020811196
72	0x3d8a248a	0.067452505
73	0x3c4e9910	0.012609735
74	0x3dede2bf	0.11615514
75	0x3ea49049	0.3214133
76	0xbb3df653	-0.0028985932
77	0x3c857434	0.016290762
78	0xbdaba953	-0.083819054
79	0xbe478c61	-0.19487144
80	0xbe15b684	-0.14620405
81	0x3e9d2ea4	0.30699646
82	0x3e8e16d5	0.27751794
83	0xbe441789	-0.19149603
84	0x3e832986	0.25617617
85	0xbe897074	-0.26843607
86	0x3e22bc23	0.15892081
87	0xbc9114c7	-0.017710103
88	0xbd932254	-0.07184282
89	0x3e5e8f4f	0.21734355
90	0xbe52090d	-0.20511265
91	0xbd3bbfdf	-0.04583728
92	0xbe2af9a0	-0.16696787
93	0x3e30c4d9	0.17262591
94	0xbe44443e	-0.19166657
95	0x3e6bd060	0.23028708
96	0xbe755057	-0.23956428
97	0xbe0353d4	-0.12824947
98	0xbd857fb1	-0.06518496
99	0x3ddfd6af	0.109296195
100	0x3e47f242	0.19526008
101	0xbe4f18bf	-0.20224284
102	0x3e7be292	0.24598148
103	0xbe36e24f	-0.17859767
104	0xbd89602f	-0.06707799
105	0xbdbc1720	-0.09184098
106	0x3dba281f	0.09089684
107	0x3d56ceeb	0.052443426
108	0x3dd16a01	0.10225297
109	0x3e7e0f57	0.24810539
110	0xbe16d945	-0.14731319
111	0xbd0b7363	-0.03404559
112	0x3e6a0575	0.22853644
113	0x3e122301	0.14271165
114	0x3e130899	0.14358748
115	0x3e1592c0	0.14606762
116	0xbe47612b	-0.1947066
117	0xbe4b8f3a	-0.19878855
118	0x3d9d89c8	0.07692295
119	0xbe1b16e7	-0.15145455
120	0xbde700fa	-0.11279483
121	0xbe29e243	-0.16590218
122	0x3cdf3b14	0.02724985
123	0x3e0caa6d	0.13736887
124	0x3d8b1f5a	0.06793089
125	0xbe77b0c1	-0.2418852
126	0x3e6b7e5e	0.22997424
127	0xbd900a2f	-0.07033192
128	0x3df5b93a	0.1199822
129	0x3e6bfc1b	0.2304539
130	0xbe422ad3	-0.18961649
131	0xbe75ee05	-0.24016578
132	0xbcf06399	-0.029344367
133	0x3d0975d2	0.033559628
134	0x3e36fa22	0.17868856
135	0xbe69d942	-0.22836784
136	0xbe170a53	-0.14750032
137	0x39cedcc3	0.00039455862
138	0xbe326ccf	-0.1742432
139	0xbdb2d615	-0.08732239
140	0xbdc80883	-0.097672485
141	0x3bc23a49	0.0059273583
142	0xbe3ad590	-0.1824553
143	0xbd9cc015	-0.07653824
144	0xbce5edd1	-0.028067501
145	0x3e2f9ec5	0.1715041
146	0xbebfa73f	-0.37432286
147	0x3e7b651d	0.2455029
148	0xbe058cd6	-0.13042006
149	0x3e356b5f	0.1771674
150	0x3e89af79	0.26891688
151	0xbea78713	-0.3272024
152	0xbe783a4d	-0.2424099
153	0x3e14cce5	0.14531286
154	0xbd879c84	-0.0662165
155	0xbd4a3c69	-0.049374018
156	0xbe552ef2	-0.2081869
157	0x3e763e3e	0.24047181
158	0x3d2b2e31	0.0417921
159	0xbdc8f668	-0.09812623
160	0x3e027186	0.12738618
161	0xbe2b1cd6	-0.16710219
162	0x3e420150	0.18945813
163	0xbd6984cb	-0.057011407
164	0xbe93d28f	-0.2887158
165	0x3e3a8a79	0.18216886
166	0x3eda98c2	0.4269467
167	0xbe73ce16	-0.23809084
168	0xbe9c6577	-0.30546162
169	0x3ed5cdef	0.41758677
170	0xbe63b6e1	-0.22237732
171	0x3e89e95b	0.2693585
172	0x3e39e39c	0.18153232
173	0xbdb42bab	-0.087973915
174	0x3d9853fa	0.07437892
175	0xbe0ed6f9	-0.13949193
176	0x3e54adc0	0.20769405
177	0x3d741a50	0.059595406
178	0x3e575e1e	0.21031997
179	0x3df3b53b	0.11899801
180	0x3d6affd6	0.05737289
181	0xb99bee23	-0.0002974133
182	0x3e5e7148	0.21722901
183	0xbd1c4488	-0.038151294
184	0xbda9fd90	-0.08300316
185	0xbd3e4d9e	-0.04646074
186	0x3e6ecd9c	0.23320621
187	0x3e6e3c43	0.23265176
188	0xbe20bc08	-0.15696728
189	0xbc259e70	-0.010108575
190	0x3d3a03d2	0.0454138
191	0x3d4d2f4b	0.05009393
192	0xbc48fb5e	-0.012266962
193	0x3e0cf818	0.13766515
194	0x3da7bc8b	0.081902586
195	0xbe724c98	-0.2366203
196	0x3e4b03cf	0.19825672
197	0xbdce7a12	-0.10081877
198	0x3de16645	0.110058345
199	0xbe68d440	-0.22737217
200	0xbdc6d8aa	-0.09709294
201	0x3e72f562	0.23726419
202	0xbe865e72	-0.2624393
203	0x3e38254d	0.17982979
204	0x3c79517b	0.01521718
205	0xbe869e0f	-0.26292464
206	0xbe7d7321	-0.2475095
207	0xbd56f732	-0.052481838
208	0xbd138b41	-0.036021475
209	0xbd52cbda	-0.05146394
210	0xbde6f52c	-0.112772316
211	0xbe826bb8	-0.25472808
212	0x3e04b250	0.12958646
213	0x3e522ce5	0.20524938
214	0x3db22fee	0.08700548
215	0xbe7be4ef	-0.2459905
216	0xbe278929	-0.16360916
217	0xbe883dfc	-0.2660979
218	0x3e8a6335	0.27028814
219	0xbd8cc436	-0.06873362
220	0x3db45a6d	0.0880631
221	0xbe065454	-0.13118106
222	0x3d60e841	0.054908995
223	0x3e84bd64	0.25925744

layers.1.lin_l.weight f4 [16, 16]
0	0x3dacade9	0.08431608
1	0xbd9732c8	-0.07382733
2	0x3df2d9e4	0.118579656
3	0x3e0dd293	0.13849859
4	0x3e4d6ba5	0.20060594
5	0x3c335e4c	0.010947775
6	0xbe841d88	-0.2580378
7	0x3df48631	0.119396575
8	0x3ea0a901	0.3137894
9	0x3e5f467e	0.21804234
10	0xbe2c2045	-0.16809185
11	0xbd848e0f	-0.06472408
12	0x3e50f70b	0.2040674
13	0xbcf0b9dd	-0.029385502
14	0x3e8b4c47	0.27206632
15	0xbe2c39f1	-0.16818978
16	0xbe07a848	-0.13247788
17	0x3e0595e9	0.13045467
18	0xbc3ee229	-0.0116506005
19	0x3e4b54ac	0.19856519
20	0xbe6240e1	-0.22095062
21	0xbd6c9edd	-0.05776869
22	0x3d5ed0b8	0.05439827
23	0x3e6e249a	0.2325615
24	0x3e1918a3	0.14950804
25	0xbcdb0f82	-0.026740793
26	0xbe4f8762	-0.20266488
27	0xbe67caf0	-0.22636008
28	0xbe0e963d	-0.13924499
29	0x3e5c1dee	0.21495792
30	0x3e83f9ec	0.25776613
31	0xbe547bfb	-0.2075042
32	0xbe08dc34	-0.13365251
33	0x3e6c25fb	0.23061363
34	0x3c53579f	0.012899308
35	0xbdd5bb52	-0.10436119
36	0x3e76d050	0.24102902
37	0xbe6a6f1c	-0.22893947
38	0x3e3158e9	0.17319073
39	0x3db871a6	0.09006052
40	0x3eac160d	0.33610573
41	0xbe500845	-0.20315655
42	0x3e164034	0.14672929
43	0x3e663014	0.22479278
44	0x3e0c3a03	0.13694005
45	0x3d555726	0.052085064
46	0x3dcfd7ab	0.10148557
47	0xbe7f4535	-0.24928744
48	0x3dd57339	0.104223676
49	0x3e82597d	0.254589
50	0x3e121fef	0.14269994
51	0xbe28d22b	-0.16486423
52	0xbe47f088	-0.19525349
53	0x3cfb90cd	0.030708695
54	0x3d45860d	0.048223544
55	0x3aa3f94f	0.0012510213
56	0xbbc100ce	-0.0058899885
57	0xbe1b34f7	-0.15156923
58	0xbe698391	-0.22804095
59	0x3e91192e	0.28339523
60	0x3c82240e	0.015886333
61	0x3dca2705	0.09870724
62	0xbd73c3b0	-0.059512794
63	0xbdc7ecbf	-0.097619526
64	0xbcf22576	-0.029558878
65	0x3da3cbb1	0.079978354
66	0xbdb6ae59	-0.08919973
67	0x3e310e00	0.17290497
68	0x3e007caf	0.12547563
69	0xbd389903	-0.0450678
70	0x3ddd2d94	0.10799709
71	0x3db26256	0.08710162
72	0xbd66e26a	-0.05636827
73	0xbddf6b48	-0.10909134
74	0xbde538c1	-0.111924656
75	0x3e72feda	0.2373003
76	0x3e583008	0.21112072
77	0xbe2d5910	-0.16928506
78	0xbd4d7651	-0.050161663
79	0xbd8b4cc1	-0.06801749
80	0x3e1ab2cd	0.1510727
81	0x3d7c175e	0.061545722
82	0xbd7389f8	-0.05945775
83	0xbe3594af	-0.177325
84	0x3dd80f0b	0.10549744
85	0xbe1a918e	-0.15094587
86	0xbb2f703c	-0.0026769778
87	0x3d9c0c0e	0.07619487
88	0x3e88f58e	0.26749843
89	0xbda55407	-0.080726676
90	0x3e416e2d	0.18889685
91	0xbc9a6412	-0.018846545
92	0x3e4504ab	0.19240062
93	0xbdb89fe0	-0.09014869
94	0x3e21674f	0.15762065
95	0xbd326781	-0.04355574
96	0xbd5475a0	-0.05186999
97	0x3dd8ed2f	0.10592114
98	0xbe8143ea	-0.25247127
99	0x3e83ae94	0.2571913
100	0xbde681bf	-0.11255216
101	0x3e9de3b5	0.3083779
102	0x3dd3e8ae	0.103471145
103	0x3e364225	0.1779867
104	0x3d10f1ec	0.035386965
105	0xbcdac1f7	-0.026703818
106	0xbd13432a	-0.035952725
107	0xbce50067	-0.027954293
108	0xbb8c1226	-0.0042746244
109	0x3d1538fe	0.036431305
110	0x3da8cd21	0.0824225
111	0x3c266633	0.010156202
112	0x3e022a68	0.12711489
113	0xbd1201ca	-0.035646237
114	0x3d676e04	0.056501403
115	0x3e208246	0.15674695
116	0xbe89727d	-0.2684516
117	0xbbdd4f9b	-0.0067538745
118	0x3d84bda2	0.06481482
119	0x3e00c4a3	0.12575011
120	0x3d7b3cfb	0.061337452
121	0xbdb36efe	-0.087614045
122	0x3d10ae28	0.03532234
123	0xbe3b7b2f	-0.1830871
124	0xbbe0a476	-0.006855543
125	0x3d9a2e8d	0.0752841
126	0xbe54ef72	-0.20794466
127	0xbe8f8a70	-0.28035307
128	0xbd633096	-0.055466257
129	0x3dfad5d4	0.12247816
130	0xbe12b020	-0.14324999
131	0x3c273f91	0.0102080265
132	0x3df39fe1	0.11895729
133	0x3d0b4dd1	0.03400976
134	0x3d574d59	0.052564
135	0xbda095a3	-0.07841041
136	0xbe003323	-0.12519507
137	0x3da01878	0.07817167
138	0xbdbca346	-0.092108294
139	0x3caba7d8	0.020954058
140	0xbd77373a	-0.060355403
141	0xbdec5c44	-0.11541036
142	0x3e1d8300	0.15382004
143	0xbd02a071	-0.03189129
144	0x3e065754	0.1311925
145	0x3deb5444	0.11490682
146	0xbd755009	-0.05989078
147	0x3cf68524	0.030092783
148	0xbb75af30	-0.0037488453
149	0x3ceb90cb	0.028755566
150	0xbe4b7490	-0.19868684
151	0x3e500643	0.20314889
152	0x3eaf393c	0.34223354
153	0xbd46dda0	-0.0485512
154	0xbe6dd6c0	-0.23226452
155	0xbde67910	-0.112535596
156	0x3e7cb69b	0.24679033
157	0x3d2b6532	0.041844554
158	0xbe288501	-0.16456987
159	0xbe3f7010	-0.18695092
160	0x3e439b97	0.19102322
161	0xbae7a36c	-0.0017672605
162	0xbe23c24a	-0.15992084
163	0xbe506fc7	-0.2035514
164	0xbe625da7	-0.22106038
165	0xbd5fcf01	-0.054640774
166	0xbdf3441c	-0.11878225
167	0x3e3f7236	0.18695912
168	0xbde73da7	-0.11291056
169	0x3e768b96	0.24076685
170	0xbdfae00a	-0.12249763
171	0xbcf56370	-0.029954642
172	0xbe23a478	-0.15980709
173	0x3d457a0e	0.048212104
174	0xbda35d34	-0.079767615
175	0xbdb77ca1	-0.08959318
176	0xbe423488	-0.18965352
177	0xbe30cd3c	-0.1726579
178	0x3e66873e	0.22512528
179	0xbddfcbb0	-0.10927522
180	0x3e6ab6d9	0.22921313
181	0x3e67bfc5	0.22631748
182	0x3e87a1c1	0.26490596
183	0xbd54fe2f	-0.05200022
184	0xbd6f8edd	-0.058485854
185	0x3d48c383	0.04901458
186	0x3c8a3387	0.016870273
187	0xbdfdd1b3	-0.123935126
188	0x3e1d8238	0.15381706
189	0x3e32c958	0.17459619
190	0x3d81ebfb	0.06343838
191	0x3e76d423	0.24104361
192	0x3de72d8c	0.11287984
193	0x3e8af846	0.27142543
194	0xbe061739	-0.13094796
195	0xbbacbc08	-0.0052714385
196	0x3debb09a	0.115082934
197	0xbb3af5ec	-0.0028527929
198	0xbe72ec2f	-0.2372291
199	0xbe0486c1	-0.1294203
200	0xbcfef141	-0.031120898
201	0x3e4c056a	0.1992394
202	0xbc8ccdab	-0.017187914
203	0xbd9adc39	-0.075615354
204	0xbe1834e3	-0.14863925
205	0xbeb69b50	-0.3566537
206	0x3e3b5090	0.18292451
207	0xbd0f5839	-0.034996245
208	0xbd98c9a2	-0.074603334
209	0xbbdb9f13	-0.0067023127
210	0xbd12c14d	-0.035828877
211	0xbd4051cb	-0.046953004
212	0x3e042806	0.12905893
213	0x3e6550d0	0.22394109
214	0x3c8df174	0.017327048
215	0x3db60396	0.08887403
216	0xbd6ce7f3	-0.05783839
217	0xbe77397a	-0.2414302
218	0xbe003fa6	-0.1252428
219	0xbe456a77	-0.19278894
220	0xbe0b8e08	-0.136284
221	0x3e1ba51a	0.151997
222	0x3e71cb11	0.2361262
223	0xbe3e82e6	-0.18604621
224	0xbd807672	-0.06272592
225	0xbd94c695	-0.07264439
226	0x3e3eaf32	0.18621519
227	0xbd565f42	-0.05233694
228	0x3e7e19eb	0.24814574
229	0x3e69bcc4	0.22825915
230	0x3e07ac36	0.13249287
231	0x3e4a6cf0	0.19768119
232	0x3e77595c	0.24155182
233	0xbc577991	-0.013151542
234	0x3e6f4d4e	0.23369333
235	0x3bed6c89	0.0072456044
236	0xbdc3b627	-0.09556227
237	0xbbdacac2	-0.0066770026
238	0x3d9aae05	0.07552723
239	0x3e3f92b7	0.18708311
240	0xbe7733fb	-0.24140923
241	0x3e786918	0.2425884
242	0xbd39121e	-0.045183294
243	0xbd4e0a5c	-0.05030285
244	0xbd68df24	-0.05685343
245	0x3df43803	0.11924746
246	0x3d8433ca	0.064551905
247	0xbc924359	-0.01785438
248	0x3db6562b	0.08903154
249	0xbc9d0b28	-0.019170359
250	0xbd3a06c6	-0.045416616
251	0x3e01e2ba	0.12684146
252	0xbdda3e93	-0.10656466
253	0x3d42feaa	0.047606148
254	0x3e905700	0.28191376
255	0x3dac20c8	0.0840469

layers.1.lin_r.weight f4 [16, 16]
0	0xbd260235	-0.04052945
1	0x3e3f5e7a	0.18688384
2	0x3e486b55	0.19572194
3	0x3da2f69a	0.07957192
4	0xbe720d34	-0.23637849
5	0x3e2f7409	0.17134108
6	0xbc271fe9	-0.010200479
7	0x3e53344b	0.20625417
8	0xbcaba1e3	-0.020951217
9	0x3c132b37	0.008982471
10	0xbe712d2b	-0.23552386
11	0x3e1a5cd6	0.15074477
12	0x3cfde95b	0.030995062
13	0x3d807f78	0.06274313
14	0xbd2d5008	-0.042312652
15	0xbdb77076	-0.08956997
16	0xbaa01c64	-0.0012215492
17	0x3e48c560	0.19606543
18	0x3dd9f850	0.10643065
19	0x3ca40b43	0.020024901
20	0xbd92ec20	-0.071739435
21	0x3e9d21f3	0.30689964
22	0x3e799f51	0.2437718
23	0xbd66db8d	-0.056361724
24	0xbe02f3a1	-0.1278825
25	0x3e344d80	0.17607689
26	0xbe4b1e89	-0.19835867
27	0xbdf44deb	-0.11928924
28	0xbe308426	-0.1723791
29	0x3e5def47	0.21673308
30	0xbcd2fb04	-0.02575446
31	0xbd928f92	-0.0715629
32	0x3d600ac0	0.054697752
33	0xbd0ad922	-0.03389848
34	0xbe85c72d	-0.26128522
35	0x3e382dab	0.17986171
36	0xbd2b9749	-0.041892324
37	0xbc888b8b	-0.016668102
38	0x3dfeb38e	0.12436591
39	0xbe4eb90d	-0.20187779
40	0x3c3095fb	0.010777946
41	0x3de65c9f	0.11248135
42	0x3d5cd34e	0.053912453
43	0x3e03dd20	0.12877321
44	0x3e14afc2	0.14520171
45	0x3e0dd951	0.13852431
46	0x3d991623	0.07474925
47	0x3e5ce75b	0.2157263
48	0xbe56b437	-0.20967184
49	0xbe5500f1	-0.2080114
50	0xbd97eae4	-0.07417849
51	0x3de39ea6	0.11114244
52	0xbd8cdbe9	-0.06877882
53	0x3d8e2285	0.06940178
54	0xbe2e7e1a	-0.17040291
55	0x3db9bddf	0.09069418
56	0xbeb6d3f8	-0.35708594
57	0xbe0a1cf8	-0.13487613
58	0xbca63180	-0.020287275
59	0x3e6c0856	0.23050055
60	0x3e495ba3	0.19663863
61	0x3d702262	0.05862654
62	0x3db3d7ab	0.0878137
63	0xbbe2a54c	-0.0069166776
64	0x3e080ca7	0.13286076
65	0xbe59c1b6	-0.21265301
66	0x3d3d9f77	0.046294656
67	0xbe377e6f	-0.17919324
68	0x3e37f963	0.17966227
69	0xbe4e8d9c	-0.20171207
70	0xbe755892	-0.23959568
71	0xbd05ffce	-0.032714657
72	0x3e992209	0.2990878
73	0xbe3cb5dd	-0.1842875
74	0x3e5fbd16	0.21849474
75	0x3e773f35	0.24145205
76	0xbe06f1ca	-0.13178173
77	0xbe9a49b8	-0.30134368
78	0x3db1191c	0.08647367
79	0xbe5979d8	-0.21237886
80	0x3e66413f	0.22485827
81	0xbdcbc1fd	-0.0994911
82	0x3e4e3775	0.20138343
83	0x3caca8ba	0.021076549
84	0x3e92dee7	0.28685686
85	0xbe07fd28	-0.13280165
86	0xbc930bb6	-0.01794992
87	0xbc806426	-0.015672754
88	0x3e46c9ce	0.1941292
89	0x3e1f3d41	0.1555071
90	0xbdf5d33b	-0.1200318
91	0xbe177aeb	-0.14792983
92	0x3e55a200	0.2086258
93	0x3b5171b4	0.0031958641
94	0x3e0a15da	0.13484898
95	0x3e3db57d	0.18526264
96	0x3e438c33	0.1909645
97	0xbb890160	-0.004181072
98	0x3e0207a2	0.12698224
99	0xbe087328	-0.13325179
100	0x3e202334	0.15638429
101	0x3bc01685	0.0058620595
102	0x3dc686d9	0.09693689
103	0xbdda849f	-0.10669827
104	0xbce4de36	-0.02793799
105	0x3e8381c2	0.25684935
106	0x3c8f72d5	0.01751081
107	0x3d80365f	0.062603705
108	0xbdd7e143	-0.10541012
109	0x3db3e139	0.08783192
110	0xbd19622f	-0.03744715
111	0x3d1557d5	0.036460716
112	0x3dcdc7ca	0.10047872
113	0x3e096e86	0.13421068
114	0x3e30293a	0.17203227
115	0xbdac0ad7	-0.08400505
116	0xbe239990	-0.15976548
117	0xbe0464d1	-0.12929083
118	0xbd9bb760	-0.076033354
119	0xbdaef1b3	-0.08542194
120	0xbe868e4e	-0.26280445
121	0xbe10272d	-0.14077444
122	0x3e863dfd	0.26219168
123	0x3db7a188	0.089663565
124	0x3d577673	0.052603196
125	0xbe114238	-0.14185417
126	0x3b926295	0.0044673183
127	0xbd2de4b6	-0.042454444
128	0x3db2158b	0.08695515
129	0xbd8b527d	-0.06802843
130	0xbe2cd94d	-0.16879769
131	0xbd9de555	-0.07709757
132	0xbe0ab873	-0.13546924
133	0x3eeab3fd	0.45840445
134	0x3e86d06f	0.26330897
135	0xbee7c814	-0.45269835
136	0xbe3f579d	-0.18685766
137	0x3d4f0690	0.050543368
138	0xbe2811f8	-0.16413105
139	0x3e3eb489	0.18623556
140	0x3e269274	0.16266805
141	0x3e068868	0.13137972
142	0xbdc223d2	-0.094794884
143	0x3df40d80	0.119166374
144	0xbe12bb83	-0.14329343
145	0x3db92b55	0.09041468
146	0x3dfbb2c4	0.12289956
147	0xbe75c419	-0.24000587
148	0xbe17d087	-0.1482564
149	0xbe4304c6	-0.1904479
150	0xbe37787b	-0.17917053
151	0xbe5ea1b9	-0.2174138
152	0x3dc45fe6	0.09588604
153	0x3d9ca993	0.07649531
154	0x3e449a41	0.19199468
155	0x3e3fb7f5	0.18722518
156	0x3e4ca5b0	0.1998508
157	0xbe4462ae	-0.19178268
158	0x3e544f7b	0.20733444
159	0xbc17fe16	-0.009276887
160	0xbe603dae	-0.21898529
161	0x3e131806	0.14364633
162	0x3d14df29	0.036345635
163	0xbe1d0136	-0.15332493
164	0xbe35519c	-0.17706913
165	0xbe5157cf	-0.20443653
166	0xbd891be1	-0.066947706
167	0xbdc07c43	-0.09398701
168	0x3d1a21a0	0.037629724
169	0x3dccbab0	0.09996545
170	0x3e24c6e2	0.16091493
171	0xbe7e187d	-0.24814029
172	0xbd7ef674	-0.062246755
173	0x3beb40fb	0.007179377
174	0x3e2d1094	0.16900855
175	0x3d658e98	0.05604419
176	0xbe82985c	-0.25506866
177	0xbdc055db	-0.09391376
178	0xbe789299	-0.24274673
179	0x3e2a9a8b	0.16660516
180	0x3e20c28a	0.15699211
181	0xbdf15f35	-0.117857374
182	0xbe096e4d	-0.13420983
183	0x3e5e3f4e	0.21703836
184	0x3e703526	0.23457775
185	0xbdd83500	-0.10556984
186	0x3d0e33d0	0.03471738
187	0xbdc54ec3	-0.09634163
188	0xbe4c69ee	-0.19962284
189	0x3df647ff	0.12025451
190	0xbdf0d326	-0.11759023
191	0x3e672be0	0.2257533
192	0x3e456cba	0.19279757
193	0x3e3bce5b	0.18340437
194	0xbe4e0d04	-0.20122153
195	0xbe4e8dec	-0.20171326
196	0x3de5a1ab	0.11212476
197	0x3e5fc854	0.21853763
198	0x3d94c763	0.072645925
199	0x3d74025d	0.059572566
200	0xbdd73c39	-0.105095334
201	0xbd21330f	-0.039355334
202	0x3ba88d0e	0.005143768
203	0x3e356c8f	0.17717193
204	0xbde3fdac	-0.111323684
205	0xbe5a6712	-0.2132838
206	0x3e63f5a0	0.22261667
207	0x3dc688af	0.09694039
208	0xbdbf370a	-0.0933667
209	0xbd2fcb2a	-0.04291836
210	0xbe670f86	-0.22564515
211	0xbcd05b69	-0.025434213
212	0x3e784301	0.2424431
213	0x3e005dba	0.12535754
214	0x3e3e70b7	0.18597685
215	0x3e4aeae6	0.19816169
216	0x3e3d1805	0.18466194
217	0xbd220d2b	-0.03956334
218	0x3d8418cb	0.064500414
219	0x3ea369ff	0.31916806
220	0x3d609b74	0.05483575
221	0x3e32063b	0.17385189
222	0x3e6ceb67	0.23136674
223	0x3e306393	0.17225485
224	0xbe1dfbb3	-0.15428047
225	0xbcfba90f	-0.030720262
226	0xbe0c2ec4	-0.13689715
227	0xbe0c16d1	-0.13680579
228	0xbe0d58d5	-0.13803418
229	0xbd49acff	-0.049237248
230	0x3e5ca581	0.2154751
231	0x3e3fb7d2	0.18722466
232	0xbdbba7f7	-0.09162896
233	0xbe1613fe	-0.14656064
234	0x3e49f4f4	0.19722348
235	0xbd2319bd	-0.039819468
236	0xbcf2d636	-0.02964316
237	0xbe69df77	-0.22839151
238	0x3e5fc754	0.21853381
239	0xbd93bc1d	-0.07213614
240	0xbd954de5	-0.07290248
241	0x3e69ee46	0.228448
242	0xbd9e2d6d	-0.07723508
243	0xbe0c591c	-0.13705868
244	0xbe94e4b6	-0.29080743
245	0x3da78a85	0.081807174
246	0x3d80bdf1	0.062862284
247	0xbe59433f	-0.21217059
248	0xbe655fac	-0.22399777
249	0x3cd934cb	0.026514431
250	0xbe689a20	-0.22715044
251	0x3e07112b	0.13190143
252	0xbe111df6	-0.14171585
253	0x3e61b9dd	0.22043557
254	0x3e1d03dd	0.15333505
255	0x3e1a2545	0.1505328

layers.2.lin_l.weight f4 [32, 16]
0	0x3e4889fa	0.19583884
1	0xbe6efee0	-0.23339415
2	0x3de63912	0.11241354
3	0x3df6f02c	0.12057528
4	0x3d76f75b	0.06029449
5	0x3de3789d	0.111069895
6	0x3e09f10e	0.13470861
7	0x3cdd42bb	0.027009359
8	0x3d6da241	0.058016066
9	0x3dd84eea	0.10561927
10	0xbc15f2c4	-0.009152118
11	0xbe2719ca	-0.16318431
12	0x3e4f14b2	0.20222738
13	0x3ccc6cd8	0.024954244
14	0x3dffceee	0.124906406
15	0x3db9c16e	0.09070097
16	0xbe4ffeb0	-0.20312
17	0xbd486aad	-0.04892986
18	0xbe1fb6fc	-0.15597147
19	0x3db9086a	0.09034808
20	0xbe81db01	-0.253624
21	0xbea4efa4	-0.3221408
22	0x3d986518	0.07441157
23	0xbe571c36	-0.21006855
24	0x3e9232bf	0.2855434
25	0xbe574d4c	-0.2102558
26	0xbe4ec649	-0.20192827
27	0xbdc71237	-0.09720271
28	0x3e3e760c	0.18599719
29	0x3e427ac6	0.18992147
30	0xbc458950	-0.012056664
31	0x3e85851e	0.26078123
32	0xbc21c261	-0.009873004
33	0xbe1edbfd	-0.15513606
34	0x3e6b5461	0.22981407
35	0xbe7d315e	-0.24725863
36	0x3e510882	0.20413402
37	0x3d04f731	0.032462303
38	0xbdd6218c	-0.10455617
39	0xbe111d6b	-0.14171378
40	0x3e7b588c	0.24545497
41	0x3e02e336	0.12781987
42	0xbbaecb38	-0.005334284
43	0xbdf90dd9	-0.12160844
44	0x3e28a61c	0.16469616
45	0xbd4248a6	-0.047432564
46	0x3e5f68f5	0.21817382
47	0x3da320d4	0.07965246
48	0xbe87db6b	-0.2653459
49	0x3d9207dd	0.07130406
50	0xbe255172	-0.1614435
51	0x3dd582fb	0.10425373
52	0x3c87cc82	0.01657701
53	0x3e10c005	0.1413575
54	0xbd9856e9	-0.07438452
55	0xbe79a6f8	-0.243801
56	0x3d777339	0.06041262
57	0xbd8cb22c	-0.06869921
58	0x3dfce14a	0.12347658
59	0xbcee1352	-0.029061947
60	0xbe69ba20	-0.22824907
61	0xbe42253c	-0.18959516
62	0xbd4216f1	-0.04738516
63	0xbe409972	-0.18808535
64	0x3e4279cc	0.18991774
65	0x3e929376	0.2862813
66	0xbdf07482	-0.11740972
67	0xbe46b9d1	-0.19406821
68	0x3df507a9	0.11964352
69	0x3caf1766	0.021373462
70	0x3ddf20a4	0.108948976
71	0xbe03caa4	-0.1287027
72	0x3ebf5ec6	0.37376994
73	0xbd995b85	-0.07488159
74	0xbd228557	-0.039677944
75	0xbe3cf024	-0.18450981
76	0xbddf52db	-0.10904475
77	0x3ea2881e	0.31744474
78	0x3e011282	0.12604716
79	0x3ea83fd0	0.32861185
80	0xbe1b5e29	-0.15172638
81	0x3e8fc5e3	0.28080663
82	0x3e500831	0.20315625
83	0xbe2910f5	-0.16510375
84	0xbd1119e7	-0.035425093
85	0xbceafaf4	-0.028684117
86	0x3d054760	0.03253877
87	0x3ba98b64	0.0051740874
88	0xbe125303	-0.14289479
89	0x3daf4919	0.08558864
90	0xbca32755	-0.019916216
91	0x3c300153	0.010742503
92	0xbe70e7f3	-0.23525982
93	0x3d18fb1c	0.03734885
94	0xbd9ded31	-0.07711256
95	0x3e123caf	0.14280961
96	0xbe2960ca	-0.16540828
97	0xbe4a8928	-0.19778883
98	0x3e51b7e0	0.20480299
99	0xbe7bdf80	-0.24596977
100	0xbe0b26ab	-0.1358897
101	0x3e4329f8	0.19058979
102	0xbd196678	-0.037451237
103	0x3e6d2aab	0.23160808
104	0x3db9259d	0.09040377
105	0xbe145552	-0.14485672
106	0x3dc0d56d	0.09415708
107	0xbd997bab	-0.07494291
108	0xbd133811	-0.03594214
109	0xbdac173a	-0.084028676
110	0xbd95d29d	-0.07315562
111	0xbe821f09	-0.25414303
112	0xbe49ecd5	-0.1971925
113	0xbe2204b4	-0.15822107
114	0xbe3f846a	-0.18702856
115	0xbe0b9bbd	-0.13633628
116	0x3d5fa92a	0.054604687
117	0x3de1cdcd	0.110255815
118	0xbe402b59	-0.18766536
119	0x3e1bac8b	0.15202539
120	0x3d8b517d	0.06802652
121	0x3e50ee10	0.20403314
122	0x3ddbd69b	0.10734292
123	0x3d01c5ad	0.03168266
124	0xbe5bf551	-0.214803
125	0xbe54cfde	-0.2078242
126	0x3d994257	0.074833564
127	0x3e266575	0.1624964
128	0xbe25756b	-0.16158073
129	0x3d964a49	0.073383875
130	0x3e191f73	0.14953403
131	0x3e3a905e	0.18219134
132	0x3e4efaf2	0.20212916
133	0x3df74adf	0.120748274
134	0x3ea1ff2b	0.3163999
135	0xbe7c4829	-0.24636902
136	0xbe2167ca	-0.15762249
137	0xbbda95d2	-0.006670692
138	0x3e6046e2	0.2190204
139	0xbe20b52a	-0.15694109
140	0xbb550268	-0.0032502655
141	0x3e2d89c9	0.16947092
142	0x3e5634d9	0.20918597
143	0x3df9572c	0.1217483
144	0x3e046a08	0.12931073
145	0x3bdc8cc8	0.0067306496
146	0x3bf7a351	0.0075573106
147	0xbc23fba3	-0.010008725
148	0xbd892b51	-0.06697715
149	0xbd19103f	-0.03736901
150	0x3e27cee8	0.16387522
151	0xbd5dd0d3	-0.05415423
152	0xbe7e21f8	-0.24817646
153	0x3d21db8c	0.039516017
154	0xbe121f70	-0.14269805
155	0x3daaf6be	0.083478436
156	0x3e38fe28	0.18065703
157	0xbe6418f9	-0.22275151
158	0xbe2ec109	-0.17065825
159	0x3b84b663	0.0040500625
160	0x3cc87611	0.024470361
161	0x3e0b4c44	0.13603312
162	0x3e40c4a4	0.18825012
163	0x3dd6ef39	0.10494847
164	0xbd9b6960	-0.07588458
165	0xbe177271	-0.1478975
166	0x3e4c9e1d	0.1998219
167	0xbe8a8d83	-0.2706109
168	0xbd7520e6	-0.059845828
169	0x3e5bba1f	0.21457718
170	0x3e56b950	0.20969129
171	0xbe1cc5d7	-0.15309845
172	0xbd27a7b7	-0.04093143
173	0x3e3cb5af	0.18428682
174	0xbde1ff1a	-0.11034985
175	0xbd69c965	-0.05707683
176	0x3df2e703	0.11860468
177	0xbe49d5e9	-0.19710506
178	0xbe016a9c	-0.12638324
179	0xbdd740ad	-0.10510383
180	0xbd864d41	-0.06557704
181	0xba57ea99	-0.0008236557
182	0x3e03ed73	0.12883548
183	0xbe548ebd	-0.20757575
184	0xbe115027	-0.14190732
185	0xbe705335	-0.23469241
186	0xbddf2274	-0.10895243
187	0xbd132289	-0.035921607
188	0x3d0114b7	0.031513896
189	0x3e6325f6	0.2218245
190	0xbe24ad1f	-0.16081665
191	0x3e08b576	0.13350472
192	0x3e17da70	0.14829421
193	0xbcaa0123	-0.020752495
194	0xbe01992c	-0.12656087
195	0x3e26dfa7	0.16296254
196	0x3c503e41	0.012710155
197	0x3d7e2f72	0.062056966
198	0xbdac635d	-0.084173895
199	0x3d6a1e5d	0.057157863
200	0xbe0480eb	-0.12939803
201	0x3df40079	0.11914153
202	0x3e555ca3	0.2083612
203	0x3e73e0d9	0.23816241
204	0x3dc0dbe0	0.09416938
205	0x3e75c53a	0.24001017
206	0xbd2d0e54	-0.042249992
207	0xbcbb734b	-0.022882124
208	0xbbbac154	-0.005699316
209	0xbe0d73b1	-0.13813664
210	0xbbfb3e4e	-0.0076673394
211	0xbd9b3676	-0.07578747
212	0xbe036f91	-0.12835528
213	0x3e03ad58	0.12859094
214	0x3e97e348	0.2966559
215	0xbe19f3c3	-0.15034394
216	0x3d8e3f94	0.0694572
217	0x3e35ad31	0.17741849
218	0x3e3e5ff6	0.18591294
219	0x3e07a859	0.13247813
220	0xbd9be79a	-0.07612534
221	0x3e60fcbf	0.21971415
222	0xbe6e31f9	-0.2326125
223	0xbd167986	-0.036736988
224	0x3e0400a5	0.12890871
225	0xbdb486f4	-0.08814803
226	0x3e1452bf	0.1448469
227	0xbe32d7e5	-0.1746517
228	0x3cfa221e	0.030533846
229	0xbd9f61f8	-0.07782358
230	0xbd4927a4	-0.04911007
231	0x3e3735b6	0.17891583
232	0xbc9df008	-0.019279495
233	0x3e3f7a56	0.18699011
234	0x3d0689aa	0.03284613
235	0x3e80889a	0.2510422
236	0x3e064fe2	0.1311641
237	0x3e10765e	0.14107653
238	0xbe2a28ce	-0.16617128
239	0x3e2cec12	0.16886929
240	0x3e4427e4	0.19155842
241	0x3debcafa	0.11513324
242	0xbd5c35a5	-0.053762097
243	0xbbc96cf1	-0.00614702
244	0xbe28923a	-0.16462031
245	0xbe6f4a7e	-0.2336826
246	0x3c685d84	0.014182452
247	0x3e76aad4	0.24088603
248	0x3e8f367f	0.27971265
249	0xbbe48846	-0.006974253
250	0xbe92da42	-0.28682142
251	0xbe25c9dd	-0.16190286
252	0x3e5bd634	0.21468431
253	0x3e34ea99	0.17667617
254	0xbd79abf8	-0.060955018
255	0x3ebcaf44	0.36852467

layers.2.lin_r.weight f4 [32, 16]
0	0x3df99bb0	0.12187898
1	0xbdb7db05	-0.089773215
2	0xbe0885f1	-0.13332345
3	0xbdf6b743	-0.12046673
4	0xbc90290a	-0.017597694
5	0x3ccf458b	0.025301715
6	0x3d84fd13	0.064935826
7	0xbe8362bd	-0.2566127
8	0xbdb03c1f	-0.08605217
9	0x3e05fe22	0.13085225
10	0x3dccc97c	0.099993676
11	0xbdfdf702	-0.124006286
12	0x3e7bba12	0.24582699
13	0x3d952123	0.07281711
14	0x3e586ee3	0.2113605
15	0x3d9d7d9f	0.07689976
16	0xbc11857b	-0.008881922
17	0x3e8795a4	0.26481354
18	0x3e68f45d	0.22749467
19	0x3cf972db	0.030450275
20	0xbc8d83c0	-0.017274737
21	0xbe5f5226	-0.21808681
22	0x3dfd21db	0.12359973
23	0x3e8c9ac0	0.27461815
24	0x3e72ead6	0.23722395
25	0xbe5d6c7c	-0.21623415
26	0x3c586780	0.01320827
27	0x3d067690	0.032827914
28	0xbd88e5f4	-0.06684485
29	0xbe0bc55e	-0.13649508
30	0x3dfba486	0.1228724
31	0xbc28aab6	-0.010294607
32	0x3d79ce1e	0.060987584
33	0x3e355fd9	0.17712344
34	0x3e759224	0.2398153
35	0xbddaf8d3	-0.10691991
36	0x3dd73b2e	0.105093345
37	0x3dc02ea7	0.09383898
38	0x3df3dad3	0.11906972
39	0x3e157b70	0.14597869
40	0xbe3d9eb6	-0.18517575
41	0x3d49e3a2	0.049289353
42	0xbddd98fe	-0.108201966
43	0xbe57f965	-0.2109123
44	0x3e777668	0.24166262
45	0xbe596c55	-0.21232732
46	0xbe6075c9	-0.21919931
47	0x3dfe25ad	0.1240953
48	0xbd0d95b7	-0.034566607
49	0x3e2947a3	0.16531233
50	0xbe841ebe	-0.25804704
51	0xbe6a5918	-0.22885549
52	0xbe1525ed	-0.14565249
53	0x3e15dfd0	0.14636159
54	0x3e2c3717	0.1681789
55	0xbe806d3f	-0.25083348
56	0x3d2c1d62	0.04202021
57	0xbe18a257	-0.14905678
58	0x3da1ac26	0.07894163
59	0x3e665a58	0.22495401
60	0x3dfcd7e2	0.12345864
61	0xbe3cf0a3	-0.1845117
62	0xbcf22bf9	-0.029561983
63	0x3e5074ec	0.20357102
64	0x3d4727d7	0.04862198
65	0x3ebb19da	0.3654316
66	0x3dac0c2d	0.0840076
67	0xbc889e8d	-0.016677165
68	0x3de5a44d	0.112129785
69	0x3ce52122	0.0279699
70	0xbe207bf4	-0.15672284
71	0xbe4ef04b	-0.20208852
72	0x3e51fc8e	0.20506498
73	0xbe2e937d	-0.1704845
74	0xbd3702b7	-0.044680323
75	0xbdb16390	-0.08661568
76	0xbddbffc9	-0.107421465
77	0x3e852b57	0.26009628
78	0xbe42ed38	-0.19035804
79	0x3df3176f	0.11869704
80	0xbdbc8619	-0.092052646
81	0x3e6474b3	0.22310142
82	0x3c577803	0.013151172
83	0xbe46c316	-0.19410357
84	0x3e5ed723	0.21761756
85	0xbe450412	-0.19239834
86	0x3e8892d3	0.26674518
87	0xbde4cc2b	-0.111717544
88	0xbdad22d5	-0.08453909
89	0x3e365369	0.17805256
90	0x3d2b8ca9	0.04188219
91	0x3e8b1fe3	0.27172765
92	0x3e4a5bd3	0.1976159
93	0x3df11b4a	0.11772783
94	0xbe2afac0	-0.16697216
95	0x3e32602e	0.17419502
96	0x3e825062	0.25451952
97	0x3e1af1d3	0.15131311
98	0xbe2d8976	-0.16946968
99	0x3e07734b	0.13227575
100	0x3e4f7066	0.2025772
101	0xbdbbb804	-0.091659576
102	0x3e627269	0.22113957
103	0xbdf08b48	-0.11745316
104	0x3e897c80	0.26852798
105	0xbe33f2e7	-0.17573129
106	0x3e1c0e5b	0.15239851
107	0xbc382f63	-0.011241767
108	0x3e06cfb7	0.13165174
109	0x3e670281	0.22559549
110	0xbcd3557d	-0.0257976
111	0xbab6de5c	-0.0013951766
112	0x3e0e150b	0.13875215
113	0x3d34b119	0.044114206
114	0xbe2d7943	-0.16940789
115	0xbe25d1f1	-0.16193368
116	0xbd9f97b2	-0.077926055
117	0x3e0d7281	0.13813211
118	0x3d38cd18	0.045117468
119	0x3e91c456	0.28470105
120	0x3e5230d5	0.2052644
121	0x3d5002ad	0.0507838
122	0x3d859836	0.065231726
123	0x3e004c64	0.1252914
124	0xbe6f2890	-0.23355317
125	0xbe46031d	-0.19337125
126	0x3d87f400	0.06638336
127	0xbe71465a	-0.23561993
128	0xbe474f10	-0.19463754
129	0xbe061069	-0.13092197
130	0x3e82484a	0.25445777
131	0xbdaba429	-0.083809204
132	0x3e37470d	0.17898197
133	0xbe10a8d1	-0.14126898
134	0xbc351907	-0.01105333
135	0xbded0ae3	-0.11574342
136	0x3e07618a	0.13220802
137	0xbe17fd27	-0.14842664
138	0x3e1dc171	0.15405823
139	0x3aeea2ce	0.0018206479
140	0xbe1f84fb	-0.15578072
141	0xbd632f76	-0.055465184
142	0x3b803be6	0.0039133905
143	0x3d0f35d8	0.03496346
144	0xbdf825af	-0.121165626
145	0xbe37541e	-0.17903182
146	0xbe698409	-0.22804274
147	0xbd1e7a75	-0.038691003
148	0x3e51de8c	0.20495051
149	0x3d4b52f4	0.049639657
150	0x3d8961f8	0.06708139
151	0x3d1d121f	0.03834736
152	0x3e2125ac	0.15737027
153	0xbb7e0db9	-0.0038765504
154	0xbe3c80de	-0.18408534
155	0x3df07c1b	0.11742421
156	0x3e8042b0	0.2505088
157	0xbccbac9f	-0.024862586
158	0x3d0e411f	0.034730073
159	0x3c8878fc	0.016659252
160	0x3db34784	0.08753875
161	0xbd3f51f4	-0.046709016
162	0x3e66505a	0.22491589
163	0x3da12d14	0.07869926
164	0x3e03991d	0.12851377
165	0xbe2f9c29	-0.17149414
166	0xbe75ad7d	-0.23991962
167	0xbe061cb5	-0.13096888
168	0x3d0198bc	0.0316398
169	0xbe2947a8	-0.16531241
170	0xbe837a85	-0.25679412
171	0xbe63c237	-0.22242056
172	0x3cf0ad7e	0.029379603
173	0x3e504312	0.20338085
174	0x3e3d2ab2	0.18473318
175	0xbdbc5385	-0.091956176
176	0x3d5d068a	0.053961314
177	0xbd5fc405	-0.0546303
178	0x3d9148aa	0.07093938
179	0xbe3245e2	-0.1740947
180	0x3e17f507	0.14839564
181	0x3e0cd297	0.13752209
182	0xbe7453fd	-0.23860164
183	0x3e3b4f0d	0.18291874
184	0xbda731dc	-0.08163807
185	0x3cfc6937	0.03081189
186	0x3d2b8ae2	0.041880496
187	0x3dff8553	0.124766015
188	0x3e560b16	0.20902666
189	0xbccfc702	-0.025363449
190	0x3db81122	0.08987643
191	0xbc48eee9	-0.012263992
192	0xbe43277e	-0.19058034
193	0xbe894ecd	-0.26817933
194	0x3c9bfa1c	0.01904016
195	0x3d61ac4c	0.055095956
196	0x3cc1a980	0.023640394
197	0x3df02b06	0.11726956
198	0xbd957591	-0.07297815
199	0xbe15c28b	-0.14624994
200	0x3e925a32	0.2858444
201	0xbe56a509	-0.20961393
202	0xbcf5478b	-0.02994134
203	0x3e389f5b	0.1802954
204	0xbd982891	-0.074296124
205	0xbe060232	-0.13086775
206	0x3dcb9717	0.099409275
207	0x3d452ec0	0.048140287
208	0xbda58c06	-0.08083348
209	0xbdb7d209	-0.08975608
210	0x3d942b5e	0.07234834
211	0xbe405fde	-0.1878657
212	0xbe1d8e46	-0.15386304
213	0xbdfbc6c9	-0.12293775
214	0xbddb32b5	-0.10703031
215	0x3e4f2c3a	0.20231715
216	0x3e938e8d	0.28819695
217	0xbe5aae26	-0.21355495
218	0x3e31402f	0.1730964
219	0xbe37250d	-0.17885228
220	0xbc31daa6	-0.0108553525
221	0x3df2de52	0.118588105
222	0xbe528148	-0.2055713
223	0x3e4b0164	0.19824749
224	0xbc0e63f5	-0.008690824
225	0x3d9ac178	0.075564325
226	0xbbda1825	-0.0066557103
227	0x3d522b2b	0.0513107
228	0xbd56b6ea	-0.052420534
229	0x3dbc11f5	0.091831125
230	0x3d335310	0.043780386
231	0xbcf6a9aa	-0.030110199
232	0x3dc74547	0.097300105
233	0xbdca093c	-0.098650426
234	0x3e165c01	0.14683534
235	0x3e638e29	0.22222199
236	0x3e452ecf	0.19256137
237	0x3dea2a47	0.11433845
238	0x3df4fc00	0.11962128
239	0x3e83bc12	0.25729424
240	0x3e946437	0.28982708
241	0x3e8ab608	0.27092004
242	0xbe6f2c1e	-0.23356673
243	0xbdc4a7f9	-0.09602351
244	0xbe404354	-0.18775684
245	0xbe2db266	-0.16962585
246	0x3d1a4f40	0.037673235
247	0x3e5a54f2	0.21321467
248	0x3e154771	0.14578034
249	0xbd889a2e	-0.066700324
250	0xbdcb39d0	-0.09923136
251	0xbe0a4599	-0.13503112
252	0x3e294bab	0.16532771
253	0x3e5e2491	0.21693636
254	0xbe0a383c	-0.13498014
255	0x3e3b99ad	0.18320341

fc11.weight f4 [16, 32]
0	0xbd9f0841	-0.07765246
1	0x3e521ed5	0.20519574
2	0xbdb36170	-0.08758819
3	0xbe1bfee2	-0.15233949
4	0x3e3207da	0.17385808
5	0x3c0ad86d	0.0084744515
6	0x3dc61047	0.096710734
7	0x3d80e1d5	0.06293074
8	0xbcc5ee94	-0.024161614
9	0x3d07d3aa	0.033160843
10	0xbcdf8fcb	-0.027290246
11	0xbe2778d8	-0.16354692
12	0x3d17e35e	0.03708207
13	0x3d9b4e6e	0.07583319
14	0x3de87eb2	0.1135229
15	0x3dd86468	0.10566026
16	0x3d6c1c36	0.05764409
17	0xbb8e9392	-0.004351088
18	0x3e11f5e7	0.1425396
19	0x3d80003f	0.06250047
20	0x3e309108	0.17242825
21	0x3e11a9d8	0.14224946
22	0xbca37747	-0.019954337
23	0x3d15619f	0.03647005
24	0xbc41aaab	-0.011820476
25	0x3c28f417	0.010312102
26	0xbe0388d8	-0.1284517
27	0xbe1996fa	-0.14998999
28	0x3db67323	0.08908679
29	0x3e2bdfc7	0.16784583
30	0x3d98fb5d	0.07469819
31	0xbdfeb5ac	-0.12436995
32	0x3dbf3b43	0.09337475
33	0xbe1869dc	-0.14884132
34	0x3d02b169	0.031907473
35	0x3d1d7e24	0.038450375
36	0x3e14ba6e	0.14524242
37	0x3c97a213	0.0185099
38	0x3e272daf	0.1632602
39	0x3d4e67a6	0.050391816
40	0x3e46bf4e	0.19408914
41	0xbddaf92a	-0.106920555
42	0xbd00d588	-0.03145364
43	0x3d2d2f7e	0.04228162
44	0x3d3bdcf6	0.04586502
45	0xbdfd99df	-0.12382864
46	0xbdbde6a1	-0.092725046
47	0x3d2802ea	0.041018404
48	0xbd86bbc0	-0.06578779
49	0xbdae6f4d	-0.08517323
50	0x3e0cf17f	0.13763998
51	0xbe298ecc	-0.16558379
52	0xbdad8b1f	-0.08473801
53	0xbd9bacb3	-0.07601299
54	0x3dd1441d	0.1021807
55	0xbdd230f5	-0.10263244
56	0xbde009b2	-0.10939349
57	0x3e35cdeb	0.17754333
58	0x3d4190ca	0.047257222
59	0x3dce62d1	0.100774415
60	0xbd916eb1	-0.07101191
61	0x3caa9b8a	0.02082612
62	0x3d4df86c	0.05028574
63	0xbdbf88e0	-0.09352279
64	0x3d86ffaf	0.065917365
65	0xbe012e30	-0.12615275
66	0x3db1a0b2	0.08673228
67	0x3daf17e5	0.085494794
68	0xbd139a29	-0.03603569
69	0xbdb82d53	-0.0899302
70	0x3e28c6dd	0.1648211
71	0xbe68c272	-0.22730425
72	0x39494a38	0.00019196502
73	0xbbc055f2	-0.0058696205
74	0x3dbfecfa	0.093713716
75	0x3c92c0aa	0.017914135
76	0xbd5aed7e	-0.053449146
77	0x3d2e42e0	0.042544246
78	0x3da4c621	0.080456026
79	0x3c99446c	0.018709384
80	0x3d388586	0.045049213
81	0xbd773dd1	-0.060361687
82	0xbe04c0ec	-0.12964219
83	0xbdfce219	-0.12347812
84	0xbe27dcd9	-0.1639284
85	0x3dc1580f	0.09440624
86	0x3cd931cc	0.026513003
87	0xbdb04b99	-0.08608169
88	0xbca61d24	-0.020277567
89	0x3cbef039	0.023307906
90	0xbdea482d	-0.11439548
91	0x3bd16713	0.006390461
92	0x3e1b1bbc	0.15147299
93	0xbd37da6e	-0.044886045
94	0x3cfaba0f	0.030606298
95	0x3dba2fe3	0.09091165
96	0x3de23dce	0.110469446
97	0x3cb8402f	0.022491543
98	0xbd8782be	-0.06616734
99	0x3d2e886c	0.04261057
100	0xbce6b1e2	-0.028160993
101	0x3eb36a44	0.35042012
102	0xbd7c558e	-0.06160503
103	0x3e007a61	0.12546684
104	0xbd42b039	-0.04753134
105	0x3de68a2d	0.11256824
106	0xbde75f51	-0.11297477
107	0xbcf54c87	-0.029943718
108	0x3d4d67e9	0.050147925
109	0x3db1f097	0.08688467
110	0x3e278f42	0.16363242
111	0x3e987bcc	0.2978195
112	0x3d8ee6ff	0.06977653
113	0xbd4c198f	-0.049829062
114	0x3d026428	0.031833798
115	0xbe268d4a	-0.16264835
116	0x3e438584	0.19093901
117	0xbd92889a	-0.07154961
118	0x3dad9c12	0.08477034
119	0x3e136da7	0.14397298
120	0xbcb64c74	-0.022253253
121	0x3d2d7234	0.04234524
122	0xbc51aa01	-0.01279688
123	0x3dabe1fb	0.08392712
124	0x3e48be8a	0.19603935
125	0xbb9e8a25	-0.0048382455
126	0x3e2f4077	0.17114435
127	0x3d5ea65a	0.054357864
128	0x3dc8b962	0.09800984
129	0xbce5cb62	-0.028051082
130	0xbd9fbcf2	-0.0779971
131	0xbe2c69d0	-0.1683724
132	0x3d6096f5	0.054831464
133	0xbe109049	-0.1411754
134	0x3e1edb15	0.1551326
135	0xbe528076	-0.20556816
136	0x3e0d06e9	0.13772167
137	0xbe18884e	-0.14895746
138	0xbc340701	-0.010987998
139	0x3d7b00b9	0.061279986
140	0x3dadd778	0.08488363
141	0x3c4e8400	0.012604713
142	0x3c2005d5	0.009767015
143	0xbe4b8d80	-0.19878197
144	0xbdc88a95	-0.097920574
145	0x3debe797	0.11518782
146	0xbc89e91a	-0.016834784
147	0x3c1eec55	0.009699901
148	0xbe17db8e	-0.14829847
149	0x3e317617	0.17330204
150	0x3e1c984a	0.15292469
151	0xbd3a8a39	-0.045541976
152	0xbde187ee	-0.11012255
153	0x3e260fd3	0.16216974
154	0x3d506678	0.05087897
155	0xbe14e2cd	-0.14539643
156	0xbcc4ec86	-0.024038564
157	0xbcb8f646	-0.02257837
158	0x3d16472c	0.03668897
159	0x3e14e76e	0.14541408
160	0x3da4a421	0.080391176
161	0x3e5dc2cc	0.2165634
162	0xbdc57c89	-0.09642894
163	0x3d776e99	0.06040821
164	0x3e895456	0.26822156
165	0x3cc0de56	0.023543518
166	0x3e3b6ef4	0.18304044
167	0x3e6b2c35	0.22966082
168	0x3de39481	0.11112309
169	0xbd7c1438	-0.06154272
170	0xbcf0207b	-0.029312363
171	0x3da8676e	0.08222853
172	0xbd3cac76	-0.04606291
173	0x3e55a3d2	0.20863274
174	0xbca92286	-0.020646345
175	0x3ed50b3e	0.4161014
176	0x3c101f50	0.008796528
177	0xbe673567	-0.22578965
178	0x3dd43ba7	0.1036294
179	0xbe38c2f4	-0.18043119
180	0x3e4293a4	0.19001633
181	0xbd9924cb	-0.07477721
182	0xbddbc312	-0.10730566
183	0x3e88cdde	0.26719564
184	0xbc2f2a91	-0.010691301
185	0x3cc3a507	0.023882402
186	0xbd967b58	-0.07347745
187	0xbdcdfaa0	-0.100575686
188	0x3d40f950	0.047112763
189	0x3e2423d2	0.1602929
190	0xbdde2424	-0.10846737
191	0xbda57259	-0.08078451
192	0x3d121f5d	0.03567444
193	0x3d52154e	0.05128985
194	0xbdbc79cc	-0.092029184
195	0xbd89897d	-0.06715677
196	0xbc837939	-0.016049014
197	0xbe17fb71	-0.14842011
198	0xbd570c81	-0.05250216
199	0xbe13ee79	-0.14446439
200	0x3db91474	0.09037104
201	0x3e12ad15	0.14323838
202	0x3dc05d59	0.09392805
203	0xbe271f7d	-0.16320606
204	0xbe299c7b	-0.16563599
205	0xbe09ec40	-0.13469028
206	0xba9c5be6	-0.0011929243
207	0xbe24e51a	-0.1610302
208	0x3dc1f7cf	0.09471094
209	0x3e161414	0.14656097
210	0xbe20d161	-0.15704872
211	0xbd9b4aab	-0.07582601
212	0xbe34ffd0	-0.1767571
213	0xbe2518d2	-0.1612275
214	0xbe02fbbb	-0.1279134
215	0xbe2caac5	-0.16862018
216	0x3d951c6b	0.07280811
217	0xbe06874e	-0.13137552
218	0x3ddf3ffe	0.109008774
219	0xbda4eb2e	-0.080526695
220	0xbe2915b9	-0.16512193
221	0x3dcbc4bc	0.099496335
222	0x3d9be403	0.07611849
223	0xbe011b2d	-0.12608023
224	0x3c3cf279	0.011532419
225	0x3c3b83dd	0.011445013
226	0x3e0f1dc0	0.13976192
227	0xbe243a11	-0.16037776
228	0x3e28dcf1	0.16490532
229	0xbdae90c6	-0.08523707
230	0x3d4a0d0f	0.04932886
231	0xbe2f1b19	-0.1710018
232	0x3d386c2f	0.045025047
233	0xbe01864a	-0.12648883
234	0xbbf8a04b	-0.007587468
235	0x3e23b940	0.15988636
236	0xbd39bd26	-0.0453464
237	0xbe2625ba	-0.16225329
238	0x3db9335b	0.090429984
239	0xbd46f995	-0.048577864
240	0xbe17c027	-0.14819394
241	0x3df00fa5	0.11721734
242	0x3da373b0	0.0798105
243	0x3db2245c	0.08698341
244	0x3dcdc14c	0.10046634
245	0x3c89ea3f	0.01683533
246	0x3d217c17	0.039424982
247	0xbdcf1de2	-0.101131216
248	0xbdd32f33	-0.10311737
249	0xbdfa210a	-0.12213333
250	0x3de42471	0.11139763
251	0xbda3c746	-0.07996993
252	0x3d84c3a8	0.06482631
253	0xbdd9862f	-0.106212966
254	0x3ddf4697	0.10902136
255	0x3e2c4858	0.16824472

fc11.bias f4 [16]
0	0x3e91b338	0.28457046
1	0xbdef7576	-0.11692326
2	0x3d1cf4ee	0.03831952
3	0x3ea745c0	0.32670403
4	0xbd7d28c4	-0.061806455
5	0x3e9326b6	0.28740472
6	0x3d6aafa8	0.057296425
7	0xbe1cc907	-0.15311061
8	0xbe1117c9	-0.1416923
9	0x3d311ddf	0.043241378
10	0xbe079d9f	-0.13243721
11	0x3e99c728	0.30034757
12	0x3cd29010	0.02570346
13	0xbd406e8c	-0.046980426
14	0xbdfaa914	-0.1223928
15	0xbe1ed897	-0.1551231

fc12.weight f4 [1, 16]
0	0xbe5e04fa	-0.21681586
1	0x3e7578ec	0.2397191
2	0x3e6e8abc	0.2329511
3	0xbd19a952	-0.037514992
4	0x3e74b065	0.23895414
5	0xbe6f48ff	-0.2336769
6	0xbd97ebbc	-0.0741801
7	0x3df07e09	0.11742789
8	0xbe12e585	-0.14345367
9	0x3e29bc73	0.16575794
10	0x3e5883ce	0.2114403
11	0xbe607957	-0.21921287
12	0xbe55fd53	-0.20897417
13	0x3e0d4751	0.13796736
14	0x3e4f53e4	0.20246845
15	0x3e340ecb	0.17583768
