trained_models/2022-09-16_21:29:19-GraphSAGE_64_3/base_model.pt (torch, 61447 bytes, 9 tensors)

layers.0.lin_l.weight f4 [64, 14]
000000 2f 29 7d 3e de 25 80 3e f9 ac aa 3d e3 a5 56 be
       0.24722742 0.2502889 0.08333773 -0.20961718
000010 84 64 7f 3c b9 67 d7 bc f6 6b 47 3b 00 a1 6c be
       0.01558793 -0.026294576 0.003042934 -0.23108292
000020 f2 ff 7a be 02 35 45 be 1b 31 1a be 6c de 4a 3d
       -0.24511698 -0.19258502 -0.15057795 0.049528524
000030 21 d6 6c be a5 71 32 3e e1 be 80 be fb 24 de bc
       -0.23128559 0.17426164 -0.2514563 -0.027117243
000040 11 72 19 be 74 32 27 bd 93 50 16 3d 4f c2 5e be
       -0.14984919 -0.0408196 0.036697935 -0.2175381
000050 68 d7 7c be 77 3b c0 bd c1 80 af 3b 73 d7 fc bd
       -0.24691546 -0.09386342 0.005355925 -0.12345781
000060 7e 51 02 be 51 56 23 be a0 9a 08 3e e9 72 bd bd
       -0.127264 -0.15950896 0.13340235 -0.09250433
000070 f5 16 50 3e db a1 08 be e7 06 53 3e a9 88 93 be
       0.20321257 -0.13342993 0.20608102 -0.288152
000080 2e 09 8f 3d 51 77 3a 3d 69 f1 87 be 2b 42 af 3d
       0.06984173 0.045523945 -0.2655137 0.085575424
000090 ca e6 5b 3e 70 15 35 3e 7a e7 23 3d fc bd d2 bd
       0.21474758 0.17683959 0.040015675 -0.10290143
0000a0 dc 10 78 be 83 15 72 be ae 79 8d 3e 06 fb 82 3e
       -0.24225181 -0.23641019 0.27631897 0.2558214
0000b0 f7 5b 02 3e aa ae 8d 3e 6f d1 86 3e 54 e3 3d 3e
       0.12730394 0.2767232 0.2633166 0.1854375
0000c0 cf 0b ea bc 28 fb 60 be 1c ea 57 3e cc 82 11 be
       -0.028570084 -0.21970809 0.210854 -0.14210051
0000d0 54 5c 6a 3e 32 66 f6 3b de 45 94 3c 81 2c 25 be
       0.22886783 0.007519507 0.018099722 -0.16130258
0000e0 01 ed 01 be c8 54 90 3a d2 61 28 3e 67 97 a3 3b
       -0.12688066 0.0011011595 0.16443565 0.004992414
0000f0 64 45 f1 bd 66 05 13 3e 1c 7b 59 3e 1a 2f f8 3d
       -0.11780813 0.14357528 0.21238369 0.12118359
000100 fa fa da bd 23 95 58 3e 43 9b 7f 3e 14 a5 76 3d
       -0.10692401 0.21150641 0.24961571 0.060216025
000110 14 c8 20 3e 53 12 29 3e 01 f7 da bd ca 07 71 3e
       0.15701324 0.16510896 -0.106916435 0.23538128
000120 60 80 42 be c8 bb a0 3e 9d 0b 1f 3e dd 65 ef bd
       -0.18994284 0.31393266 0.15531774 -0.11689351
000130 ce 04 97 3d e4 ed b2 3d 4a 32 44 3d 42 a5 03 be
       0.07373963 0.0873678 0.047899522 -0.1285601
000140 bb fb 31 bd ed 48 04 be 27 fb 69 be 5d 68 f5 bd
       -0.04345296 -0.12918444 -0.22849713 -0.11982796
000150 5a d8 da bd 06 fc 8e 3e 56 d6 72 3e 25 76 e9 3c
       -0.10685797 0.27926654 0.23714575 0.028498719
000160 19 33 52 3e 43 15 56 bd 0e ab c9 3d f8 b4 be bd
       0.20527305 -0.05226637 0.09847079 -0.09311861
000170 22 08 47 3d 7f af 93 bc e8 e5 3c be f8 02 85 3e
       0.04859174 -0.018028019 -0.18447077 0.25978827
000180 fe df 69 be ff 1b 10 3e 91 7a 45 be 3a 1f c4 bd
       -0.22839352 0.1407318 -0.19285037 -0.095762685
000190 07 f3 85 3e 14 5d 38 bd 6a d7 1e be 85 fc af 3d
       0.26161978 -0.04501064 -0.15511861 0.08593086
0001a0 6b 78 ee bc 1c 3c 66 3e 2b 07 53 be 47 21 6c be
       -0.029110154 0.22483867 -0.20608203 -0.2305957
0001b0 d6 2c 82 be 97 17 2b bd d0 3d 58 3e c5 8e 70 be
       -0.25424832 -0.041770544 0.2111733 -0.23491962
0001c0 07 56 ea 3d f7 3d 6f bd b1 02 8f be 9f 50 27 be
       0.1144219 -0.058408704 -0.2793174 -0.16339348
0001d0 64 6a c2 bd 8f d5 7d 3e c7 15 79 3d 39 32 f4 3c
       -0.09492949 0.24788497 0.060811784 0.029809104
0001e0 34 4f 87 bc b1 4e c0 3c 10 bd 3e 3e 9e ee f1 3d
       -0.01651726 0.023475023 0.18626809 0.11813091
0001f0 e0 50 9c 3c 35 1f f1 bd 8e df af 3d 42 9f e2 3d
       0.019081533 -0.117735304 0.085875615 0.11065532
000200 ee e9 c1 3c f8 36 21 be 41 ce 4b be 96 1d 77 3e
       0.023671117 -0.15743625 -0.19902898 0.2413238
000210 ce d7 14 3e 32 02 5b 3e 91 47 36 3e 92 42 3d 3e
       0.14535448 0.21387556 0.17800738 0.18482426
000220 f3 53 40 3e a5 79 74 3d bd ba ce bd 7a 6d 98 3b
       0.18782024 0.05968632 -0.10094211 0.0046517225
000230 1e 31 43 3d aa df b3 bd f6 13 6f 3e e8 97 75 bd
       0.047654264 -0.08782895 0.23347458 -0.059959322
000240 f1 5c 12 3e 51 6e 7e 3d b4 c3 b5 bd 8d 06 0f be
       0.14293267 0.062116925 -0.08875218 -0.13967343
000250 59 7b 8e be 61 98 08 3e 4d f5 dd bc 00 0a 83 3d
       -0.27828482 0.13339378 -0.027094508 0.06398392
000260 43 d6 56 3e 41 98 7e 3e ab 79 46 bd ff 2d 7d 3e
       0.20980172 0.24862768 -0.048455875 0.24724577
000270 3c 63 72 3e ec 3c 63 be 08 e5 00 be 0b ba 4a 3d
       0.23670667 -0.22191209 -0.12587368 0.04949383
000280 6f 86 2d be 65 20 c0 3c 39 dd 67 be a5 88 50 3e
       -0.16945814 0.023452947 -0.22642983 0.20364626
000290 88 60 40 3c b8 01 51 be fe e6 44 be 58 84 b5 3d
       0.011741765 -0.20410812 -0.19228742 0.08863133
0002a0 45 13 5f bd 34 79 85 3e f4 4b 4f 3e 60 b3 a0 3e
       -0.054461736 0.26069033 0.20243818 0.31386852
0002b0 79 87 60 3d 14 8e 4d 3d cd 72 fc 3d 21 90 4c 3d
       0.054816697 0.050184324 0.12326584 0.04994214
0002c0 c1 0d 2b be e2 48 f6 bd 55 9a 82 bc ec 43 6f 3e
       -0.16704465 -0.1202562 -0.015942732 0.23365754
0002d0 a6 36 8d bd 6f d3 d7 bd ba 64 aa bd 52 9a 1c 3e
       -0.06895189 -0.10538375 -0.08319993 0.15293244
0002e0 2b e1 10 be 70 6a 52 be 8b ce fb bd 6b a2 95 bd
       -0.14148395 -0.20548415 -0.12295254 -0.073063694
0002f0 5e a9 35 be 64 80 f1 bd aa a0 2d be 0e a6 66 3e
       -0.1774039 -0.11792067 -0.1695582 0.22524282
000300 5f 33 87 be 0f ab 35 3c 0e f4 88 3d 42 dd 82 3e
       -0.2640638 0.011088147 0.06687175 0.2555943
000310 47 78 82 3d cf 98 45 3d 9b a1 a2 bd 9f e9 8d 3e
       0.06370597 0.048241433 -0.0794098 0.277173
000320 60 6e 22 be 53 28 84 be f4 5d 16 3e 1b 0a 64 3e
       -0.15862417 -0.25812015 0.14684278 0.2226948
000330 f7 88 66 bd 7d 54 30 bd 13 b9 2a be 25 0b 3e be
       -0.056282964 -0.043049324 -0.16672163 -0.18558939
000340 72 e6 94 3a 56 52 4d 3e e9 4a 5c bb 70 70 5b bd
       0.0011360182 0.2005094 -0.0033613986 -0.053574026
000350 e0 f3 3e be ce f1 ac bd d8 ea 9f bd a7 ca 6d be
       -0.18647718 -0.08444558 -0.07808465 -0.23221837
000360 6a 1b 07 3d 18 06 4b 3e c6 13 a3 3c 59 78 21 3d
       0.03298513 0.19826543 0.01990689 0.039421413
000370 cb 2a 53 be 79 3b 98 3d e0 97 1a be c8 ca 48 be
       -0.20621793 0.074332185 -0.15096998 -0.19608605
000380 f0 1f 9a 3d 8d 9b c1 3b 7a c2 83 be aa 1f 03 3e
       0.07525623 0.0059084357 -0.2573431 0.12805048
000390 c7 6a 5a 3e 24 97 2d be ad ee 61 3e c8 0a 79 3c
       0.21329795 -0.16952187 0.22063704 0.015200324
0003a0 da e1 e5 bd 35 4d 28 be cb 31 8a be b4 82 4f be
       -0.112247184 -0.16435702 -0.26991114 -0.20264703
0003b0 1d c5 fd 3d de 2c 24 3e 5e e2 89 3e bb 07 82 3e
       0.12391112 0.1603274 0.26930517 0.25396523
0003c0 1e cf c9 bd 16 15 31 be 78 ba 59 3e f8 47 9f bd
       -0.098539576 -0.172932 0.21262538 -0.07777399
0003d0 6a 7b 89 bd 4b c0 16 bd 7f ed 26 3e 01 e8 10 3e
       -0.067129925 -0.03680448 0.16301535 0.14151002
0003e0 96 b8 38 be 6d 4d 0b 3e 95 80 ca 3d a8 e5 34 bd
       -0.18039164 0.13603754 0.09887806 -0.04416433
0003f0 99 34 d4 3d 14 30 cb bc 62 40 51 3e 63 33 b5 3d
       0.10361595 -0.024803199 0.20434716 0.08847692

layers.0.lin_r.weight f4 [64, 14]
000000 81 06 81 be e7 96 46 3e 6d 9f 58 be a4 15 b8 3c
       -0.25200275 0.19393502 -0.21154566 0.022471257
000010 ca c2 a6 bd 14 43 eb bd 36 d4 a7 3d 7d 13 46 3d
       -0.08142622 -0.114874035 0.08194773 0.04835843
000020 86 20 c8 3d ab 0b 04 3e c9 da a6 bd a7 17 e7 3d
       0.09771828 0.12895076 -0.08147199 0.11283808
000030 d2 b1 67 bd a7 2b 6b be 72 61 7f 3b 5d 5d 0c be
       -0.056566067 -0.22965871 0.0038967994 -0.1370749
000040 50 af 29 3e 49 72 b5 3d 6e 98 41 be 4c 1a 14 be
       0.16570783 0.08859689 -0.18905804 -0.14463156
000050 8f 3a bf bd 22 88 05 3e b0 28 74 3d f7 4e 80 be
       -0.09337341 0.13040212 0.059609115 -0.25060245
000060 e2 86 20 3e 7e d8 4a 3e 55 f1 85 be 11 05 06 be
       0.15676454 0.19809148 -0.26160684 -0.1308787
000070 f5 4f 29 bd ac 99 ad bd 16 45 1f 3e 88 7d 5a 3e
       -0.04133602 -0.08476576 0.15553698 0.21336949
000080 b9 c0 02 be 76 c1 91 bd b1 09 27 bc 23 0a 85 be
       -0.1276883 -0.07116978 -0.010195182 -0.25984296
000090 28 1c 49 be a0 fe 60 3e 52 98 e4 bc 42 d6 6d bd
       -0.19639647 0.21972132 -0.027904663 -0.05806566
0000a0 68 56 4d 3e e0 9a 88 be 54 d9 26 be 05 a2 17 3e
       0.20052493 -0.2668066 -0.16293842 0.148079
0000b0 df f1 88 be a3 48 69 3d 5d 22 e5 3c 10 13 3d 3d
       -0.26747033 0.056954037 0.027970487 0.046160758
0000c0 c9 dc 83 be 37 fb 30 3e 61 2a 90 3c d5 de e9 3d
       -0.25754383 0.17283331 0.017598333 0.11419455
0000d0 db 1d 91 bd 02 03 bc 3d 6f 0b 8a 3e 6c 38 cb bd
       -0.070857726 0.09180261 0.26961848 -0.09922871
0000e0 4c 9e 79 be 1d fc b9 3d 2f 99 45 3e 66 fb 36 3e
       -0.24376792 0.0908129 0.19296716 0.17869338
0000f0 fa 0f 64 3e b3 b8 55 be 89 65 fe 3b bf 62 82 be
       0.2227172 -0.20871238 0.007763569 -0.25465962
000100 4f c6 8e 3d bb f8 22 3e 31 00 7c be 87 fa 64 3c
       0.06971418 0.15915196 -0.24609448 0.013975746
000110 59 a1 4c 3d 12 f1 59 3e 20 ec 52 3e 0a 36 84 3d
       0.04995856 0.21283367 0.20597887 0.0645562
000120 f0 07 36 3c 84 fd 99 bd d8 c0 63 3e 91 da 4d be
       0.011110291 -0.075190574 0.22241533 -0.20102908
000130 33 f9 30 3e b6 96 70 be 09 aa d6 3d 0c 8f a9 3d
       0.17282562 -0.23494992 0.104816504 0.08279237
000140 14 75 10 be 09 1b 05 3e ed 85 50 be 9a d7 49 be
       -0.14107162 0.12998594 -0.20363589 -0.19711152
000150 c8 88 f8 3d 44 4e 2c be 9c 01 cd 3c ac 37 23 be
       0.12135464 -0.16826731 0.025025181 -0.15939206
000160 d0 33 09 3e 27 77 01 bd df 98 69 3e c0 85 77 be
       0.13398671 -0.031607773 0.22812222 -0.24172115
000170 e4 2a 2f bc 4a 98 27 be 37 97 8f be 37 d7 02 bc
       -0.010691378 -0.16366687 -0.28045055 -0.0079858815
000180 18 21 88 bd aa 24 4f be 33 86 7b be ba a4 7f be
       -0.06646937 -0.2022883 -0.24562912 -0.24965182
000190 7b f5 47 bd 0f 76 0b be 44 9b 7c 3e e1 0f 50 be
       -0.048818093 -0.13619255 0.24668604 -0.20318557
0001a0 23 d0 61 be 2a f7 6f be 18 9e 6d 3e 28 1c 4a bc
       -0.22052054 -0.2343413 0.23204839 -0.012335815
0001b0 09 77 74 be bc 60 b6 bc e6 18 e8 3d 07 98 34 be
       -0.23873533 -0.022262923 0.11332874 -0.17636119
0001c0 ca 9d 22 be 7f 08 f3 3d a7 fd a6 3d 6d c3 e2 bc
       -0.15880504 0.11866855 0.08153849 -0.027681077
0001d0 3f 49 78 3e 23 ca a2 bd f6 a4 b7 bd 88 e5 a4 3d
       0.24246691 -0.07948711 -0.08967011 0.08051592
0001e0 98 93 30 3e 04 94 8a 3e 22 3d 24 3e 98 b1 8b be
       0.17243803 0.27066052 0.16038945 -0.2728393
0001f0 08 0d a2 bd b3 f2 13 3e bc 96 3e 3d 7f 2f 3d be
       -0.07912642 0.14448051 0.04653047 -0.1847515
000200 09 ed ab 3d 65 15 af bd 3d 66 f9 3d 3d 6b e7 3d
       0.0839482 -0.085490026 0.121777035 0.11299751
000210 65 cf 69 be 21 fc e1 bd 62 30 3a bc 29 19 78 be
       -0.22833021 -0.11034418 -0.011364074 -0.24228348
000220 bf cc 01 3e 6e 23 f7 bd 78 90 64 be 30 e9 f1 bd
       0.1267576 -0.120673046 -0.22320735 -0.11812055
000230 d9 9d ec bd b5 f3 63 3d 90 94 16 3e 67 a8 3b bc
       -0.115535446 0.05565234 0.1470511 -0.0114537245
000240 19 14 7a 3e 3e 4f 12 3e f9 2b 8b 3e 31 f5 31 bd
       0.24421729 0.14288041 0.27181986 -0.043446723
000250 6f 3c b2 3c 96 f3 58 be 18 55 23 3e 5e cb 2a be
       0.021757333 -0.2118667 0.1595043 -0.16679141
000260 b0 26 b9 3d 39 1b 17 3e c1 3a 3a 3d 24 fd 59 3c
       0.09040582 0.14756478 0.04546619 0.013304982
000270 93 f8 56 3e 32 29 0b be 46 a8 92 bd a5 4f ab bd
       0.20993261 -0.13589934 -0.07161002 -0.083648
000280 5f 60 80 3d 5b ed 4a be 28 d2 ca 3d 9b ff 9c 3d
       0.06268381 -0.19817106 0.099033654 0.076659404
000290 b0 4c bd bd 8e ef 85 bc 0a 63 97 3c 59 36 33 3e
       -0.092431426 -0.01634958 0.018479843 0.175012
0002a0 4c ac 72 bd ae 4c 48 3e 98 b3 de 3d 01 fa da bd
       -0.059246346 0.19560501 0.108740985 -0.10692216
0002b0 cd 8d 1e 3e 67 6a 92 3b 51 20 06 bc 62 c6 67 3a
       0.1548378 0.0044682506 -0.008186416 0.0008841512
0002c0 10 1e 5e 3d 52 4e 5e 3e 62 2b 22 be e5 db 2b be
       0.05422789 0.21709564 -0.15836862 -0.16783102
0002d0 de 3b 41 be f7 cf 84 3e e5 9e 48 bd f5 1c 19 be
       -0.18870494 0.25939915 -0.04897966 -0.14952452
0002e0 12 af 84 be 4e 7e 80 bd 15 b3 7b bc 7d d8 3b 3c
       -0.25914818 -0.06274091 -0.015362521 0.011465189
0002f0 86 c1 1b 3d ff 94 9f 3d 1a 25 52 3e 5f 21 cb bc
       0.038026355 0.077920906 0.20521966 -0.024796186
000300 d5 9e 0f 3d 9f 21 46 be 01 da 4c be 1c cc 80 be
       0.035063583 -0.19348763 -0.20005037 -0.25155723
000310 89 c1 73 3d d1 92 42 3e 46 a5 2c 3e 36 08 62 be
       0.05951074 0.19001319 0.16859922 -0.22073445
000320 9d 84 24 3e 00 e0 07 be 0a a1 80 3e 87 8c 5a be
       0.16066213 -0.13269043 0.25122863 -0.2134267
000330 a7 3f f5 3d 17 0d 94 3d 62 65 2d 3e 1b 80 dc bd
       0.11975031 0.07229059 0.16933206 -0.10766622
000340 dd 6b 86 3e 3f 9e a1 3d da 9d 77 3e 24 1b 99 3e
       0.26254168 0.07891511 0.2418131 0.2990352
000350 a8 1e 06 be cc dd 56 3e b2 13 68 be 7c 4b c5 3d
       -0.13097632 0.20983046 -0.22663763 0.09633538
000360 51 d5 1c 3d 57 02 5f 3e e2 f5 8a 3e d7 0e 23 3e
       0.038289372 0.21778236 0.2714072 0.1592363
000370 fd d0 ae 38 27 01 3b be 37 fd 87 bd 3f 78 fa bc
       8.335894e-05 -0.18262158 -0.06640094 -0.030574916
000380 0f 2e 2b be 56 a9 87 3e 30 87 3d 3e d6 20 0f 3e
       -0.16716789 0.2649638 0.18508601 0.1397737
000390 a8 55 97 3c 4f 0a 40 3e 4b 6c ea 3c 70 fa e4 bc
       0.018473461 0.18753932 0.028616091 -0.02795145
0003a0 37 20 6d bd 0a b8 db 3c 48 53 f6 3c 42 fd c3 3c
       -0.05789205 0.026821155 0.030069008 0.023924474
0003b0 7d 00 08 be e8 66 f3 bd 58 c9 d7 bb a1 1f d5 bd
       -0.13281436 -0.11884862 -0.0065852813 -0.10406423
0003c0 fa d3 6e 3e 7e 70 f9 bd 5b a9 62 3c 9d a0 1f be
       0.2332305 -0.12179659 0.013834323 -0.15588613
0003d0 48 36 6e 3d 9d 2e 5e 3e 12 28 61 3e 10 8d 27 be
       0.058157235 0.21697469 0.21987942 -0.16362405
0003e0 c3 6d fe bd eb 65 4a be ce 64 ad 3d 98 de 80 3d
       -0.12423279 -0.19765441 0.084664926 0.062924564
0003f0 68 ce 40 be 36 05 00 3d 9d 66 a5 3d 46 9f 35 3d
       -0.18828738 0.03125497 0.080762126 0.044341348

layers.1.lin_l.weight f4 [64, 64]
000000 65 e8 d2 bd 5c 43 b3 bd 8d 5a 7d bd 0f 2f c1 bc
       -0.10298232 -0.08753082 -0.061853934 -0.02358201
000010 6e 25 c0 3d 10 b7 8c 3b da 5f d1 3d 07 4a 91 3d
       0.09382139 0.0042942837 0.1022336 0.07094198
000020 ae 41 10 3d 56 3a 99 3c 97 4e 26 3c ca f1 c2 bc
       0.035218887 0.018704575 0.010150573 -0.023796935
000030 a6 bb 0a bd 43 5d 08 bd ac f6 b4 3d 32 e3 52 3d
       -0.03387036 -0.033292066 0.088361114 0.0514862
000040 54 cc 65 3d 34 3a 5f 3d 99 d0 09 3e b2 bf 8e 3d
       0.056103066 0.054498866 0.1345848 0.06970157
000050 6f ad 30 3d cd 7b a0 3d 0c 30 0b be a7 5a d4 3d
       0.04313415 0.07836113 -0.13592547 0.10368853
000060 c7 37 55 bd 12 63 b9 bd de 13 0b 3e 1a ea f6 3c
       -0.052055147 -0.09052099 0.13581797 0.030140925
000070 db c5 bf bd 64 87 2a bd 1f 98 79 3d 61 7f c4 3d
       -0.0936391 -0.041633025 0.06093609 0.09594608
000080 15 a3 7f 3d e0 da 32 be 61 d4 02 bc d8 77 0f bd
       0.062411387 -0.17466307 -0.007985205 -0.0350264
000090 1d b4 96 bc 59 6e 2e 3c 26 c8 0a 3e 10 c6 03 3e
       -0.018396432 0.010646426 0.13552913 0.12868524
0000a0 7d 14 d1 bd 0d f2 9f bd cb fc ba 3c 8f 05 ab bd
       -0.10208986 -0.078098394 0.02282562 -0.083506696
0000b0 c6 c5 03 3d 27 18 0f 3d 98 57 56 bd ea b9 a8 bd
       0.032171033 0.034935143 -0.05232963 -0.08238585
0000c0 e1 e0 de 3d 9e f7 b1 3d 49 6f 72 bc 8e 4e f3 3c
       0.10882736 0.08689807 -0.01479704 0.029700544
0000d0 28 c8 13 bd 84 ea 9a 3c 76 c8 81 3d bc bc b8 bd
       -0.036079556 0.018910654 0.06337063 -0.09020373
0000e0 f2 41 9d 3d a9 07 13 3e 56 ab bc 3d d9 7e 80 3d
       0.07678594 0.14358391 0.09212367 0.06274194
0000f0 7d 89 4f be f2 c8 e2 3d b5 be 9a 3c c5 64 a0 bd
       -0.20267291 0.110734835 0.018889764 -0.0783172
000100 87 c9 1e bd 1e eb b7 3d 91 d9 e8 3a 31 bd 65 bd
       -0.03876641 0.08980392 0.0017765035 -0.05608863
000110 d1 e6 6f bd 89 0d e1 bc 04 de 08 3e de 3d e3 bd
       -0.058569733 -0.027472274 0.13365942 -0.110957846
000120 0c b1 ad bd b2 7a 08 bd 18 3c 3d 3b 81 df 9b 3c
       -0.08481035 -0.033320136 0.002887493 0.019027473
000130 15 50 2d bc 0a 7a a0 3d fa 01 0d b9 2b 06 5b 3d
       -0.010578175 0.07835777 -0.00013447544 0.05347268
000140 3f ea 33 bc 49 cd 07 bd c3 37 ec ba a0 95 11 3d
       -0.010981142 -0.03315476 -0.0018021989 0.035543084
000150 0e 7e 4a bd 1b 14 c3 3d b5 4a b8 bd ad 8b 7a bc
       -0.04943662 0.09525319 -0.08998624 -0.01529209
000160 41 cf 03 be 7c e4 7a bd f6 fa b7 3d dc c8 43 3e
       -0.1287203 -0.061253056 0.08983414 0.1911959
000170 35 81 92 bc 24 36 76 bd 2e 07 37 3e c3 be f6 3c
       -0.017883876 -0.060110226 0.17873833 0.03012026
000180 53 3f 02 3e c9 bc 9c 3d 56 46 72 3d b1 aa 04 be
       0.12719469 0.076531954 0.05914911 -0.12955739
000190 69 c1 67 3c 0e 93 64 3c 8e c3 2e 3d 84 ed 84 bd
       0.014145234 0.013951076 0.042666964 -0.06490615
0001a0 a6 a2 60 3d 4c 9e c1 bd 2d 78 aa bd 12 fb b5 bc
       0.054842614 -0.09454021 -0.08323703 -0.022214446
0001b0 b9 1f c6 3d b7 56 ab bd e1 a8 8f bc db e8 a9 3d
       0.09674019 -0.08366149 -0.017536582 0.08296367
0001c0 a2 08 24 3e e0 1f f1 bd f6 19 1c be 61 7e dc bc
       0.16018918 -0.11773658 -0.15244278 -0.02691573
0001d0 57 23 91 3d 0c 00 63 3d 1a e5 0c bd fa ed e9 3d
       0.07086819 0.055419967 -0.034398176 0.114223436
0001e0 c9 06 f1 bc 25 b8 8b 3d 56 f9 1d 3d 3a a2 ef 3d
       -0.02942218 0.06822232 0.038567863 0.11700864
0001f0 76 8f b1 3d 35 1f 0c 3e bb 69 fc 3d 3e 22 13 3d
       0.08669941 0.1368378 0.12324854 0.035921328
000200 18 6e 8c bd 2a 5a e9 bd a9 61 7d bd d8 02 ef bc
       -0.06856936 -0.113941506 -0.061860714 -0.02917616
000210 a9 ec 46 bd 64 d4 1d bd 54 57 93 bd 49 97 1a 3d
       -0.04856554 -0.03853263 -0.07194391 0.037741933
000220 00 d7 d9 bd 9b cc a0 3d f6 87 e9 bd ef 55 a8 3d
       -0.10636711 0.078515254 -0.114028856 0.082195155
000230 04 69 2b 3d 19 c3 b3 3d 3d e1 8d bc b7 42 81 3c
       0.041848198 0.08777446 -0.017319316 0.015778882
000240 54 e4 94 3d 96 96 27 bc b1 4a 98 bd db 4d a3 bd
       0.07270113 -0.010228774 -0.07436121 -0.07973834
000250 0e 2a ed bd 43 06 85 bd a5 76 dc bd bf 2e d3 bc
       -0.11580287 -0.06495335 -0.10764817 -0.025779126
000260 2d c4 63 bd bb ec e4 3c 4f 59 82 bc d6 b6 99 3a
       -0.05560701 0.027944913 -0.015911726 0.0011727463
000270 61 f3 16 bd 68 d8 27 3d 2c c4 a2 3d c6 4a 65 3a
       -0.036853198 0.040977865 0.07947573 0.0008746799
000280 36 19 14 3e fa 94 f0 bd 13 1f e4 3d eb 9d 1d 3d
       0.14462742 -0.11747165 0.111387394 0.03848068
000290 ac 90 8e 3d d0 b5 13 be d3 4f 19 bd 0a 6b 18 bd
       0.06961188 -0.14424825 -0.037429642 -0.037211455
0002a0 ee 63 0e 3d b7 8b d7 bd 68 d9 21 bd 3f b5 77 bd
       0.03476327 -0.10524695 -0.039513975 -0.060475584
0002b0 8d 0a de 3d e9 42 67 3b 0a 13 58 bd f8 52 16 be
       0.10841856 0.0035287684 -0.052752532 -0.14680088
0002c0 b5 95 76 bd 40 f5 e9 3b fd 22 e0 bc 00 eb 6f bd
       -0.060201366 0.007139832 -0.027360434 -0.058573723
0002d0 2e a6 e8 bd 38 02 7e 3c 2b 9c 09 3e b8 94 b6 bd
       -0.11359821 0.015503459 0.1343848 -0.089150846
0002e0 bf c1 a1 3c a1 f6 07 bd 4c 2d db 3d ed cc 52 3d
       0.019745706 -0.033194188 0.10701999 0.051464964
0002f0 2f 32 04 bd c4 26 9d bd 15 2d 0b be 0a 26 d4 3d
       -0.03227442 -0.076734096 -0.13591416 0.10358818
000300 84 fd 09 bd 70 d4 fe bd 19 76 7c bd 0e 40 51 3d
       -0.033689037 -0.12442863 -0.061636064 0.051086478
000310 7a 9e 3f bd be b2 59 3e 15 c6 0b 3e 8f 75 b0 3d
       -0.046781994 0.21259591 0.13649781 0.086161725
000320 9e 3b d3 3d 0f 1e ec 3d 2b 6d 04 be 19 25 9e bd
       0.103141055 0.11529171 -0.1293227 -0.077219196
000330 34 e7 e4 3d c7 e6 79 3d 99 8a 57 3d 5e 0d 2f bb
       0.11176911 0.061011102 0.05262241 -0.0026710848
000340 27 8e 6d bb d7 ec a7 bd 47 55 be 3d 9f 83 87 3d
       -0.003624806 -0.081994705 0.09293609 0.066169016
000350 6a f6 a6 bb 1e 09 3b 3d 81 d5 83 3d 7c 60 91 3d
       -0.005095293 0.04566299 0.06437207 0.07098481
000360 9b fa d0 3d d7 06 12 bd b6 a8 dd bd fb 2a 9c bc
       0.10204049 -0.035651054 -0.10823195 -0.019063463
000370 97 33 b7 bd f3 a3 d8 3d 32 d3 85 3d 9b c9 fd 3d
       -0.08945387 0.10578146 0.06534423 0.12391969
000380 9e 99 78 3d 90 8e 8f 3d 74 30 fe bc b3 49 cd bc
       0.060693376 0.070096135 -0.031028964 -0.025059557
000390 61 06 a6 bd 76 19 a6 3d e5 c4 f3 3d ca 93 19 bd
       -0.081066854 0.08110325 0.11902789 -0.03749446
0003a0 b5 4c 71 3c db 30 6e 3d 69 59 68 3c 06 f2 bd bd
       0.014727761 0.05815206 0.014181473 -0.09274678
0003b0 cc f3 6b 3c 46 ee c0 3d f6 6a 80 bd cb ac 09 be
       0.014401387 0.09420447 -0.06270401 -0.13444822
0003c0 8e f9 08 3e f6 20 e9 bd 9a 11 a6 3c 1f 3e e6 bd
       0.13376448 -0.1138324 0.020272065 -0.112423174
0003d0 94 db fe bc 00 2b f6 bd 4c 04 10 bd c4 66 9b 3d
       -0.031110562 -0.1201992 -0.035160348 0.0758796
0003e0 f4 d4 3a 3d 4a a2 05 3d ed 82 9b 3d c1 58 44 3d
       0.045613244 0.032625474 0.075933315 0.047936205
0003f0 0a 45 2d bd 1e b9 19 3e 3c 7c 66 bd ad 69 a9 bd
       -0.04230217 0.15012023 -0.056270823 -0.08272109

layers.1.lin_r.weight f4 [64, 64]
000000 ce 6a 00 bd 64 71 48 bd 95 9e ad bc 9e ad 61 bc
       -0.031351857 -0.048936263 -0.021193782 -0.013774304
000010 5f fa cb 3d 62 92 bd bd e5 20 b0 bd 55 e1 64 3d
       0.09959864 -0.09256436 -0.08600024 0.055878956
000020 59 be 0a be 24 8e 90 3d c7 86 c8 3d 01 26 00 3e
       -0.13549174 0.07058361 0.09791332 0.12514497
000030 d8 c3 01 3e c5 70 e7 3d 92 6d c4 bd df 27 36 bd
       0.12672365 0.11300806 -0.095912114 -0.044471618
000040 a3 b0 d7 bb d8 a8 c4 bd a0 4d fd 3d cf a6 38 be
       -0.006582336 -0.09602517 0.123683214 -0.18032382
000050 41 ea 11 bd cc 16 3b bc 9b a3 b0 3d 91 c1 9b bc
       -0.035623793 -0.011419009 0.08624955 -0.019013198
000060 36 80 03 be ad 84 0d 3e 42 24 7c 3d 92 b4 fa 3d
       -0.12841877 0.13820143 0.061558016 0.12241472
000070 4d 7b c7 3d 97 ff 36 be ae 74 c2 bd 41 30 44 3c
       0.09740315 -0.17870937 -0.09494911 0.011974395
000080 94 ed 07 bd 5e 82 f3 3b 6b c1 e3 bc da 38 97 3d
       -0.033185557 0.0074313125 -0.02780219 0.073838905
000090 df 1c 21 3e c7 0c d4 bd 72 f7 45 3e cc 74 28 3d
       0.1573367 -0.103539996 0.19332674 0.04112701
0000a0 52 27 bf 3d 1f 61 ce 3d 7c 0f 4b 3d 64 91 6e bd
       0.09333672 0.10077118 0.049575314 -0.058244124
0000b0 72 f5 51 3e 40 bd 73 3c e0 01 6f bd cf 19 41 3c
       0.20503786 0.014876664 -0.058351398 0.011785938
0000c0 b9 33 24 3d d0 c3 eb bc cd a9 52 3c c1 f2 04 bd
       0.04008839 -0.028779894 0.0128578665 -0.03245807
0000d0 48 24 09 3e ba 45 0f 3e 50 35 0e 3d 60 43 90 bc
       0.13392746 0.13991442 0.03471881 -0.017610252
0000e0 d0 7e 43 3d dc 9c 05 3e 52 35 0b 3d f4 c8 cb 3d
       0.04772836 0.13048118 0.033986397 0.09950438
0000f0 0b c7 c9 bc 1e 10 22 3e 63 11 c0 3d 42 45 02 bd
       -0.024631044 0.1582646 0.09378316 -0.03180433
000100 b5 56 d2 bd 68 a5 32 3d 06 2c 27 3d 83 7f 13 3e
       -0.10270444 0.043614775 0.04081347 0.1440411
000110 05 76 06 3e 0a 44 bc bd d5 00 1c 3d 18 e0 b4 bd
       0.13130958 -0.09192665 0.03808673 -0.08831805
000120 a1 a4 79 3c 22 78 b9 3c cd a8 cf 3d a1 60 00 3d
       0.0152370045 0.022640292 0.10139618 0.031342153
000130 d5 4b c8 3d 63 15 df 3b 58 64 76 bb fa ed 9d bd
       0.09780089 0.0068079694 -0.003759643 -0.07711406
000140 3b de b1 bd a6 4f c0 bd 6a 55 1b 3e 03 2d b3 3d
       -0.08684965 -0.09390192 0.15169302 0.0874882
000150 7b 84 c6 3d 19 29 eb 3d 6a ca 3b bd 28 8c 37 3d
       0.096932374 0.11482448 -0.045847334 0.044811398
000160 43 ca b3 bc d5 fd 7e 3d 2d 8f c6 3d 50 75 4c 3c
       -0.021947032 0.06225379 0.09695277 0.012479141
000170 18 05 0f 3d 3c 40 7a 3d 74 a4 3b 3e 8d c8 8e 3d
       0.034916967 0.061096415 0.18324453 0.06971846
000180 d0 74 ae 3d 46 3d a5 3d 8a 6d f1 bc ab 67 9b 3d
       0.08518374 0.080683276 -0.029471178 0.075881325
000190 9b a3 a2 3d 3a b9 82 bd 5c 51 26 3e 5e 7c 6a 3d
       0.079413615 -0.063829854 0.16241974 0.057247512
0001a0 76 90 cf bc 4f 06 b3 3b 2c ce ae bc f7 2d 97 3d
       -0.025337439 0.0054633985 -0.021338545 0.07381814
0001b0 d5 fc 1b 3e 52 1e 95 3d 36 7d 6b 3d 6c 8b 04 3e
       0.15233167 0.07281174 0.057492457 0.1294381
0001c0 6b 77 ec bc 74 f7 8c bd 32 11 b7 bd d6 41 1f 3b
       -0.028865537 -0.068831354 -0.089388266 0.0024300716
0001d0 42 03 b3 bd 25 e2 42 3d ee 55 d1 3d 4c 9e f1 bd
       -0.08740856 0.04757895 0.10221468 -0.11797771
0001e0 e7 56 3a bd e0 0e e0 bc f2 c9 df 3d 2d ab 66 bd
       -0.045493033 -0.027350843 0.1092719 -0.05631559
0001f0 fe c4 a2 bd 6a 92 c6 bc 40 89 bb bd d1 9f f5 3d
       -0.079477295 -0.024239738 -0.09157038 0.11993373
000200 39 ab 8e bd 54 a5 c5 3d 5e 58 3c 3c 1c 35 f2 bd
       -0.06966252 0.096506745 0.011495678 -0.11826536
000210 a2 50 20 3d 4f 8a c4 bb 0a 0a 08 3e 7f 2c eb 3b
       0.039139397 -0.005997933 0.1328508 0.007176935
000220 6e 06 79 3d 0d 66 91 3d 4d dd 94 3d 51 d5 0c be
       0.060797147 0.07099543 0.07268772 -0.13753249
000230 f7 ad a6 bb 32 a0 9a bc 50 3f b6 bc e8 df e6 3c
       -0.005086656 -0.018875215 -0.022246987 0.028182939
000240 f7 c3 05 3e eb 6d f2 bd dc 27 3e be 3c 92 62 3b
       0.13063036 -0.118373714 -0.18569893 0.0034572026
000250 4a 72 ff bd 66 29 d9 3d bb 1f 3e bd 75 5a d5 bc
       -0.12472971 0.10603599 -0.04641698 -0.02604411
000260 b6 ea 81 bc 7b ff a0 bd 7b 74 03 bc 95 27 01 3e
       -0.01585899 -0.07861229 -0.008023377 0.12612756
000270 98 35 f2 3c aa 01 25 be fa 32 54 3e 33 95 17 bd
       0.029566571 -0.16113916 0.20722571 -0.03700752
000280 a0 fc 16 3e c7 50 43 be f8 97 1a 3c ca 2c 93 bd
       0.14744806 -0.19073783 0.009435646 -0.07186277
000290 30 f3 81 bd 46 50 8d bd d0 e1 95 bd 48 6c 90 bd
       -0.063452125 -0.069000766 -0.07318461 -0.07051903
0002a0 23 1e cf bd 31 b2 8d 3d ad d0 5f 3d 92 b1 1c bd
       -0.1011317 0.06918753 0.054642368 -0.03825528
0002b0 dc 19 a9 bc 41 09 66 3d 6f c6 7a bd 03 62 a5 bc
       -0.020642214 0.05616117 -0.061224397 -0.020188337
0002c0 4e e1 02 3e 44 c0 f9 bd a9 e7 ca bc 1d be 35 3e
       0.1278126 -0.12194875 -0.024768667 0.17748304
0002d0 73 b9 02 be 48 ef 83 bb 66 dd 0b bc 26 8e d8 bd
       -0.12766056 -0.0040263273 -0.008536672 -0.10573988
0002e0 6c 2c 8c bd c6 cb 19 3e 46 9c 9f bc 7c fe eb bd
       -0.0684441 0.1501914 -0.019483697 -0.115231484
0002f0 77 5f af bd b6 87 92 3d f0 4f 91 3d f3 2d 01 bd
       -0.0856313 0.07154791 0.07095325 -0.03153796
000300 15 f0 25 3d c8 02 ba 3d 5d 73 51 ba d9 d5 f7 3d
       0.040512163 0.09082562 -0.0007989908 0.12101335
000310 3e f6 52 3d 84 38 67 3d 60 dd e5 bd 65 ce 76 3c
       0.051504366 0.056450382 -0.112238646 0.015063857
000320 2c d1 57 3c d9 2b fe bd 5e e3 04 bc d3 70 22 3d
       0.013172429 -0.12410707 -0.008110849 0.03965838
000330 e6 52 99 3d 8a f0 df bd a7 18 f2 3d 5b 50 74 3d
       0.07486515 -0.10934551 0.11821108 0.059646945
000340 4e bf 00 be b6 bc 08 3d 1f 1a 6b 3d e5 e5 7c 3d
       -0.12572977 0.033383094 0.057397958 0.061742682
000350 b1 a8 e9 bd c7 23 c3 3d 80 99 c5 3d f3 92 ba bd
       -0.114091285 0.09528308 0.096484184 -0.091100596
000360 af a9 87 3d 40 ff 86 3c e0 2a 8e 3c 51 47 f6 3d
       0.066241615 0.016479135 0.017354429 0.12025321
000370 62 ed b1 3d 95 c7 83 bd d4 f9 c1 3d 51 f0 ef bc
       0.08687855 -0.064345516 0.09471479 -0.029289396
000380 47 46 a4 bc 3e d4 80 3b a7 df 5b bb 38 5b d0 bd
       -0.020053042 0.0039315512 -0.0033550055 -0.101736486
000390 1b 06 1a 3c 2e 87 68 bd 6e e2 9f 3d 80 10 b3 3d
       0.00940087 -0.056769542 0.0780686 0.087433815
0003a0 68 63 c0 bc b2 16 bf 3b fd fb 6f bc d4 93 46 3d
       -0.0234849 0.005831563 -0.014647481 0.048480824
0003b0 77 3e f1 bd 73 32 81 3d 2c fd 6a bd 24 49 f5 bb
       -0.11779492 0.063084505 -0.05737035 -0.0074855257
0003c0 d5 5c f7 3d d0 cc c4 bc cc ef 1d bd 9f 95 d1 3d
       0.12078253 -0.024023443 -0.038558766 0.10233616
0003d0 61 bd 46 3d 26 cf dc 3d 04 cf cd bd a8 06 33 3d
       0.04852045 0.10781698 -0.10049251 0.04370752
0003e0 80 55 cb bc bc e4 9c 3d e9 74 87 3c 98 e8 64 bd
       -0.024821043 0.07660815 0.01653524 -0.05588588
0003f0 44 c5 4d 3d 98 c3 05 3e d6 2c d2 bd 24 b6 96 bd
       0.050236955 0.13062894 -0.10262458 -0.07358959

layers.2.lin_l.weight f4 [32, 64]
000000 be 6c 3d bd 93 5e 96 bd d9 83 68 3d 15 46 dd 3d
       -0.046246283 -0.07342257 0.056766365 0.10804383
000010 c9 cf e3 3c df a2 ed 3c 42 7f ef 3d 8d ec 03 3d
       0.02780904 0.029008327 0.116941944 0.032208014
000020 f8 c4 ae 3c 78 a3 da bc e0 79 3f 3d e3 97 c2 bc
       0.021334156 -0.026689276 0.04674709 -0.023754066
000030 ca b4 33 bd 04 7e f3 3c cc 60 93 bd 77 86 44 bd
       -0.043873586 0.029723175 -0.07196197 -0.0479798
000040 37 17 97 3d 70 e9 05 be a4 e5 90 bd 37 47 21 bd
       0.07377475 -0.1307733 -0.070750505 -0.039374556
000050 ea b6 66 3d ca b3 80 bd 66 80 e6 3c ce 11 08 3c
       0.056326784 -0.06284292 0.028137397 0.008305026
000060 96 51 5a bd e4 2e 82 3c b1 68 91 3d 18 56 c1 bc
       -0.053300463 0.0158915 0.071000464 -0.023600623
000070 3a 61 ab bd 3b 9d 74 bc 4f 89 c9 3d 8e ed b7 bd
       -0.08368154 -0.014930065 0.09840643 -0.08980857
000080 e5 b2 29 3d 3d 73 97 3d 27 53 a9 bd 38 a0 c1 3d
       0.041430373 0.07395027 -0.08267813 0.094543874
000090 61 c2 ef bd 54 46 01 bd 42 27 55 bb f6 90 f8 bd
       -0.11706997 -0.03156121 -0.003252462 -0.12137024
0000a0 e1 21 e8 bd 34 a8 db bd 54 7d 5a bd 14 3d 10 3d
       -0.11334587 -0.107254416 -0.05334218 0.0352145
0000b0 17 2c a6 bd 7c 38 9e bc 63 43 2d 3d c6 12 e7 bd
       -0.08113878 -0.019314043 0.042300593 -0.112828776
0000c0 fa 30 61 bb 82 8a 73 3c c0 ab 1c bd b1 bc 9c 3d
       -0.0034361468 0.014864566 -0.03824973 0.076531775
0000d0 07 62 61 3d 1e 11 aa 3d 79 d7 fe 3d 99 b4 5d 3d
       0.055025127 0.08304046 0.12443442 0.05412731
0000e0 b2 d1 64 3a 60 93 70 bd 0f d7 ce 3c e2 f1 e6 3c
       0.0008728757 -0.058734298 0.025249032 0.02819151
0000f0 a4 56 57 3d d7 6a d4 bd ac fb ec bd 26 c1 f7 3c
       0.05257286 -0.103719406 -0.1157144 0.030243468
000100 64 4a 20 bd dc 48 f3 bd 6c 80 16 bd 64 05 fc 3c
       -0.039133444 -0.11879131 -0.036743566 0.03076429
000110 b6 43 c3 3d 1f b8 9e 3d 6b 34 44 bd 5e 48 9b 3d
       0.09534399 0.07749962 -0.047901552 0.07582162
000120 41 75 cb 3d 9b 12 df bd 6a 75 02 bd b6 2b 59 bd
       0.09934474 -0.108922206 -0.031850256 -0.0530202
000130 5e 3f ce 3d d3 d6 e7 3d d1 29 ed bd dc cc 01 3d
       0.1007068 0.11320271 -0.115802415 0.03168951
000140 d6 f4 71 3d 0c 1a 9f 3d 3c 95 df 3d c6 71 5b 3d
       0.059071384 0.0776864 0.10917136 0.0535753
000150 28 45 35 3d ed 14 f4 bd 4c b8 50 3d 1f de 90 3d
       0.044255406 -0.11918054 0.05095701 0.07073616
000160 54 6c 0e bd 97 88 25 3d c5 96 68 3d bc f0 a7 3d
       -0.03477128 0.040413465 0.05678441 0.08200213
000170 17 1e 4c bd b8 b1 06 be fb 30 8b 3b 29 2d c2 bd
       -0.049833383 -0.13153732 0.0042477823 -0.0948127
000180 df af 57 3c 5c d1 6d bb 46 ae a2 3b fd d9 00 3e
       0.0131644895 -0.0036288118 0.0049646227 0.12583156
000190 de 3b f8 bd 07 a3 a3 bd 5b ed bb 3d 9a 2d ee bd
       -0.12120794 -0.079900794 0.09176131 -0.116297916
0001a0 f5 46 f1 3c ba 6e 52 bd 85 5a a1 bd d2 c4 6f 3d
       0.02945278 -0.05137513 -0.07878593 0.05853731
0001b0 d5 80 31 3d ae ec 19 bd c2 6d 28 3c 60 e4 42 bd
       0.043335754 -0.03757923 0.010280075 -0.047581077
0001c0 c4 3d 81 3c 2c 50 73 3c 9c e6 8e 3c b3 05 b4 3d
       0.015776522 0.014850657 0.017443947 0.087901495
0001d0 8b 00 8b 3c c2 9c 3f 3d c7 ab 19 3d f2 8f b0 bb
       0.016968032 0.046780355 0.037517335 -0.0053882534
0001e0 f5 e0 e8 bd 06 a5 c1 3c c4 8e 7e 3d dc ea c6 3d
       -0.11371032 0.02363826 0.06214787 0.097127646
0001f0 9e 84 1f bd ee a2 6a 3d 7d 43 b9 3c d1 d7 d8 3d
       -0.038944833 0.057284288 0.022615189 0.10588039
000200 48 55 05 be 4a 18 da bd 7d 9d 40 3d f2 d0 ac 3d
       -0.13020813 -0.10649164 0.047025193 0.08438291
000210 b3 c3 83 3d c2 98 8c bc f4 92 e6 bd 82 2f b2 bb
       0.06433811 -0.017162684 -0.11258498 -0.0054377923
000220 7d 37 ab 3d e6 12 00 be 49 75 01 be 45 45 6e bd
       0.08360193 -0.12507209 -0.12642397 -0.05817153
000230 a8 52 e0 bd e2 50 bc bc 3b 45 77 bd 31 0a b3 3d
       -0.109532654 -0.022987787 -0.060368758 0.08742178
000240 01 89 f6 bd 4e 74 14 3d e5 60 5a 3d f2 48 e8 3c
       -0.1203785 0.03624373 0.053315062 0.028355096
000250 cf fb a1 3b f6 56 31 3c ee ae 18 3d 9a 46 bd 3b
       0.004943348 0.010823956 0.0372762 0.0057762386
000260 64 0e 3a 3b 87 d6 8f 3d 83 3b cc bd 9d c7 a0 bd
       0.0028389925 0.0702334 -0.099722885 -0.07850573
000270 26 0b b1 bd c8 3c bd 3d bf 40 62 3c 70 40 aa 3d
       -0.086447045 0.09240109 0.013809382 0.08313072
000280 a6 5b 8b 3d a9 be c6 bd a6 af 91 3d 84 89 db 3d
       0.0680459 -0.09704334 0.071135804 0.107195884
000290 76 94 28 bc 35 f6 ab 3c 89 6d 82 bd bc d9 ef 3d
       -0.010289302 0.020991424 -0.063685484 0.117114514
0002a0 d9 1b c0 bd fd b4 9e 3c 80 61 6a bd 59 d8 ba bd
       -0.093803115 0.019373411 -0.05722189 -0.09123296
0002b0 20 40 4b 3d 4c fb 05 be fb 2d 57 bd 01 7d 8d bd
       0.0496217 -0.13084143 -0.052534085 -0.06908608
0002c0 32 be a9 bc b0 48 b3 3c 78 79 b5 bd d2 c5 17 bd
       -0.020720575 0.021885246 -0.08861059 -0.03705389
0002d0 10 d3 b6 3c be a0 0c be 49 9d 02 bd 2c 6b 15 bd
       0.02231744 -0.13733193 -0.03188828 -0.03647916
0002e0 bd 2d 07 be 08 ba a0 3d 92 c7 e3 3d c7 16 03 be
       -0.13201042 0.07847983 0.111220494 -0.12801658
0002f0 06 88 b1 bd 75 48 84 3c 32 1f 37 be 39 66 d4 3d
       -0.086685225 0.016147831 -0.17882994 0.1037106
000300 26 87 bf 3d 7e a2 cd bd c2 72 fa 3d 31 f5 a1 bc
       0.093519494 -0.100407586 0.122289196 -0.019770237
000310 8f f3 92 3d 63 6b ef 3d 16 ee e9 bd 49 78 f0 bb
       0.07175361 0.11690404 -0.114223644 -0.007338558
000320 cd 64 3b bd 1e 05 d4 bc 68 3a c2 bd 77 1e 6c bd
       -0.045750428 -0.025881346 -0.09483796 -0.05764624
000330 5d 36 fe bc 2d 9d e8 3d cf 49 88 3d b3 e8 bd 3d
       -0.031031782 0.11358104 0.06654703 0.092728995
000340 91 58 b0 bd a7 a6 77 bd 84 25 9a bd bf 62 a0 3d
       -0.08610643 -0.060461666 -0.07526687 0.07831334
000350 33 f3 e9 bd a2 e2 d7 bd 54 2e cf bd 20 6b cb 3d
       -0.1142334 -0.10541274 -0.10116258 0.09932542
000360 95 76 f6 bc eb 81 b6 bd bf 35 d5 bd 3e ad fe 3d
       -0.030085841 -0.08911499 -0.10410642 0.12435387
000370 65 41 9c 3d de d6 bc 3d 79 18 0a 3e 10 75 fa 3c
       0.076296605 0.0922067 0.13485898 0.030573398
000380 42 67 27 be 47 23 1e be a6 5f cd bd a9 d1 1f bd
       -0.16347983 -0.15443145 -0.10028009 -0.039018307
000390 93 0a ad 3d a0 41 e2 bc 06 cf f3 3d 50 8d f3 bd
       0.084492825 -0.027619183 0.11904721 -0.118921876
0003a0 5e 79 3d bb ab 49 2c 3c b0 61 4b 3d 7c fe ee bd
       -0.0028911452 0.010515611 0.04965371 -0.11669633
0003b0 2f 20 c2 3d 66 16 8e bd 0c 05 99 3d 15 ac 7a bd
       0.09478795 -0.06937866 0.07471666 -0.061199266
0003c0 83 ef 91 bc 78 2b 92 bd 91 54 cd 3d 82 20 d2 bd
       -0.017814403 -0.07137197 0.100258954 -0.102601066
0003d0 e3 31 e9 3d 3f ee e7 bd 20 60 bd 3d 0b d3 ad ba
       0.11386468 -0.11324739 0.0924685 -0.0013261748
0003e0 03 99 f0 bd 04 2c 3c bb 46 36 85 bd c3 e2 95 3c
       -0.11747935 -0.0028712759 -0.065044925 0.018296605
0003f0 8d 81 8e 3d 2d 51 80 bd a6 b2 66 3d 3b c7 ca 3c
       0.069583036 -0.06265483 0.056322716 0.024753204

layers.2.lin_r.weight f4 [32, 64]
000000 54 4f 33 3d 27 1f 3c bd da 6c e0 3d 2e 37 02 be
       0.043776825 -0.045928147 0.10958262 -0.12716362
000010 b0 d7 ac 3d d3 d9 45 3d 0a 54 87 3d 2e 5f bc bb
       0.084395766 0.048303436 0.06607826 -0.005748651
000020 11 0a 24 bc e3 08 7f 3d 68 c3 49 bd 3a 71 53 bd
       -0.010012166 0.062264334 -0.04925862 -0.051621653
000030 b4 63 26 bd 59 fe 02 3e 9f 33 b7 bd 44 f0 ba bd
       -0.040622428 0.12792338 -0.08945393 -0.09127858
000040 55 e2 b6 bd ad 12 a4 bd 4a 42 e2 bc b3 76 ab 3c
       -0.08929888 -0.080113746 -0.0276195 0.020930624
000050 e9 d7 96 3d dd 31 66 bc eb af a1 3d a1 a2 fe bd
       0.073654 -0.014049974 0.07894882 -0.12433363
000060 84 1b d6 bd 5b 96 d2 3d 42 cf 31 bc eb 1d f5 3d
       -0.10454467 0.10282584 -0.010852637 0.11968597
000070 90 64 02 3e a0 6b 8b bc 0f 41 4c bd f6 ee 87 3d
       0.12733674 -0.017019093 -0.049866732 0.06637375
000080 89 83 89 3b 67 78 0a bd 9f 90 c1 3d b5 54 02 3d
       0.0041965884 -0.03380623 0.094514124 0.031819064
000090 a8 72 ec bd d8 c9 b2 bc 5a 2e c1 3d 93 02 62 bc
       -0.115453064 -0.021824762 0.09432669 -0.013794559
0000a0 38 b8 05 be 99 e4 e2 3d 1f 30 75 3d 29 e6 a8 bd
       -0.13058555 0.11078758 0.059860345 -0.082470246
0000b0 7c 8a fe 3d be 0d b5 3d 3b 2c c2 3d c7 24 91 3c
       0.124287575 0.08840512 0.094810925 0.017717732
0000c0 93 cc 0c bd da 78 95 3c 8a 0a 91 3d 48 04 36 3c
       -0.034374785 0.018246103 0.07082088 0.011109419
0000d0 74 d4 ce 3d 82 de 9d 3d b2 d4 1c 3c 0c d5 a4 3d
       0.10099116 0.077084556 0.009572195 0.08048448
0000e0 a3 0f b6 3d 35 36 74 3c 8f f0 b5 bd f8 31 3a bd
       0.08889701 0.014905502 -0.088837735 -0.04545781
0000f0 aa e3 ff 3d 26 7f a0 3c c9 c3 ff bd 0c 2a 70 3d
       0.12494595 0.01959188 -0.12488515 0.05863385
000100 3b 3d 6f bd 55 15 fd 3d 1c 12 05 3d 29 d8 b3 3d
       -0.058408003 0.123575844 0.032487974 0.08781464
000110 97 a3 4a bd 19 7e d8 bc fd 0d cf 3d 3a 23 a5 bd
       -0.049472418 -0.026427316 0.1011009 -0.080633596
000120 20 54 ab bd b8 07 cf 3d 37 29 a6 bd b9 2f b5 bd
       -0.08365655 0.10108894 -0.0811333 -0.08846993
000130 72 02 82 3d 18 17 9d bd 6a 3d f7 3c 6a 22 b4 3d
       0.06348123 -0.076704204 0.030180652 0.087956265
000140 2a e0 9d 3d df 24 c3 bd 59 c3 ab bd 44 0f 8e 3d
       0.077087715 -0.09528517 -0.08386869 0.069365054
000150 21 af 05 3d 46 b8 c9 3d ee e1 b6 bd 1a d9 ea bd
       0.03263772 0.098496005 -0.089298114 -0.1146719
000160 f0 e5 a7 bd fd 76 cc 3b 4f 70 95 3c bf f7 00 bd
       -0.08198154 0.0062397704 0.01824203 -0.03148627
000170 8f f7 97 bd 48 04 de 3d 33 23 0d 3d 4d 2a 18 3a
       -0.07420265 0.1084066 0.034457397 0.0005804643
000180 6e 30 00 be ee 61 1f bd 6b 96 e6 3c f6 fc 76 3d
       -0.12518474 -0.038911752 0.028147897 0.060299836
000190 7d 60 c7 bd 56 ff c4 3d 3a 61 fa bd 48 c2 ad bc
       -0.097352006 0.09619014 -0.12225576 -0.021210805
0001a0 4d 35 2c bd 7c 21 7a 3d 26 3b 48 3d ac ca f3 bd
       -0.04204302 0.06106709 0.048884533 -0.11903891
0001b0 5f 88 e9 bd 13 01 bb bc 74 e8 b1 bd 1d f3 55 bd
       -0.11402964 -0.02282766 -0.08686915 -0.052233804
0001c0 c4 ac 98 3d 00 55 2b 3d 08 af d3 3c 01 b0 f9 bd
       0.074548274 0.04182911 0.025840297 -0.12191773
0001d0 f5 a2 8b bd b4 4f 6a bd f8 27 c8 bc c1 21 86 3b
       -0.06818191 -0.057204917 -0.024433121 0.0040933792
0001e0 d7 5f 1f 3c e0 10 ae 3d 5c 4e ba bd f6 ff 9c bd
       0.00972744 0.084993124 -0.09096977 -0.07666008
0001f0 95 f7 83 3d 2b d9 56 3d 8d df bf 3d 7c 2b d8 bc
       0.06443707 0.0524532 0.09368811 -0.026387922
000200 da 72 d6 bd 2d f0 15 be 9f 49 c1 bd b3 b1 46 3d
       -0.10471125 -0.14642401 -0.0943787 0.04850931
000210 e8 df e3 3c af 52 85 3b d3 8d 87 3d 45 cb 95 bd
       0.027816728 0.0040686945 0.06618848 -0.07314161
000220 5c aa d2 bd 3e a1 26 bc a2 a0 97 3d 64 8b 92 3d
       -0.102864 -0.010170279 0.07403685 0.07155493
000230 1e 80 16 bd ad 3f ed 3d 58 5d d7 3b 71 ac c1 3d
       -0.036743276 0.11584411 0.0065724067 0.09456719
000240 62 1d 47 3d da 0d ef 3c 5d 3a 10 be e9 d1 cd bc
       0.048612006 0.02918141 -0.14084764 -0.025124507
000250 9d 1a f3 bd 68 6b 0d be a0 8e cc bc 3d 86 ad bd
       -0.118703105 -0.13810503 -0.024970353 -0.084728695
000260 96 bf 66 bd 77 d2 9e bd 7f f1 65 3c f9 a8 5c 3d
       -0.056335054 -0.07754987 0.014034628 0.053872082
000270 7e 81 3c 3c fc fd a5 3d 62 f9 6d bd 66 ac b1 3d
       0.011505483 0.08105084 -0.058099158 0.086754605
000280 95 c6 e3 bc 7b 67 99 3d f6 0f cf bd a4 1b be 3d
       -0.027804652 0.074904405 -0.10110466 0.09282616
000290 9f 54 47 3d 06 3d a0 3d 0f 92 4e bd 54 3f 2b 3d
       0.048664685 0.07824139 -0.05043226 0.04180844
0002a0 74 8a 92 bd c8 c5 21 3d 78 ce d0 3d 11 69 c6 bd
       -0.07155314 0.03949526 0.10195631 -0.096880086
0002b0 5b be 55 3d 73 f0 62 bd 1a bc d7 bd 94 7b a7 3d
       0.05218349 -0.05540509 -0.105339244 0.081778675
0002c0 20 10 23 bd 8e 1b db bd 90 14 cf 3d 76 4c 5d 3d
       -0.0398103 -0.10698615 0.10111344 0.054027997
0002d0 79 e6 a7 3d 32 f9 92 3d f4 91 e6 3d 9e 5f b0 3d
       0.08198256 0.071764365 0.11258307 0.086119875
0002e0 39 b9 0e bd d7 29 00 be d1 f4 9d 3d 61 4d ae bd
       -0.03484461 -0.1251596 0.07712711 -0.085108526
0002f0 5a 23 96 bd bb 57 be bd fb 3d b3 3d 31 28 ea bd
       -0.073309615 -0.09294077 0.08752056 -0.11433447
000300 84 c6 2e 3e be f7 96 3c 7b eb 3f 3e f7 ef 37 3d
       0.17067915 0.01842868 0.18742172 0.044906583
000310 1a 4c 68 bd 7c 07 9c bd 39 77 e5 bd 91 2f 88 bd
       -0.0567132 -0.07618615 -0.112043805 -0.066496976
000320 6a f7 f7 3d 35 80 18 bd bc 5d c3 3d 2c f8 1e 3d
       0.12107737 -0.037231643 0.09539363 0.038810894
000330 43 ca b9 bd 54 28 80 bd e1 f7 09 3d d5 26 dd 3d
       -0.090717815 -0.06257692 0.03368366 0.10798422
000340 d6 4d 91 3d 45 fb 01 be 90 fe 32 be db af bb 3b
       0.07094924 -0.12693508 -0.1747992 0.0057277507
000350 8d d6 a9 bd e2 ce ba bd c3 cc 43 bd 3a 94 08 bd
       -0.082928754 -0.09121491 -0.047802698 -0.033344485
000360 f7 f2 84 3c ed 2e 5f bd aa fb b8 3c 62 ed 84 3d
       0.016229136 -0.05448811 0.02258094 0.0649059
000370 25 b5 3a bd ea e7 bf bd 0d ac 82 3e 00 64 6a ba
       -0.04558291 -0.09370406 0.2552189 -0.0008941293
000380 a7 0c f6 bd 09 8e bb bd 66 43 33 3e b8 b2 9a 3d
       -0.12014132 -0.091579504 0.17506179 0.07553619
000390 18 7d b8 3d a7 1b 7d 3d 3a 4c 08 be e0 b8 80 bb
       0.09008235 0.06179395 -0.13310328 -0.003928289
0003a0 90 81 67 bd 3a 47 94 3c b8 2c ae 3b 1f 38 9d bc
       -0.056520045 0.01810037 0.0053153895 -0.0191918
0003b0 52 f5 84 bd 58 48 93 3d 19 34 e0 3d 1a 18 c7 bd
       -0.06492104 0.07191533 0.10947437 -0.09721394
0003c0 20 c3 8e bd 2c 42 cd 3d 00 24 aa 3d 94 27 69 3d
       -0.06970811 0.10022387 0.08307648 0.05692251
0003d0 a0 25 9c bd 11 63 d6 bd 46 cd 9a bd be f4 88 3d
       -0.07624364 -0.10468114 -0.07558684 0.06687306
0003e0 c8 46 1f bd d5 da 5c 3d 89 51 ed 3c 95 f2 2b 3d
       -0.03888586 0.053919632 0.028969543 0.04197939
0003f0 58 aa 12 3e 08 1f c9 bd 8a 1c 01 be 41 bf 2b 3d
       0.14322793 -0.09820372 -0.12608543 0.04193044

fc11.weight f4 [16, 32]
000000 09 ca 0a 3e bc 65 90 3c e2 68 38 3d 77 dc 46 3e
       0.13553633 0.017626636 0.0450219 0.19420038
000010 89 dd 23 3e 1f 98 d2 bd dd 47 45 3e e5 fb 9f bd
       0.16002478 -0.10282921 0.19265695 -0.07811717
000020 0a 86 b3 bd 0c 7b 17 3e 99 da 2d 3e 43 84 f1 3d
       -0.087658 0.14793032 0.1697792 0.11792805
000030 db 81 56 bc b3 1f 7d bd bb fb 6f bb 47 f8 fa 3c
       -0.013092483 -0.06179781 -0.003661855 0.030635966
000040 86 a2 09 3e e9 86 8d 3d e9 1a 1f bb c8 e9 08 be
       0.13440904 0.06910498 -0.0024277514 -0.1337043
000050 40 2f 7c 3d 02 ec bd bd 68 54 44 bd 64 13 47 3e
       0.0615685 -0.092735305 -0.04793206 0.1944099
000060 87 20 10 3e bb ac 9f bd f7 03 10 3d d9 3a b1 3d
       0.14074908 -0.077966176 0.03516003 0.086538024
000070 64 7f 1c be 38 c6 d4 3d 34 0e 80 3d 3a a3 ae 3d
       -0.1528297 0.1038937 0.06252709 0.08527227
000080 e9 bc 99 3d f0 38 0e be 92 06 e7 b9 ea 26 df bd
       0.07506735 -0.13888907 -0.0004406465 -0.10896094
000090 cc 26 b3 3d 15 2b b6 3c 5c 8a aa bd b1 e3 1d 3e
       0.08747634 0.02223734 -0.08327171 0.15418889
0000a0 e9 bc 01 3e 34 a7 07 be e4 5c 2b be 02 df fd 3d
       0.1266972 -0.13247377 -0.16734654 0.12396051
0000b0 39 89 80 3d e8 9c 23 be 6b 4b 0a 3e e8 e6 ad 3d
       0.06276173 -0.15977824 0.13505332 0.084913075
0000c0 ec 5b da bd 2b e7 ac bd 0b eb 20 3e 29 ed b2 bd
       -0.10662064 -0.08442529 0.15714662 -0.08736641
0000d0 32 47 0f be df 71 8e bd 89 ff b0 3c 11 1c 32 be
       -0.13992003 -0.06955313 0.021606224 -0.17393519
0000e0 ca 95 e4 bd 4e 72 f3 bd c3 e0 4e bd 00 3a 79 3d
       -0.111613825 -0.11887036 -0.05050732 0.06084633
0000f0 b9 0f 00 bd aa 7d 1b bd f3 6d 39 bc 7a 82 88 bd
       -0.031264994 -0.03796164 -0.011317718 -0.066655114
000100 99 a0 29 3e 75 a8 7d bd 49 a5 e3 bc 77 ad 8d bd
       0.1656517 -0.06192823 -0.027788775 -0.069178514
000110 34 36 96 bc 23 51 b2 b9 43 68 f3 3d 20 6f 26 3e
       -0.018336393 -0.00034011257 0.11885121 0.16253328
000120 c5 3e bb 3d 2b 45 00 3e f5 80 8f bd 38 4a a2 bc
       0.09142832 0.12526385 -0.070070185 -0.01981078
000130 8c c6 25 3e 88 8d 15 3e 0c d7 23 3c 51 bc 1f be
       0.16189021 0.14604771 0.010000002 -0.15599181
000140 7a f0 2e be 83 ad 9a bd cb be f2 bc 4d 35 3b 3e
       -0.17083922 -0.07552626 -0.029631993 0.18282051
000150 0f b6 9e bd b5 0a 30 3e fe 41 fd 3d e2 b8 3d be
       -0.07749569 0.17191584 0.12366103 -0.18527558
000160 fb 2b cc bd d1 e7 04 be 54 07 3c 3e 66 ef 5d bd
       -0.09969326 -0.12979056 0.1836217 -0.054183386
000170 36 3e 11 3e b1 6c 22 3d a5 0f e9 3d c0 40 be 3d
       0.14183888 0.039654437 0.11379937 0.09289694
000180 32 f7 1c 3e 22 b0 d5 3d 37 22 6a bd 20 27 9b bd
       0.15328673 0.10433985 -0.057161536 -0.07575822
000190 20 f0 64 39 5f ec a3 bd 9d e3 37 3c cf 55 c0 bd
       0.00021833228 -0.080040686 0.011223701 -0.09391367
0001a0 26 58 97 3d 5b 48 0f 3e 3e 87 e1 bb 3f a6 a5 3d
       0.0738986 0.13992445 -0.006882577 0.080883496
0001b0 e2 5a 80 bd 16 e1 ae 3d 27 d0 87 3d d1 be 84 bd
       -0.062673345 0.085390255 0.06631499 -0.06481708
0001c0 43 49 8a 3d 59 52 f6 bd 32 a6 f4 bd 8d 56 1e 3d
       0.06752255 -0.12027425 -0.11945762 0.03865676
0001d0 71 a6 28 be 72 84 58 bd d7 1b a8 bd c0 81 37 bc
       -0.16469742 -0.052860685 -0.08208435 -0.011200368
0001e0 d4 55 1a be 8f 94 0d 3e 73 88 12 3e 88 0b 44 3d
       -0.15071803 0.13826202 0.14309864 0.04786256
0001f0 05 e0 32 bd 5a c0 4e 3e 4c 35 46 3d 45 04 2b 3e
       -0.043670673 0.20190564 0.04839067 0.16700847
000200 7a dc 11 3e e5 32 fc 3d e3 d7 75 bc db 27 07 3e
       0.14244261 0.12314395 -0.015005085 0.13198797
000210 e4 5c 2d be ba dc 8b bd 3e 89 9a 3d 4e 80 25 be
       -0.16929966 -0.068292096 0.07545708 -0.16162226
000220 c0 96 ab bb f3 95 f1 bd 6f fd 8d 3c b3 b0 13 3e
       -0.0052364767 -0.11796179 0.01733276 0.14422874
000230 a7 05 93 3d 50 dc c6 3d 8c 7f 17 3e d5 1c 0f be
       0.071788125 0.0970999 0.14794749 -0.13975842
000240 2c 65 1d 3e 1d 23 34 3d 0e ad fa 3d fb d9 b9 bd
       0.15370625 0.0439788 0.12240039 -0.090747796
000250 be 7f 3c 3e 91 e9 18 bc 52 78 92 bd fc 65 93 3d
       0.18408105 -0.00933303 -0.071518555 0.07197186
000260 4f 69 0e 3e d3 8d ee bb 65 88 9c bc c4 7c 1f 3d
       0.1390736 -0.0072800904 -0.019108007 0.038937345
000270 17 29 0d bd 95 27 d4 bc c2 1a 37 3e 11 fe c8 3d
       -0.034463014 -0.02589778 0.17881301 0.09814084
000280 bf 34 05 3e 3c 69 79 bd 19 01 a7 bd 79 94 cb bd
       0.13008402 -0.060891375 -0.08154506 -0.09940428
000290 bd 36 84 3d 8a cf 24 be 38 2a 8d bd 1c 3b 10 3e
       0.06455753 -0.16094795 -0.06892818 0.14085048
0002a0 16 d6 b7 bd 06 32 bd 3c ea 84 44 3c 9e c6 3f be
       -0.089763805 0.023095142 0.01199458 -0.1872811
0002b0 01 e4 d8 bd 4b d6 9f 3d fb 56 c7 3d aa 37 2e bd
       -0.10590363 0.07804545 0.09733387 -0.042533554
0002c0 92 12 c4 3d 7b c8 50 be 62 40 93 bb 68 b4 8c bd
       0.095738545 -0.20388977 -0.004493759 -0.06870347
0002d0 e7 0e 40 be 88 45 7a bd e5 1d e8 3c 96 ca 9e 3d
       -0.18755685 -0.061101466 0.028334567 0.07753484
0002e0 5e 90 d3 3c 62 51 59 bd 7b 58 0c bd 48 c5 ed 3c
       0.025825676 -0.05305613 -0.03426407 0.029024735
0002f0 72 50 09 3e 40 a6 97 3d 09 8b 01 3d ab 1c 29 3e
       0.13409594 0.074047565 0.031626735 0.16514842
000300 5c ea 9a bd 95 80 3d bd 67 c3 23 bd 79 c5 e2 bc
       -0.07564232 -0.046265204 -0.039981272 -0.027682053
000310 82 7f 22 3e 16 a6 09 3e d9 0e 86 3d 7a f2 f8 bd
       0.15868953 0.13442263 0.06545801 -0.12155624
000320 73 eb 7f bd e0 ed fc 3d c7 ae 15 3e 31 10 b6 bd
       -0.0624804 0.123500586 0.14617454 -0.08889807
000330 5a 72 71 3d 72 de be 3d d4 cc 79 3d 19 4c 2e be
       0.058946945 0.09319772 0.060986355 -0.17021216
000340 fb c9 4b bd 53 ff 3d 3c 43 70 1a 3d d9 8b dc 3d
       -0.04975317 0.011596519 0.037704717 0.10768861
000350 75 6c 08 be d8 93 2e bd 06 7b 82 bd 33 a2 dd 3d
       -0.13322623 -0.042621464 -0.06371121 0.10821953
000360 c5 35 19 3e f5 cf 18 be af 36 26 3d f5 e9 0c 3d
       0.14961918 -0.1492308 0.040579494 0.034402806
000370 fb 5d a2 bd 2a f1 f1 bd 77 89 86 3c 78 6e 28 3e
       -0.079280816 -0.118135765 0.01642297 0.1644839
000380 4d fb 26 3e c2 7e 23 3e 6f d5 30 3e ed 87 00 bc
       0.16306801 0.15966323 0.17268918 -0.007844907
000390 b8 10 07 be e7 fc 10 3d 75 04 19 bd 6b e0 bd 3d
       -0.13189971 0.035397436 -0.037357766 0.0927132
0003a0 01 7c c5 bc ad b7 c9 3b e3 92 13 3e 1f c3 21 be
       -0.024106981 0.006155929 0.14411502 -0.15797089
0003b0 8c 9c f6 bd 10 bc 05 be 4a 2c de bd 3c cf ac 3a
       -0.12041578 -0.13060021 -0.10848291 0.0013184319
0003c0 ba a2 f6 3d 73 d7 0f be 56 77 20 be 68 ea a3 3d
       0.120427564 -0.14047031 -0.15670523 0.08003694
0003d0 b1 03 fc 3d e1 26 75 bd 83 f0 69 bd af 61 0c be
       0.123053916 -0.05985153 -0.057114135 -0.13709138
0003e0 74 8d 9c 3d 7d 03 20 be bb 5a e5 3c 7e 4d bc 3c
       0.076441675 -0.1562633 0.027997365 0.02298617
0003f0 32 fb 36 3e 63 91 06 3e 8d 95 bd bd 79 b1 e9 3d
       0.17869261 0.13141398 -0.0925704 0.11410803

fc11.bias f4 [16]
000000 ba 2c 5f bd cc a9 8e 3d 43 e6 db 3d 36 7d e4 3c
       -0.054486014 0.0696598 0.10737278 0.027891736
000010 22 21 02 3e 72 02 e3 3d 5c 4e 90 3e ad 45 a1 3d
       0.12707952 0.11084451 0.28184783 0.07874618
000020 36 1f de 3d b3 20 a4 3d ee b6 04 3e 40 ba 71 3e
       0.10845797 0.080140494 0.12960407 0.23606205
000030 0b dd 83 bd f9 67 3a be b4 bd c4 3d 35 3a b3 bd
       -0.06438645 -0.18203725 0.096064955 -0.087513365

fc12.weight f4 [1, 16]
000000 cc 5a ce bd b5 9a 76 3d c8 10 04 3e 14 06 7d 3e
       -0.10075912 0.060206134 0.12897027 0.2470935
000010 09 0c 49 be 96 33 46 3e ad b8 90 bd f9 54 65 3d
       -0.19633497 0.19355616 -0.07066474 0.05598924
000020 b7 f0 68 3e 23 2d a5 bc 9d 02 8b be b3 d1 01 be
       0.22748075 -0.020163124 -0.2715043 -0.1267765
000030 34 19 63 be 64 33 76 3e d9 7d 0a be dc 69 3c 3e
       -0.22177583 0.24043041 -0.1352457 0.18399757
