trained_models/delete_later/GraphConv_64_3/base_model.pt (torch, 61255 bytes, 9 tensors)

layers.0.weight f4 [14, 64]
00000000: bf78 7bbe cdda d2bd 179e ba3d 743c 7ebe
00000010: fa46 863e 96b1 6f3e 2d58 babc 27ee 753e
00000020: d821 dbbd f061 7b3d e053 f1bd fe6e 273c
00000030: e04f ac3d 88b7 5e3e 81d0 14be 08fc 333d
00000040: 22e3 83be 146b 3c3d 5a63 153e 8ab1 4cbe
00000050: 0956 37be 43f5 2c3e 867c dcbd 0af2 c23d
00000060: 7a3a 843d 19e6 583d f1fc 6e3d 0f19 113e
00000070: 19aa 373e ae42 da3c 3dbf 353e d1e5 99be
00000080: eb1b ab3d 45a2 76bc 7b0f e43d e892 7fbe
00000090: bd86 2dbe 521c c63d 6e5a 32bd f3db 58be
000000a0: 525f 153e 2057 02be d399 b53d 2587 87be
000000b0: 0eea 073e 6d0a 763e 62c9 7fbe 015f 7d3d
000000c0: 9f42 163e e387 5abe c19f 28be f350 8cbe
000000d0: b4ff 87bd 1172 1e3e e20c 273e abf2 b23d
000000e0: 6394 513e 52c8 493e 1861 f6bd 8c87 00bc
000000f0: 56e6 e03c 0c5e 283e 4a4a e53c dd7e 023e
00000100: 7d52 3ebe 0c51 2d3e a901 fc3d 1db7 af3d
00000110: c34a 6ebe bb36 21be fddb 38be e1a3 72bd
00000120: 7a72 493e 4fad a2be 8e52 4f3e 9764 48bd
00000130: 3e78 b0be ff76 7dbe d59e 8dbe a4d5 85be
00000140: f450 d23d 3bed 273e 3274 efbc b794 1e3e
00000150: c5e2 bb3d 1736 bd3d d1ee 933d 5f6d 8e3e
00000160: e0bb 053e 1c76 83bd e54a 50bd a4bd a83d
00000170: c786 4dbe 89dd 6b3e c8df 5bbd 211e ce3c
00000180: 28cf 753e 4b2c ab3d 08f8 8bbe 860a 4ebe
00000190: 5cb9 743e 3751 f5be 0f2b 873e b141 0dbd
000001a0: 58d8 87be 62c7 d33b c64d 113e 9b1f 163e
000001b0: b1f3 113d 9abb b4be 09cd efbd 22d5 a0bd
000001c0: b6e0 51be 8514 7bbe 0fe3 8cbd 308a e53d
000001d0: b796 0c3e a442 8ebd 1729 46bc 713b f0be
000001e0: f1ca 7b3e 8e66 2c3e 2e51 b4bd 5f8f bc3d
000001f0: 9a1f a93e a36e 3cbe 4d89 84be a869 103e
00000200: ad46 583e 2ab9 5d3d 862b 1e3e 1257 013e
00000210: 7ebe b4bc bc50 efbd 38d5 883c c2a4 2bbe
00000220: c854 01be 8f6c 5bbe 5258 633e 8a9d 5cbc
00000230: 11b5 153d c38e d13d a225 553e 60de 633e
00000240: 32f4 ab3c 4649 85be 6172 8abe 57a9 09bc
00000250: ea9d 113e 7222 8a3d 3f4e ab3d 1f5a a3be
00000260: 1e20 4fbe 1adb e4bb cf7c 8dbc 482a 2b3e
00000270: a7fc 9cbc 1a8d 2fbe 7c75 5bbe 6018 e2bb
00000280: 676b 70bc ee7b 7cbe c6a2 28be 955a a83e
00000290: 6cc5 fc3d e95e 1b3e b0d1 acbe daf3 163d
000002a0: c5a6 3c3e 59cd 2cbe 87fe af3d 9c36 6cbd
000002b0: 6c68 913d 50d3 abbe fe77 87bc c4c8 04be
000002c0: 2f08 cebd 840c de3d 43c4 23be 9aec 953e
000002d0: 9b0b 56be d6ff 9abe 96c3 59be 49e1 8bbe
000002e0: c42f edbd 08cb 92be bda4 b0be dfdd b0bd
000002f0: a940 953d e471 c83e c800 553d 5fd2 7a3e
00000300: 6bda 0d3d fd53 0e3d 8b12 72be af5a 7a3e
00000310: fe39 c43c a7f8 d33d bd8c ee3d 8103 5abe
00000320: f088 3bbe 573b 763d f25c 5b3d 3074 29be
00000330: 2ff1 0bbe c709 06be a895 30be 8fe4 80be
00000340: e27b 203d a684 39be e942 59be a4ed 423e
00000350: 5bd6 aebd f0ef 20be 17af d73d 53e9 2a3e
00000360: 6d11 37be 6888 c4bd 9d76 2ebd ea09 b1bc
00000370: a9a4 973d 29ee c1bd 80b8 ba3b 6d44 443e
00000380: fece 813c 8123 6fbe d8d2 aebd 0be2 d3bd
00000390: ea02 443c 6edf e23d 4d9d 593e 6298 49be
000003a0: c94e 87be 47bb f5bd 85ca 77be 0ca7 2dbe
000003b0: fdc1 d43d a9d6 f2bd f51e d63d 1ee9 873e
000003c0: c4b2 47be 2f9b 20be 2aec 313e 69e7 063e
000003d0: 3f5f 423e 078d 193e e5f9 933d 9aec 1cbe
000003e0: 18dd 753e ef92 2abe e6d2 14bd 7b3c 1c3e
000003f0: 0b9a c93d 0a2b ecbd 8b71 f0bd 029f 8e3d
-0.2455778 -0.10295639 0.091121845 -0.24827749 0.26226026 0.23407587 -0.022747124 0.24016629
-0.106998146 0.061372697 -0.11783576 0.010219334 0.084136724 0.21749699 -0.14532663 0.043941528
-0.25759226 0.046000555 0.14588681 -0.19989601 -0.17903914 0.16890435 -0.107659385 0.095188215
0.06456466 0.052953813 0.058346692 0.14169715 0.17935981 0.026643123 0.17748733 -0.30058149
0.08354934 -0.0150533365 0.11135765 -0.24958384 -0.1694593 0.096733704 -0.04354327 -0.21177654
0.14587143 -0.12728548 0.0886723 -0.26470295 0.13272879 0.24027415 -0.24979165 0.06185818
0.14673851 -0.21340899 -0.16467191 -0.2740551 -0.066405684 0.154732 0.16313508 0.087376915
0.20466761 0.19705322 -0.12030238 -0.007844817 0.027453583 0.16442126 0.027989525 0.12743707
-0.18586154 0.16925448 0.12305004 0.08579848 -0.23270707 -0.15743534 -0.18052669 -0.05923832
0.19672576 -0.3177285 0.20246336 -0.048924055 -0.34466738 -0.24752425 -0.27660242 -0.26139557
0.10269347 0.1639909 -0.02923021 0.15486418 0.09174112 0.092388324 0.07223285 0.2781782
0.1305995 -0.06419012 -0.050852675 0.08239296 -0.20070945 0.23033728 -0.05368021 0.025160851
0.24004805 0.083580576 -0.2733767 -0.20121202 0.23898834 -0.47913525 0.2640004 -0.034486476
-0.26532245 0.0064629773 0.14189824 0.14660494 0.035632793 -0.3529938 -0.11709029 -0.07853152
-0.20495877 -0.24519546 -0.068792455 0.11207998 0.13729368 -0.069463044 -0.0120947575 -0.4692035
0.24589135 0.16835997 -0.08804546 0.09207033 0.33031923 -0.1840158 -0.25886002 0.14102805
0.2112071 0.054131664 0.1544629 0.12630871 -0.02206349 -0.11685321 0.016703233 -0.16762069
-0.12629998 -0.2142813 0.2220166 -0.013465295 0.03654963 0.10232308 0.20815137 0.22252798
0.020990465 -0.26032466 -0.2704039 -0.00840219 0.14220396 0.06744851 0.08364534 -0.31904694
-0.20227095 -0.0069841268 -0.017271427 0.16715348 -0.019163443 -0.1714367 -0.21431535 -0.0068998784
-0.014674044 -0.2465665 -0.16468343 0.3288161 0.12342343 0.15172924 -0.3375373 0.03685365
0.18422993 -0.16875209 0.08593469 -0.057669267 0.07099995 -0.33559656 -0.016536709 -0.12967211
-0.10060155 0.10842231 -0.15992837 0.29282075 -0.20902865 -0.30273312 -0.21266016 -0.27320316
-0.11581376 -0.28670526 -0.34500685 -0.086360686 0.072877236 0.39149392 0.0520027 0.24494313
0.034632128 0.034748066 -0.23639886 0.24448656 0.023953434 0.10350161 0.116479374 -0.21290399
-0.18313956 0.060115185 0.053555436 -0.16548228 -0.13666223 -0.13089667 -0.1724459 -0.25174376
0.039180644 -0.18117008 -0.2121693 0.19035965 -0.08536979 -0.15716529 0.105314426 0.16690569
-0.17877741 -0.0959633 -0.042593587 -0.021611173 0.07404453 -0.094692536 0.0056982636 0.19166727
0.015845772 -0.23353387 -0.08536309 -0.10345849 0.011963585 0.11077772 0.21251412 -0.19687036
-0.26427296 -0.11998611 -0.24198349 -0.16958255 0.10388563 -0.118573494 0.10455123 0.26545042
-0.19501787 -0.15684198 0.17375246 0.13174213 0.18981646 0.14995204 0.07225398 -0.15324631
0.24010122 -0.16657613 -0.03633394 0.15257446 0.098438345 -0.115316465 -0.117404066 0.06963922

layers.0.root_weight f4 [14, 64]
00000000: 69fb eabc 90a7 813e 85bd 6b3d dc21 34bd
00000010: 9af5 9bbe 5e35 55bc ed94 ebbd 626d 423e
00000020: 6ec4 7ebe 2d18 9a3d 1606 7fbd 155f 5cbd
00000030: fdc9 28be fb24 76be 5219 35be af25 41be
00000040: 4996 353e 275b 1e3d ee96 d73d 278b 483e
00000050: eac3 5f3d 3c83 3fbe 4357 5b3e 8b7a a7bd
00000060: 7a6c 68be dbe0 22be c255 c03c 04c8 c13b
00000070: 5d5b 7fbe 1b45 513d 754e 15be a2eb 853e
00000080: 7d97 9dbc 0d51 2bbe 17e6 d0bd d79c 0d3e
00000090: f3d3 983e fd4c 823e 75c8 283d 04e2 6c3e
000000a0: bb8d b0bc a56d e33d bdf5 23be 029d ed3d
000000b0: dc1e 633e fcb4 00be 2dac 8dbc 4823 73bd
000000c0: ef8f 42be 9872 553e 56dc 4d3d 947a 74bd
000000d0: 74f8 96bd 0f1c f4bd efa8 703d 256b 33bd
000000e0: 68f9 c23d e050 0d3e 909d c23c 3165 483e
000000f0: c73a a9bd c26b f5bd b13d 00be d576 003d
00000100: f972 87bc 8b5e e6bd a133 b8bd 24c8 58be
00000110: 5c0f 7d3d 8e09 803d 278e 9b3d b974 1dbe
00000120: 326a a33e 9175 8abe 0d34 b73d 2029 a1be
00000130: 4fac 25be 781a 8dbe ebb5 a3be 5a44 363e
00000140: ec22 47be ef7f bc3d 2543 59be 0f4e 9c3e
00000150: 4c16 c23e 96c3 c63d 53b1 243e 5ef2 a23e
00000160: 21cd b83d adb6 cf3d 5a59 4ebe eafd 8f3e
00000170: d5e9 b5be ba7f 0dbe 803c 7abe 0429 c43d
00000180: 0dcc 273d 1c68 5bbe 7e6d 29be 58d7 713d
00000190: c5e3 74be 8495 2abd 1e27 2a3d ca9b a13d
000001a0: 2085 ab3e 02da 963e 31a0 d43e 8513 c13e
000001b0: 901c 3c3e 6318 0fbe d1e3 cebd 7fa2 dbba
000001c0: 50c2 a23d 12f9 5fbd cded 0bbe e0a6 62bd
000001d0: 1159 50bc 351b 76be 87b2 84be d531 1ebd
000001e0: 10d3 373e 1c07 8ebe ba44 87bc 3bdb ba3d
000001f0: 8716 13be 333c c2bd 44be 2c3e 00ef 5c3e
00000200: ae06 bdbd ebbe 113e f4dc 033e 4ba3 093d
00000210: 9d49 a7be 663c 9f3e 657b 113e 7227 dbbd
00000220: bcad 5e3e 14cc fc3d 2e61 993e 95b1 6ebd
00000230: e079 bfbd 921f ac3e a18f 8f3e b737 1dbe
00000240: 7c2c 6fbd 15ce 80be 2729 cbbc 3401 d53a
00000250: 4187 43bd 34b4 b63d 9c7d 333e 2138 89be
00000260: 77a2 a2be c16c 653e 1485 2d3e f828 edbd
00000270: e016 833e bf25 0e3c c473 5ebe 6c52 9d3d
00000280: 559a d9ba 4001 ee3d b228 793e 737d d2bd
00000290: a66f 15be 5be3 12be caeb 4b3e fe81 353e
000002a0: b3af ae3d 9078 01be 9c45 7c3d 070f d23d
000002b0: 6421 c7be 53b4 52be 64c7 083e 34e4 853c
000002c0: 172f 533e 1f96 93bd c09c a53d 06f8 c83c
000002d0: 2613 6ebe 18bd 9f3e 7c4e 1e3e b3ce 3e3e
000002e0: 52cb 9bbe ac91 4cbe 08af 053e 2347 8dbe
000002f0: 356e 3b3e a077 703e c2f4 ba3d b6d7 e5bd
00000300: 900c ae3c c4f7 20be 6657 be3d c5f8 80be
00000310: a50c 233e d86d d0bd efdc 4cbe e7a4 3e3e
00000320: 658f 423d 68ec 64be 98d5 503e f572 92be
00000330: 63c7 313e b88b 1fbd 1f80 3a3e bf20 8e3e
00000340: 2e97 0abe b743 d5bd d72c 5ebe 62c9 903e
00000350: d212 73be 5bdd edbd cea4 6bbe 44f0 803e
00000360: 425e e03d 4b1d 0d3d c3c9 28be 1186 9a3e
00000370: fad9 8dbe 131d 2fbe d76d 4bbe 00b0 ae39
00000380: 805d 2cbb 7fcd 75be ea52 69be 4b20 afbc
00000390: ea9b 633e 02be dabd 8381 69be ab41 a13e
000003a0: 4a49 44be 2fc6 783d c77c 6c3e a485 483e
000003b0: 4e54 25bd 82ff 9c3e fe7c 38be 3639 d33d
000003c0: 5d5b 90be 1061 32be 9ce3 f63c bf79 8f3e
000003d0: 01d4 85be f2f4 58be 0788 5abe ab11 203e
000003e0: 69a8 403e 9513 09bc da0f 99bd 20a5 873e
000003f0: 6637 b73c 17e4 ac3d 38e4 bebc 6375 083c
-0.028684335 0.25323153 0.057553787 -0.043977603 -0.30460817 -0.013013212 -0.11503015 0.18987039
-0.2487962 0.075241424 -0.062261663 -0.053801615 -0.16483302 -0.24037544 -0.1768544 -0.18862031
0.1773311 0.03866115 0.105268344 0.19584332 0.054630198 -0.18702406 0.21420006 -0.0817767
-0.2269763 -0.15906088 0.023478393 0.0059137363 -0.24937196 0.051091295 -0.1458071 0.26156336
-0.019237274 -0.16730137 -0.10200136 0.13829361 0.29849204 0.25449362 0.041206796 0.23133093
-0.021551957 0.111048974 -0.1601171 0.116022125 0.2217974 -0.1256904 -0.017294014 -0.05935982
-0.19000219 0.20844495 0.050258957 -0.059687212 -0.073716074 -0.11919414 0.058754858 -0.043803353
0.09520227 0.13800383 0.023756772 0.19569851 -0.08263164 -0.11983444 -0.12523533 0.031363327
-0.016534315 -0.112485014 -0.089942224 -0.21170098 0.061782226 0.062518224 0.07595473 -0.15376557
0.31916958 -0.2704282 0.08945475 -0.31476688 -0.16179012 -0.27559257 -0.3197473 0.17799512
-0.19446915 0.09204089 -0.2121702 0.30528304 0.37907636 0.09705274 0.16083269 0.31825536
0.090235 0.101422645 -0.20151272 0.2812341 -0.35529962 -0.13818255 -0.24437141 0.095781356
0.040966082 -0.21426433 -0.16545674 0.05904326 -0.23915012 -0.041646495 0.04154121 0.078910425
0.33500004 0.29463202 0.41528466 0.37710205 0.1837027 -0.13974147 -0.10102046 -0.0016756802
0.079472184 -0.05468089 -0.13664933 -0.055334926 -0.012716548 -0.24033816 -0.25917456 -0.038621742
0.17951608 -0.277398 -0.016512264 0.09123846 -0.14364062 -0.09484138 0.16869456 0.21575546
-0.0922979 0.14232986 0.12877256 0.033602994 -0.3267335 0.31100768 0.14207228 -0.10700883
0.21745962 0.12343612 0.29956955 -0.058274824 -0.09349418 0.33617836 0.28039268 -0.15353285
-0.058392033 -0.25157228 -0.024799896 0.0016250969 -0.04773641 0.0892109 0.17528385 -0.26800635
-0.31764576 0.22404768 0.16945297 -0.1158008 0.2560339 0.008675992 -0.21723849 0.07681736
-0.0016601781 0.11621332 0.2433193 -0.10277834 -0.14593372 -0.14344542 0.19914165 0.1772537
0.08529606 -0.12643647 0.061589822 0.102567725 -0.38892663 -0.205766 0.13357311 0.016344167
0.20623432 -0.07206368 0.08086538 0.02453233 -0.23249492 0.31198955 0.15459627 0.18633537
-0.3042856 -0.19977444 0.1305505 -0.27593336 0.1830376 0.23483133 0.09128715 -0.11222784
0.021246225 -0.15719515 0.09294014 -0.25189796 0.15922792 -0.10177201 -0.20006154 0.18617593
0.047500033 -0.22355807 0.2039398 -0.2860333 0.17361216 -0.038951606 0.18212937 0.27759358
-0.13534233 -0.10413306 -0.21696793 0.28278643 -0.23737648 -0.11614486 -0.23012087 0.25183308
0.10955478 0.034451764 -0.16483216 0.3018041 -0.27705365 -0.17100935 -0.1986612 0.00033318996
-0.0026300848 -0.24004172 -0.22785535 -0.021377703 0.22227445 -0.10680772 -0.22803311 0.31495413
-0.19168583 0.060735878 0.23094474 0.1958223 -0.040363602 0.30663687 -0.1801643 0.103136465
-0.28194705 -0.17419839 0.03013783 0.28022572 -0.2613831 -0.21187189 -0.21340953 0.1563174
0.18814243 -0.008366485 -0.074737266 0.26493168 0.022365283 0.08441942 -0.023302183 0.008328768

layers.1.weight f4 [64, 64]
00000000: e454 e8bc f585 c83d 09de 293c e218 0ebe
00000010: 1644 d5bc 9db6 a23d b0e0 59ba d14f 81bc
00000020: e668 ecbd aa14 00be c06c d4bd 0a92 d5bd
00000030: e092 b73d 7e3a f0bd 61e6 00be ee4c f5bd
00000040: 3ba0 f03d e9b7 a83d 4acb bdbd 9d32 bbbc
00000050: 9118 93bd cea1 1c3d 9844 c63a f12d 8fbd
00000060: ec04 0a3e e77d 853d f35d 99bd dbaf d43d
00000070: 0b09 763b 3ca4 d43d 062d a53d e9c9 0c3e
00000080: 6b5b 893d ad20 f43b 7a96 103d 9d0c dbbd
00000090: 1b02 e13d 6f23 ac3d 2616 a7bd 5b4b 86bd
000000a0: 3555 a7bd b632 793a 15fa ffbd 795a 333d
000000b0: 41b8 f43d a7c6 c1bd e7d5 843c a62a 58bd
000000c0: 60a8 dcbd a391 b7bd 5442 963d 70a7 313d
000000d0: 6a3b 153e 56c2 32be 3c37 b5bd bc1d 2fbd
000000e0: 6029 debd 193b 86bd 8a89 1f3d 6291 82bd
000000f0: 32d8 0fbe 8184 5bbc cc61 3abd 779a d4bd
00000100: df7e d73d c76f 0ebe 73de 9c3d fa01 b1bd
00000110: a767 4e3c 2acc 863d 5dab 573d ee94 a53c
00000120: 6b84 3fbc 6865 bcbd ddf6 873c 3564 47bd
00000130: cb09 cebd a0af 87bb 320d f53d 9373 9e3c
00000140: c6ba 82bd 6907 a1bd 8272 febd 2865 183e
00000150: 8220 053e 52f3 2f3d c4c1 133d 2063 a0bd
00000160: c32e 3ebc d6e5 df3c 9ced 47bd 2e84 983d
00000170: 32b4 3cbc b8bb 6a3d 9d1c 2e3e dbbd 4bbb
00000180: 8882 0a3d 9182 a83d 9fe9 c63d 3ab2 21bd
00000190: f8c7 7abd ce3d b83d edad f53d 8812 04bd
000001a0: 05c3 3dbd e03f 293d 3eaf 90bd 436a 3b3e
000001b0: 2be5 753e f279 c73d 40d2 8fbb 5e2f e43d
000001c0: a141 2bbd 8866 e4bc 6225 1ebb f8fe 123d
000001d0: 775a 003e e9bc ce3d 3bb0 17bc 9220 1bbd
000001e0: fbe3 3dbe e904 9bbd 60a5 a7bc 158a 023d
000001f0: 2440 d33c bb37 513d ce93 ab3d bad6 4abc
00000200: 4068 a33c 407b bbbd a8a6 723d e9d7 33be
00000210: 8ec5 b43d 5f04 56bd f330 f83d 253f 9fbd
00000220: d088 b5bd 75f4 b6bd b955 a53d 1d0e 95bc
00000230: f7b5 83bb a0ab 59bd e525 23be b097 ef3c
00000240: 4d9c a9bd 6350 acbc 947c d9bd ebf6 b23c
00000250: 7792 f43d ae22 0dbe 502c ba3d 2f3a b83d
00000260: 8524 aa3d eb90 81bc cfa9 0d3e cfba a1bd
00000270: ee16 123d d88d 0bbe a9f7 7a3d 06c4 b03d
00000280: ffdc b43d 5313 a03d ccd3 bc3b a58c 253d
00000290: a2fb e0bd c493 f23d 0dd4 633d ed30 b63d
000002a0: 0bbb 07bc 2ad3 94bc 53bf c9bd ab55 63bd
000002b0: 1172 5a3b 7886 a83d 69a6 7b3d 5f1e 80bd
000002c0: dda3 a73d 8802 273d b1db 6cbd be97 da3d
000002d0: 3a7d ea3d 391d a1bd 429c 5dbc 853b e43d
000002e0: cfcf d1bd a302 323d 3fba febc 3865 26bd
000002f0: fd8b 82bd de21 b13d 7e77 833d ea10 adbd
00000300: 12e5 eebd c05d 81bd 44ab 17bd b097 dabd
00000310: 1e39 dfbc bdaa 03be 5174 cbbb 93ce 63bd
00000320: 47e7 7abd 393f cd3b 70e5 d2bd 32e1 803d
00000330: a57e 90bd e011 f1bb 58e2 0c3d 8577 febd
00000340: 1e36 943d 2d01 863c c2e0 04be 02a8 a6ba
00000350: 51a9 ad3d 72a7 413d 73f1 903c 10eb 91bc
00000360: 4c03 c33d d6ef 0c3e 609f 033d a0d9 7fbd
00000370: ee97 403d e124 8a3d 2d8c dd3c 0bc2 07bd
00000380: 1523 1abe 1539 f23c c704 a1bb 3e68 bcbd
00000390: 54bc 693c a3f7 bd3d 53fe e4bc e345 c5bd
000003a0: 530a 993d e862 7b3d 3543 563d 4465 9e3d
000003b0: 8655 b7bc 8e9b 413d ebf3 cbbc 6556 4abc
000003c0: 286f 483c cc99 e3bd ca6b adbd 066c e7bd
000003d0: 4229 c03c 4dc4 b13d 6a8d 03bc 81d3 cebd
000003e0: a2e6 183d eefb e7bd 4136 1f3c 5872 a0bc
000003f0: d4ff f23d 6727 96bd 25c8 7ebc 1afd d0bc
-0.028360792 0.09791175 0.010367879 -0.1387668 -0.026033442 0.07944987 -0.0008311374 -0.01578513
-0.11543445 -0.12507883 -0.10372305 -0.10428245 0.08963561 -0.117299065 -0.12587883 -0.11977564
0.117493115 0.08238203 -0.0926729 -0.022851283 -0.0718242 0.038240246 0.0015126644 -0.069911845
0.1347844 0.065181546 -0.074886225 0.10385104 0.003754201 0.10382888 0.08065228 0.13748898
0.0670689 0.0074501843 0.035299756 -0.10695765 0.1098673 0.08405196 -0.08158521 -0.06557342
-0.08170549 0.0009506153 -0.12498871 0.043787453 0.11949206 -0.09461718 0.016215278 -0.052775048
-0.107743025 -0.08963325 0.0733687 0.04337257 0.14573446 -0.17456946 -0.08848426 -0.042752966
-0.108477354 -0.06554241 0.038949527 -0.06375386 -0.14047316 -0.013398291 -0.045503423 -0.10381024
0.105222456 -0.13909827 0.07659616 -0.08642955 0.012597955 0.0658191 0.05265366 0.020212617
-0.011689286 -0.09199029 0.016597206 -0.04867955 -0.100604616 -0.004140809 0.119654074 0.01934222
-0.063832805 -0.078627415 -0.124241844 0.14882338 0.13000682 0.042956658 0.03607346 -0.078314066
-0.011607829 0.027331274 -0.048810586 0.07447086 -0.011517571 0.05730793 0.17003103 -0.0031088504
0.03381589 0.082280286 0.097125284 -0.03947661 -0.06122586 0.08996163 0.11996064 -0.032244235
-0.046328563 0.04132068 -0.07064675 0.18302254 0.24013202 0.09740056 -0.0043890774 0.11141847
-0.041810635 -0.027880922 -0.0024131169 0.03588769 0.1253451 0.100946255 -0.009258325 -0.03787286
-0.18543999 -0.07569296 -0.0204646 0.031869967 0.02578742 0.05107854 0.08377801 -0.012380296
0.019947171 -0.091543674 0.059240967 -0.17562832 0.08826743 -0.052250262 0.12118711 -0.07775716
-0.088639855 -0.08933345 0.08072991 -0.018195206 -0.0040194946 -0.05314219 -0.15932424 0.029247135
-0.08281765 -0.021034425 -0.106194645 0.021846255 0.119419985 -0.1378276 0.09090483 0.08995473
0.08307747 -0.015816173 0.13834308 -0.07896959 0.0356664 -0.13628328 0.061271343 0.086311385
0.08831214 0.07816186 0.005762553 0.040417332 -0.10985495 0.1184459 0.05562215 0.088960506
-0.008284341 -0.018167097 -0.09850945 -0.05550162 0.003333215 0.08228773 0.061437998 -0.06255793
0.08185551 0.0407739 -0.0578267 0.10673474 0.11449666 -0.07866902 -0.013526024 0.11144165
-0.102447145 0.043459546 -0.031094668 -0.040623873 -0.06374357 0.08649038 0.06419276 -0.08450492
-0.116647854 -0.063167095 -0.037028566 -0.10673463 -0.027248915 -0.128581 -0.0062089344 -0.055616926
-0.06125572 0.0062636402 -0.10297668 0.062929526 -0.070554055 -0.007356867 0.034395546 -0.1242514
0.072368845 0.016357983 -0.12976363 -0.0012714865 0.0847956 0.04727883 0.017693257 -0.017812282
0.09522113 0.13763365 0.032134414 -0.062463403 0.04701989 0.06745315 0.02704438 -0.03314404
-0.15052445 0.029568234 -0.0049138996 -0.0919957 0.014266092 0.092757486 -0.027953302 -0.096324705
0.07472672 0.06137362 0.052310187 0.07734159 -0.022379648 0.04726749 -0.024896583 -0.0123497
0.012233533 -0.11113319 -0.08467825 -0.11299901 0.023457173 0.086800195 -0.008029321 -0.10098935
0.037329324 -0.11327349 0.009717525 -0.019585773 0.118652016 -0.07331734 -0.015550648 -0.025511313

layers.1.root_weight f4 [64, 64]
00000000: ff4e dabb ba08 30bc e067 a0bc e363 01bd
00000010: 15c2 3a3c 54b7 953c accd f83d afb5 b23d
00000020: 47f8 013e 5a36 3e3d 8bc5 833d 6072 393c
00000030: 38c0 1f3e 1433 6fbd 8a43 5b3c 7c7e fdbc
00000040: d146 9d3d 6669 39bd 411a bf3c 824b 153d
00000050: c1f6 dcbc 1735 bfbb 84e3 2c3c c4f5 963d
00000060: b795 103e f508 b7bc f995 86bd 00b2 97bd
00000070: 163a 953d f4b3 c33d 33da 23be e1db d6bd
00000080: 702c 4f3b 732e 973d 432b cabd c10e 2e3d
00000090: 1e32 12be 49ea b73d 12e7 1fbd 193f 94bd
000000a0: 4fa8 ec3c 32d6 f0bc ee30 263d 3e25 14be
000000b0: 7ac3 bcbd 16d3 673d 0fcb 2abc 8889 ffbd
000000c0: 1ddb 443d b489 8e3d ea2c 00be ca5f c1bc
000000d0: fbff 053c eac2 a8bc f1d0 03bd 9e51 9cbc
000000e0: 5a57 413d ae44 bd3d 7099 b63d fada 9dbd
000000f0: 044c ac3d ef44 9bbd 5fc4 1fbe cac2 9d3d
00000100: ea33 cdbd a6bf 08bd e594 1dbd e85f d8bd
00000110: 6d90 38be 0fcf fd3d 3198 b1bd be92 0c3e
00000120: 18e5 28bd b177 d53d 743d 6ebd 60aa b8bc
00000130: 67cb 0d3e 241b 56bd fdec 1e3e f944 233e
00000140: e4e9 943d bdf5 1cbd c929 053e 72f0 0cbb
00000150: a63c 3f3d 6ff5 f0bc 8e5d fc3d 7f55 e6bc
00000160: fea7 92bc 9dbd babd 987e 173d 3682 0d3e
00000170: 067c 7e3d 50b5 a33d cf50 833c 3e5e dfbd
00000180: e7a9 943c 5c83 f23c e89b c53c 2e59 95bd
00000190: 3296 4abd f5ba 273d 98cf 953d 1181 253c
000001a0: 4e81 393d 8076 453d 8d9d b23d 217d f13d
000001b0: def4 2bbe 4d59 f0bd 37e0 223e 1ea4 3b3c
000001c0: 8b91 76bd a00f b7bd ad73 c4bd 6cdc 9ebc
000001d0: b3c8 8d3d c5c6 553d e564 0cbe 9225 0b3c
000001e0: 5cc7 4e3e 1b83 73bd 0c73 f03d 5cb4 bf3d
000001f0: 6224 38bd d0a4 01be b51b 1abd 489f e8bd
00000200: 88cf b4bd 9470 223b c556 d43c 88c5 353d
00000210: dd49 773d 2e54 29be e068 cabd 1a67 a03d
00000220: 4c00 85bd 7a1a 4a3d cd7f 063b 2fda 933d
00000230: ec55 543b a46d 89bd 7fc1 08bd e1f1 78bd
00000240: 29d3 813c 30ac 313d 7d93 793d ff0d 82bd
00000250: a8a7 d93d dc40 8f3d cf39 983d e149 dcbc
00000260: 48fa fd3d 9c61 c93d d932 28be 9eb3 9c3d
00000270: 9477 64bd 4484 c03c 9780 15bd d499 af3d
00000280: 1933 79bd 99cf af3d 6fd4 113d fbd5 773d
00000290: 61d6 a23a 8dca e8bd 7d66 7a3d 826a 323c
000002a0: 33bf 793d e807 cdbc 3ccf 15bd c414 f43d
000002b0: e6a9 9f3d 5b95 a5bd 9c21 c7bd ada5 913c
000002c0: 2df5 a23d d910 053e aedf 9a3d 8819 e9bc
000002d0: be73 e4ba e85f 723d 79b9 103d 1a3b 243e
000002e0: 6ded c13d e48f 29bc 869b 633d 0438 09bc
000002f0: 2081 503d a430 a7bd f6b8 443d fba2 033e
00000300: 417b 183d b14c b33d 75c0 5cbd 4a93 d53d
00000310: ff0b 41bc 1a9d f53c 6ec3 e8bd 5c2e ee3d
00000320: bd5e 96bd 7c0f 2f3b f484 c33d 6899 a4bd
00000330: 9a7d c8bd 9c86 873d 9b16 16be 1aad 953d
00000340: bed7 b3bd 889d 04bd bf4d e43d 8080 893d
00000350: cc76 5ebd c6fa 29be 9d6c a3bc 4973 22bd
00000360: 98d2 d83d 86eb 253c 3162 013c e066 803d
00000370: 924b a33d cc32 e93d c969 28be 7b49 81bd
00000380: b148 dc3c 0d88 503d c334 a8bc 8672 8e3c
00000390: c36a debc 6de2 fabc b5ab 9d3b cdfd a7bd
000003a0: 43f6 a0bd a9a0 0ebd 456f d8bc 5e94 d7bd
000003b0: 7f47 893b 9a6c 60bd 8e74 043e 60a6 ec3d
000003c0: 6064 c3bc fd5a 643d 2afd 0ebd ba78 163e
000003d0: 5a69 1cbd 954b 143c f21f a6bd bdc1 02bd
000003e0: 068c b0bd d718 edbd 1ae7 293d 6a99 9e3d
000003f0: 58a3 e1bd 5c30 04be 9789 07be 7adf fe3c
-0.006662249 -0.010744268 -0.019580781 -0.0315894 0.011398812 0.018275894 0.12148604 0.0872606
0.12692367 0.046438552 0.06434163 0.011318773 0.1560067 -0.05839832 0.013382802 -0.030944102
0.07679523 -0.04526653 0.023327949 0.036448963 -0.02697313 -0.005835186 0.010552291 0.07371095
0.14119612 -0.022343138 -0.06571574 -0.07406998 0.0728647 0.09555808 -0.16001205 -0.10491157
0.003161218 0.07381906 -0.09871533 0.04249454 -0.1427693 0.08980233 -0.039038725 -0.072385974
0.02888885 -0.029399011 0.040574007 -0.14467332 -0.09216972 0.05659779 -0.0104243895 -0.12477404
0.048060525 0.069598585 -0.12517133 -0.023605246 0.008178706 -0.020600755 -0.032181684 -0.019081887
0.047202446 0.09241615 0.08915985 -0.07707782 0.08412936 -0.075815074 -0.15602253 0.07703169
-0.100196674 -0.033385895 -0.038472075 -0.10565168 -0.18023844 0.12393009 -0.08671606 0.13727853
-0.041234106 0.1042322 -0.058164075 -0.022542179 0.13847123 -0.052271977 0.15520091 0.1594428
0.072711736 -0.03832029 0.13004221 -0.0021505621 0.0466887 -0.029413907 0.12322532 -0.02811694
-0.01790237 -0.09118197 0.036985964 0.13819203 0.062129997 0.07993567 0.016029743 -0.10906647
0.018147422 0.029603653 0.024122193 -0.072924 -0.049459644 0.04094978 0.07314986 0.010101573
0.04528933 0.048208714 0.08721457 0.117914446 -0.16792628 -0.11735783 0.15905844 0.011452703
-0.060197394 -0.08938527 -0.09592376 -0.019392215 0.06923046 0.052191515 -0.13710363 0.008492844
0.20193237 -0.059451204 0.117406934 0.09360573 -0.044956572 -0.12660527 -0.03762408 -0.113585055
-0.08828646 0.002478634 0.025920281 0.044377834 0.060373176 -0.16536018 -0.098832846 0.07832165
-0.06494197 0.049341656 0.0020522953 0.072193496 0.0032399846 -0.067103654 -0.033387657 -0.06077755
0.01584776 0.0433771 0.06093167 -0.06350326 0.10627681 0.06994793 0.07432901 -0.026890697
0.12401253 0.09833071 -0.16425647 0.07651447 -0.0557781 0.02350057 -0.036499586 0.08574262
-0.060839746 0.08584518 0.035602983 0.060506802 0.0012423509 -0.113667585 0.061132897 0.010889651
0.060973357 -0.025028184 -0.036574587 0.11918023 0.077960774 -0.08085128 -0.09723207 0.017779196
0.0795692 0.12994708 0.07562195 -0.028454557 -0.0017429513 0.059173495 0.03533313 0.1603817
0.094691135 -0.010349248 0.05556824 -0.008375172 0.050904393 -0.08163574 0.048027955 0.12855141
0.03722692 0.08754862 -0.05389448 0.10428484 -0.011782645 0.029982138 -0.113654 0.11629936
-0.07342289 0.002671211 0.09546843 -0.080370724 -0.097895816 0.066174716 -0.14657061 0.07308407
-0.08781384 -0.032376796 0.111476414 0.067139626 -0.054312512 -0.16599569 -0.019949252 -0.039660726
0.105870426 0.010126954 0.007896946 0.06269622 0.07973398 0.11386642 -0.16446604 -0.063128434
0.02689013 0.050910998 -0.020532971 0.017388593 -0.027150517 -0.030625546 0.004811729 -0.082027055
-0.07859471 -0.034821186 -0.026420245 -0.10526346 0.004189431 -0.05479107 0.12935087 0.11555171
-0.023851573 0.055750836 -0.034909405 0.14694491 -0.03818641 0.009051223 -0.08111562 -0.031923044
-0.08620457 -0.115770034 0.04148016 0.07744105 -0.110174835 -0.12909073 -0.1323608 0.031112421

layers.2.weight f4 [64, 32]
00000000: 38d8 9e3d d772 20bd 8e3a a9bd e4df babd
00000010: b765 ffbd c078 cc3d 7668 8b3d cc9e bcbd
00000020: b44c c9bd 2141 19bd 4b4a c03d 1a7c abbc
00000030: b20a cb3d 635a 3d3c 3761 903c 089f 68bc
00000040: f4f7 ee3c 3140 973d b57d db3d 9bf8 14bd
00000050: 4ccf 88bd e212 8c3c 47ca 8e3c 050e 02bd
00000060: ccf8 5ebd e786 a43d 4f23 b73d f15a bc3d
00000070: c09f 02bb 1b6c 72bd 3924 ca3d 40fc c3bb
00000080: ecf2 82be d247 0f3d 4069 95bc c88f cabc
00000090: daca a83d a121 6a3d 01f1 5e3d 7dfd a3bd
000000a0: 9e73 853d cc59 c8bd 11a4 c4bd 9a74 51bd
000000b0: f5f5 49bc 250b bdbd fdd3 e63d 4f96 91bd
000000c0: 7f40 ec3c cf82 53bd 23e6 e83c 3c5e a9bc
000000d0: f3da 853d 6564 9ebc 5030 94bd 948e cebd
000000e0: 31cf 2cbe d076 253c f58c a33d e257 67bd
000000f0: 28b8 0f3d c0cd ac3d abcd d63d a5d5 773d
00000100: 0cd4 01be a269 a53c 2522 79bd 97f5 e03b
00000110: eed5 3a3d 047a 0f3d a886 1c3d 1d20 abbd
00000120: 0cb7 9bbd 4b05 d33d 6659 af3b 9857 6e3d
00000130: 00f6 54bd deb3 da3d 0f60 0abe 7c36 ce3d
00000140: f12c d9bc 8489 d23d 7626 33bd a2ee 553d
00000150: 53fe 71bb 54a9 cfbc 425d ab3d 48fc 273c
00000160: 960a a1bd 23db bf3d 489b 273d cba3 bdbd
00000170: 8a25 9dbd 4bba e63c 4db2 90bd 1872 d33d
00000180: a935 7a3d 43b1 553c 7b42 c6bd aa2a adbd
00000190: ba4e f33d 66b0 55bc 77c2 01bd 4a0c fdbd
000001a0: 20ec 7fbc cc67 dcbd 6bd5 17bd 2370 163d
000001b0: 1e4d c53d 21e9 ddbd 037d fc3c 31a7 c1bd
000001c0: dde2 4d3d 4598 5c3d dc5e 9a3d a1a6 743d
000001d0: 053f c9bd ed90 f2bc cf1d 08bd 1288 b73d
000001e0: 4566 c03d 3a68 81bd 5b14 13bd 3d65 18be
000001f0: c30f a53d 52e6 813d b71d 05be c0aa 8cbc
00000200: 423b 92bd da03 123c 5124 0d3c 30c7 36bd
00000210: dd80 c2bd 40e6 67bd 08c9 4ebd 7325 2e3d
00000220: c840 ce3d bca9 473d b61b 1f3e da45 98bc
00000230: be05 c3bd 734e d23c ba18 45bc 1040 e13d
00000240: 1505 b13c 3ebf 003e 5963 debd 8da1 e63c
00000250: 16ae d73d a8ff 34bd 4df0 fa3d a040 a0bd
00000260: cedf 9c3d 5f46 6e3d 6a03 3c3d 7cdd d6bd
00000270: 8fca a6bd 4bb7 cfbc 256b 0d3e e056 53bd
00000280: b38c 82bb 53b4 df3d 37bb 073d e1d6 efbb
00000290: ced1 e1bd eaff 053b 6300 893d 952c f0bd
000002a0: 4eec 343d 67fa b93d f371 3b3e 9624 e33d
000002b0: 4b35 24bc ec45 8fbd 451c 653c 65d4 da3d
000002c0: da1b 5e3d 77b4 88bd 7604 a6bd c232 70bc
000002d0: 2a27 fabb 91fc 0d3c 6cac 21bc f36e 26bd
000002e0: 1873 2fbe 9a2f d23c f839 a23d 7ee1 333c
000002f0: cc9c 3fbd 0163 1ebe 1d63 d53d dc46 46bd
00000300: e569 b33d 7a18 643d c637 9dbd 0bee ccbc
00000310: 66d0 2b3d a079 093e 1b54 60bd a7b4 e93b
00000320: 2beb 0abe f287 123e f243 c53c 35c7 85bd
00000330: 4902 993d 5a62 183e f88f d8bc 6113 b33d
00000340: 4bc0 afbc 18a0 253d 1c4b 77bd 19b2 07be
00000350: d0d5 ffbc ba85 d3bc dc72 06be bfe5 063d
00000360: b3a2 1c3d 609b 45bd 1eae 313d 6cba f7bd
00000370: f418 79bd ee2b bf3d 51f0 1f3d 5855 753c
00000380: 28a0 cbbd a361 973d 7105 083e bc9b b0bd
00000390: 4070 4e3c 9f65 c23c 28f3 b23d 5308 47bd
000003a0: b562 dc3d ff16 12bd eef0 3d3d 2e56 9e3d
000003b0: 5bf6 f3bc de31 e6bd 1055 d5bd 13e8 773d
000003c0: 3274 aebc 8b73 8d3d a8af be3d 9f1b 9a3d
000003d0: 09b2 9ebd 1b98 f13d f3bd 9fbd de74 09be
000003e0: a344 76bd 60ae d2bd 5f5d e23d 4d5e d33d
000003f0: 99b2 753d 02bd d83d 3f22 cd3d 50f4 2cbd
0.07756084 -0.03917202 -0.082631215 -0.09124735 -0.124705724 0.09983969 0.06807034 -0.092099756
-0.09829083 -0.037415627 0.0938917 -0.0209332 0.09914149 0.011557194 0.01762448 -0.014198072
0.029170968 0.073852904 0.10717336 -0.0363699 -0.06680164 0.017098848 0.017430438 -0.03175165
-0.05443649 0.08033543 0.089422815 0.09197033 -0.0019931644 -0.05918513 0.0987019 -0.0059809983
-0.2557596 0.034980603 -0.018238664 -0.024726763 0.08241816 0.057160977 0.054429058 -0.080073334
0.06516193 -0.097827524 -0.09601606 -0.05113659 -0.012326707 -0.09230641 0.11270902 -0.07108747
0.028839348 -0.05163842 0.02843005 -0.020674817 0.06535902 -0.019334981 -0.072357774 -0.10085788
-0.16875912 0.010099128 0.0798587 -0.056480296 0.035087734 0.08437681 0.10488447 0.06050648
-0.12678546 0.020191971 -0.06082358 0.006865214 0.045614175 0.035028473 0.038214356 -0.083557345
-0.07603273 0.10303744 0.0053512333 0.058189005 -0.051992416 0.10678838 -0.13513206 0.10068986
-0.026510688 0.10280135 -0.04373785 0.05222953 -0.003692527 -0.025349297 0.08367397 0.01025302
-0.07863347 0.09367969 0.040919572 -0.09259757 -0.07673176 0.028165003 -0.07065258 0.10324496
0.06108633 0.013042751 -0.09680649 -0.08455403 0.1188025 -0.013042545 -0.031679597 -0.123558596
-0.015620261 -0.10761985 -0.037068766 0.036728036 0.096338496 -0.108354814 0.030821329 -0.09455717
0.05026518 0.053856153 0.07537624 0.059729222 -0.09826473 -0.029610122 -0.033231553 0.089615
0.09394506 -0.06318708 -0.035908084 -0.1488237 0.08059647 0.06342758 -0.12999617 -0.017171264
-0.07140209 0.008912051 0.008614616 -0.044623554 -0.09497235 -0.056616068 -0.050484687 0.042516183
0.1007095 0.048745856 0.15537915 -0.018587995 -0.095225796 0.025672173 -0.012029821 0.10998547
0.021608869 0.12572953 -0.10858793 0.028153205 0.10531251 -0.044189125 0.12252865 -0.07824826
0.07659875 0.05817258 0.045901693 -0.104914635 -0.08144104 -0.025355956 0.13810404 -0.051596522
-0.003984058 0.10923066 0.033137526 -0.0073193167 -0.11026345 0.0020446726 0.06689527 -0.11727253
0.04417067 0.090809636 0.18305187 0.110909626 -0.010022472 -0.069957584 0.013983791 0.10685042
0.05422578 -0.06675046 -0.081063196 -0.014660539 -0.0076340633 0.008666174 -0.009867769 -0.040633153
-0.17133749 0.025657464 0.07921213 0.0109790545 -0.046780393 -0.15467454 0.10419295 -0.04840742
0.08760432 0.055687405 -0.076766536 -0.025015851 0.04194679 0.13425303 -0.05476771 0.007132131
-0.13566272 0.14309672 0.02408025 -0.06532136 0.07471139 0.14881268 -0.026435837 0.087439306
-0.021453997 0.04043588 -0.060374364 -0.13251533 -0.031229883 -0.025820602 -0.13129753 0.032933947
0.0382411 -0.04824388 0.04337894 -0.12096104 -0.060814813 0.09334551 0.039047543 0.014973961
-0.09942657 0.073916696 0.13283326 -0.08623454 0.012600005 0.023730097 0.087377846 -0.048591923
0.10761014 -0.035666462 0.046372347 0.07731281 -0.029780557 -0.1123998 -0.10416615 0.060524058
-0.02129564 0.06906804 0.093108475 0.075247996 -0.07748801 0.1179659 -0.07799902 -0.13423488
-0.06012405 -0.10287166 0.110529654 0.10320721 0.059984777 0.105829254 0.100162975 -0.042225182

layers.2.root_weight f4 [64, 32]
00000000: 3932 2f3e db1d 7038 50f0 e83d 2d53 e43d
00000010: 34c5 8cbc 5e67 a5bb a30b 263d 5755 f3bd
00000020: 8b43 e1bc 83b1 ec3d 7d7c 08be ce1c 9e3d
00000030: 31ef 75bc 674d c93d b5f3 c9bd 59e5 0abd
00000040: d95a 86bd c087 d93d 7505 d8bd ddb1 bb3d
00000050: fd0e 513d cc30 c53c b0f3 c7bd 00e1 a0bc
00000060: 2dfd 8dbd 0ff9 e7bb 37a1 bdbd 9ead e03d
00000070: e0bf a8bb cf7f 8fbd faa3 a13d 7f02 c43d
00000080: 5e5a 37be 5f27 9bbd f11c 523d 4192 4dbd
00000090: 3cda 0ebe db91 f4bd 56bb a4bd ea1b f73c
000000a0: f07f ad3d d797 953d 63d7 4b3d 53df 85bc
000000b0: 98af 87bd a8e2 25be 86e7 023e e16f 603d
000000c0: 0b7e d5bd c5ed ab3d e3ff afbd 3132 1a3e
000000d0: 2b37 d13c f60f b4bc 3a62 8ebd 0915 ab3d
000000e0: d0e1 44bd 1297 a33d 72bd 193d 9818 b83c
000000f0: 2a01 ffbd a229 f3bb 1626 46bd 6051 b53d
00000100: 4288 2abd c0e8 b83d a3ae e83d e8bd 073d
00000110: 5c27 c7bc d7d2 863d de01 063d 8d8a 47bd
00000120: 9aac 833d 4535 6b3d 7a66 963d 4306 cbbd
00000130: b394 0dbe 52c3 e43d ade3 e5bc 11d7 b83d
00000140: 028a 75bd 9f37 b43d 65cb 583c ba81 553d
00000150: e9f7 1d3d 6c9a b2bd 24db b53b 0b2c 473c
00000160: 1bb8 1a3d 5283 82bc 7b15 113d ec71 833d
00000170: fe84 97bc 7a61 af3d 44f0 023d 8e85 05be
00000180: 5f74 0b3d b80c 1e3c e707 03be 4833 bfbc
00000190: 823d 14be 205a a6bd 929c e63c 2773 2abe
000001a0: cba0 3fbe e727 473c f478 033e 39fe 44bd
000001b0: d8ce 25bd 2ab2 193a 2193 bb3c 6289 e13c
000001c0: 5637 6cbd 64d3 e23c 005b ea3c 1210 663d
000001d0: 9b78 e4bd a28a a63d e3b2 d7bb d43d f1bd
000001e0: 3cdb 72bd b3b5 da3d 1089 46bb 0634 23be
000001f0: f8ba be3c 8e84 acbc 6a2d d3bd 7e53 c0bd
00000200: 2236 a23d 9fe1 b83d 3f2b 5bbd dbd2 45bc
00000210: 5bde fd3d 5313 b63c d507 46bd 38c0 4e3d
00000220: 5c3b c3bd 2c5d e73d 1687 1b3e 85af afbb
00000230: 6b9e ddbd b2b6 db3d 90dc 3b3d bf64 b7bb
00000240: 607a ccbb f681 7dbd a050 983c 59f9 1c3b
00000250: 7d19 4f3d 3050 333c bbc9 d9bc a115 b93d
00000260: 2ff4 e5bc 8098 fdbd 786a f7bd 8a7c 893c
00000270: a8ca 6d3d 003b fd3d ede5 82bd d8d3 0f3d
00000280: 9827 09be d837 093d 136c 283e c62b 603c
00000290: 855c efbd 7c9e d4bd 7a3c 973d b295 0fbe
000002a0: 8e43 883d f4ba 0dbe f0e2 aebd 08bb f53d
000002b0: 27ac 3dbe 9b31 163d 767b e13c 2f6f 43ba
000002c0: 5b5d 983d f03a c93d 37fc 843d deff 10bd
000002d0: 6f2d 093e 9400 46be 2246 3cbc 0928 dabd
000002e0: 4401 bbbd e280 67bc a726 e83d f0aa ba3c
000002f0: ed0b c2bd 9bc8 30bd f1b9 353d 4478 0e3d
00000300: db59 bd3d ba7c 803d da67 b4bd 97fe 05bd
00000310: 27be 2b3e 62af a7bd 7742 47bd 1137 9dbd
00000320: d3e5 91bd 231c 57bd 751c 82bc 733e 93bd
00000330: ff66 85bc feba 993d ddd2 29bd 6a13 99bb
00000340: ed46 063e d08e 233c 69a1 273d a85d 69bd
00000350: 6705 313e f40d 37bd a7c9 01bd 93ad aabd
00000360: e5a8 f4bd 10dc 603d 708d c2bd 5ec9 dfbd
00000370: 601e 16bc 67a4 a3bc 78c9 fbbd 5592 d6bd
00000380: 2072 1cbe 7e09 2c3c 0a26 6b3d 144c 1cbd
00000390: 71e0 2ebd ef86 3dbc a5df ecbd 0ab1 39bc
000003a0: 2a01 a23c 018c caba 2d7c 58bd e7f8 46bd
000003b0: be7e 2bbd 62d2 47bd 0188 86bd 3739 a1bd
000003c0: bcd6 54bc 988d f63c 1d34 87bd 4358 3abc
000003d0: 70a9 3dbd bffb 1c3d 5516 76bd d624 c2bd
000003e0: 598d 4abc 8c02 003d 5a36 e5bd 804b ecbd
000003f0: 7c89 f7bd f895 a83d 0814 fe3c 5aff 533d
0.17109002 5.7248264e-05 0.11373961 0.11148677 -0.017183878 -0.0050477227 0.04053844 -0.11881512
-0.027498027 0.11557295 -0.13328739 0.07720338 -0.015010641 0.098292165 -0.098609366 -0.03391013
-0.065602966 0.106215954 -0.10547916 0.09164784 0.051039685 0.02407112 -0.097632766 -0.019638538
-0.06933055 -0.0070792506 -0.09259265 0.10970615 -0.0051498264 -0.070067994 0.07892604 0.095707886
-0.17905566 -0.07575869 0.051297132 -0.050188307 -0.13950437 -0.11941882 -0.08043544 0.030164678
0.08471668 0.07304352 0.049765956 -0.01634184 -0.06625289 -0.16199744 0.12783632 0.054794196
-0.104244314 0.0839496 -0.085937284 0.15058209 0.025539001 -0.021980267 -0.06952329 0.083536215
-0.048066914 0.07987799 0.037534185 0.022472665 -0.12451394 -0.0074207345 -0.048376165 0.08853412
-0.04163385 0.090287685 0.11361434 0.033140093 -0.02431076 0.06583183 0.032716624 -0.048716117
0.064294055 0.05742385 0.073437646 -0.09913304 -0.13826256 0.11170067 -0.028062666 0.09025396
-0.059946068 0.087996714 0.013232087 0.05212567 0.038566504 -0.0872086 0.0055498052 0.012156497
0.037773233 -0.015931759 0.035420876 0.06418213 -0.018496033 0.08563514 0.031967416 -0.13039228
0.034046527 0.009646587 -0.12795983 -0.023339882 -0.14476588 -0.08122659 0.02815083 -0.1664549
-0.18713681 0.01215551 0.12839109 -0.048094008 -0.040480465 0.00058630353 0.022897305 0.02753133
-0.05766996 0.02768869 0.028607845 0.05616767 -0.11155816 0.08131911 -0.0065826043 -0.11779371
-0.05929111 0.106791876 -0.0030294098 -0.15937814 0.023282513 -0.0210593 -0.103113964 -0.09390925
0.07920481 0.09027409 -0.05350804 -0.012074198 0.123959266 0.022226011 -0.048347313 0.050476283
-0.09532806 0.11297068 0.1518825 -0.0053614997 -0.108212315 0.10728206 0.04586464 -0.0055967267
-0.006240174 -0.06189152 0.018593132 0.0023952334 0.050561417 0.010944411 -0.02658545 0.090373285
-0.028070537 -0.12382603 -0.12080854 0.016783018 0.058054596 0.12364769 -0.06391511 0.03511414
-0.1339401 0.033500522 0.16447477 0.013682311 -0.116875686 -0.10381791 0.07384582 -0.14021948
0.0665351 -0.13840848 -0.08539379 0.11998564 -0.18522702 0.0366684 0.027524691 -0.00074552273
0.07439681 0.098256946 0.06493419 -0.035400264 0.13396238 -0.19336158 -0.01149133 -0.10652167
-0.09131101 -0.014129849 0.11335497 0.022786587 -0.09474931 -0.043160062 0.04436678 0.034782663
0.09245654 0.0627379 -0.088088706 -0.0327135 0.16771756 -0.081877485 -0.04864737 -0.07676519
-0.071239136 -0.052517068 -0.01588271 -0.071896456 -0.016284464 0.07506369 -0.04146086 -0.004671504
0.13112994 0.00998278 0.040925417 -0.056974083 0.17287217 -0.04469104 -0.03168645 -0.08333888
-0.119462766 0.054897368 -0.09499633 -0.109270796 -0.009162515 -0.019975854 -0.122942865 -0.10477129
-0.1527791 0.01050031 0.057409324 -0.03815849 -0.042694513 -0.011567815 -0.11566094 -0.011333713
0.019775946 -0.0015453101 -0.0528528 -0.048577216 -0.041868918 -0.04878462 -0.065689094 -0.07872241
-0.01299065 0.030096814 -0.06601737 -0.011373582 -0.046304166 0.03832602 -0.06007989 -0.09479682
-0.0123628015 0.03125243 -0.11192007 -0.11537838 -0.1208677 0.08231729 0.031015411 0.051757194

fc11.weight f4 [16, 32]
00000000: 5034 49bd a191 1bbe f927 a6bd 648e 7e3d
00000010: 0c5a 49bd 8c20 75bd b2a7 cf3d f416 0dbd
00000020: d905 c5bd e486 87bd 2085 423d 92d5 9c3d
00000030: 00b5 613b 500c 1a3d 1366 0b3e 7af5 eabd
00000040: 68bc 8c3c bcfd fcbd 70f1 07bd 0044 283b
00000050: 8038 443c e867 bf3c 20fb 963b 402f 66bc
00000060: 6cab 643d 1673 0dbe d43f 4fbd d846 d2bd
00000070: 145a 833d 160f c9bd 0060 6439 00da 9c3b
00000080: 8b73 ae3d d651 a43d fe6a e83c 65b3 f13c
00000090: 843e 3d3e 7924 a83d d65f e2bd ef5f 2fbe
000000a0: 9fb1 36be bbce 0d3e 6416 c33c 5a90 c5bd
000000b0: a96e e1bd 7f4a f03d ab4b 4cbe eb09 993d
000000c0: 071f 403e 0639 9e3d 8f44 96bd fc22 90bd
000000d0: ecc0 5db8 3d35 9a3d a054 38bd b649 093e
000000e0: 879c 6b3e ba0f fd3d 45ef febd 533d 27be
000000f0: 3ae5 a53d 690a 213d 8781 1b3e 4710 3939
00000100: 1de0 f6bc 976c e03d 8cda 46be 0c31 27be
00000110: 1158 4b3e 6e0c a83c cfa1 5fbc 8277 81be
00000120: 3e52 3cbe ce94 7fbd 285d e8bd 1878 27bd
00000130: 8aeb 5b3c 012b 113d 64fa ffbd f0a9 92be
00000140: c6ff f9bd afbd d5bd 92ad 44bc 3a79 ddbc
00000150: f93f b13d 3ee6 56be 9683 5fbd 955e 34be
00000160: ab85 2dbe d124 e3bd 8bb7 a3bc 1fa6 133d
00000170: 80cc 2e3d f337 ce3d 54cc 84be 1343 053e
00000180: 27e5 863e 129d 6d3d 2f31 12be 6d6d c23d
00000190: 89e1 423e ba71 26be b9c9 a33c 0edb 91bc
000001a0: 67f6 053e 6a64 163e d942 97bd 8116 89bd
000001b0: 9aca 1b3e f6ac 333e 81d1 24bd f659 80be
000001c0: decc 813c 08fa 043e a05c 89bd 2c0d 47be
000001d0: 54b8 313e 3e30 6bbd 4c51 973d 4597 993d
000001e0: d6e5 8bbe cc93 e63d 8c1c 93bd 764c b93d
000001f0: 2ef2 fa3d fe70 0b3e 4ff4 67be 92e0 3c3c
00000200: 2631 e33c 30d7 64bd b796 843d 123b 1b3c
00000210: 0e19 5a3b 4abb 383e ccd5 1bbd 029f 9abc
00000220: 9eb5 ae3d 180d d53d 5250 3dbd 0b4a b53d
00000230: cf9a 5a3e bf25 f1bc 9dc2 71bb 029c 04be
00000240: 9e0b 5c3e 7b48 b43c 012f 2fbe 418a 2dbe
00000250: 77fe 723d 5659 89be 691f 9abd 6b05 13be
00000260: 4e88 a4be 2d5e 293e 9f33 693d faa9 323e
00000270: 2e68 f93d 4a6a 043c 50eb 90bd ec28 353e
00000280: 54e5 f5bd 9068 83bd f9bc c43d e264 18be
00000290: 53aa 983d 8534 f8bd 9922 e23d 84b2 fa3d
000002a0: fb04 363e b908 20be 6659 edbd dac7 31bd
000002b0: aec7 78bd 74fa 723d 4947 6f3d 4807 8cbd
000002c0: c33d a2bd 8c1e 983d 0c1a 37be 9a2c b83d
000002d0: 6697 23be a8a3 843d 9220 023e 812c e73d
000002e0: a56a 1fbe 148d 6d3d 8c13 f1bc 43a6 0b3e
000002f0: 21f6 21be 0c4f 14be 2395 e93d 8e41 213e
00000300: 5ec9 12be 655a 823c 2cb3 b63d ba80 553b
00000310: 5d6a de3c 4b61 71be c5a3 d9bc a5d4 193e
00000320: f194 6ebb ecf6 7a3a bd44 06be b3e6 393d
00000330: af72 0cbe b011 cf3d 7c44 513e 577b 833d
00000340: 8d31 b73c f48f 76bd 2ef4 053d f792 17bd
00000350: 3fe5 2f3c f603 09be 6f15 82bd 4291 1b3e
00000360: 1398 9fbd e875 cb3d 8110 103e 73de 59bd
00000370: b135 cabc 244e 60be 8d07 a83c dcd3 e63d
00000380: 6db9 85bd 8995 e83d ea80 563e 67ce 16bd
00000390: ce52 10bd 0527 cbbc b843 e03d 6b2f 2bbe
000003a0: 35ea 143e 4d28 91bd 973d 09bd f88c e43d
000003b0: e39f 0cbe 3331 16be b5ac fdbc f56a 4e3e
000003c0: d8be 70bd 6814 6dbd 04d7 033e da07 8cbd
000003d0: 3129 ee3d 6124 b5bd dd38 1e3d ecb5 143e
000003e0: b1d0 c2bc 2482 293d 8438 dd3d 44ec c53d
000003f0: b6c2 54bd d537 e2bd 8817 033e 6bc4 e13c
-0.049122155 -0.15192272 -0.08113093 0.062147513 -0.04915814 -0.059845492 0.10139407 -0.034445718
-0.09620256 -0.06617525 0.04749024 0.07657923 0.003444016 0.0376094 0.13613157 -0.11472602
0.017179683 -0.123530835 -0.033189237 0.0025675297 0.011976361 0.023364976 0.004607573 -0.014049351
0.055827543 -0.13813433 -0.05059798 -0.102674186 0.064136654 -0.098173305 0.00021779537 0.00478673
0.08518132 0.080234215 0.02837133 0.029504487 0.18480879 0.082100816 -0.110534355 -0.1712644
-0.17841195 0.13848393 0.023814388 -0.096466735 -0.11007435 0.11732959 -0.1995074 0.07472595
0.18761836 0.0772572 -0.07337295 -0.07037923 -5.287018e-05 0.07529686 -0.04500258 0.13407025
0.23008929 0.12356515 -0.12447981 -0.16331987 0.08100362 0.03931657 0.1518613 0.00017649039
-0.030136162 0.10958212 -0.19419307 -0.16327304 0.19857813 0.02051374 -0.013649418 -0.2528649
-0.18390748 -0.06239777 -0.11345893 -0.040886015 0.013422856 0.035441402 -0.1249893 -0.28645277
-0.12206988 -0.1043657 -0.012004273 -0.027035344 0.0865478 -0.20986268 -0.05456885 -0.17614205
-0.16945522 -0.110910065 -0.019984981 0.036047097 0.042675495 0.10069265 -0.2593714 0.13013868
0.26346704 0.058011122 -0.14276575 0.094935276 0.19031347 -0.1625432 0.01999365 -0.017804649
0.13082276 0.14686742 -0.07385797 -0.066937454 0.15214005 0.17546448 -0.04023886 -0.25068635
0.015844759 0.12986004 -0.0670712 -0.19438618 0.17355472 -0.057419054 0.07388553 0.074995555
-0.27323788 0.11258659 -0.07183179 0.09047787 0.12253223 0.13617322 -0.2265179 0.011528151
0.027733397 -0.05586928 0.06474059 0.009474533 0.0033279094 0.18040195 -0.03804569 -0.018874649
0.085307345 0.10402888 -0.046219178 0.08852013 0.21348117 -0.029436944 -0.003688968 -0.12950137
0.21488807 0.022007218 -0.17107774 -0.16947271 0.059324708 -0.2682597 -0.07525522 -0.14357536
-0.32135242 0.16539831 0.056933995 0.17447653 0.12178074 0.008081982 -0.07076132 0.17691392
-0.120066315 -0.06416428 0.09606356 -0.14882234 0.07454362 -0.12119392 0.11041755 0.122410804
0.17775337 -0.15628327 -0.11589317 -0.043403484 -0.060737304 0.059320882 0.058417592 -0.06837326
-0.07921936 0.07427701 -0.1788103 0.08992882 -0.15975723 0.064765275 0.12707737 0.11287785
-0.15568025 0.05799587 -0.029428266 0.13637643 -0.15816547 -0.14483279 0.11405399 0.15747663
-0.14334628 0.015912244 0.08920893 0.0032577948 0.027150327 -0.2357227 -0.02656735 0.15022524
-0.0036404694 0.00095735374 -0.13112159 0.045386028 -0.13715623 0.101107955 0.20436281 0.064200096
0.022362495 -0.06019588 0.03270357 -0.03700539 0.010735809 -0.13380417 -0.063517444 0.1519213
-0.07792678 0.09934598 0.14068796 -0.05319066 -0.024683805 -0.21904808 0.020511413 0.11270878
-0.06529508 0.113566466 0.20947614 -0.036817934 -0.03523522 -0.02479888 0.10950416 -0.16717307
0.14542468 -0.07087765 -0.033506002 0.111597 -0.13732867 -0.14667206 -0.030966142 0.20157988
-0.058775753 -0.05788079 0.1287499 -0.06837435 0.116289504 -0.08844829 0.038628448 0.14522523
-0.023781152 0.041383877 0.10801795 0.09664205 -0.051943503 -0.11045805 0.12801945 0.02755948

fc11.bias f4 [16]
00000000: dd15 9cbd f827 d83d 2967 e0bc 39a0 66bd
00000010: 7bb4 453e f98e a0bc 5e47 6abd 9aa2 693b
00000020: 3d5a 023e cfe7 9ebd 8bbb 0e3e 1440 fe3c
00000030: 429a 64bd 3585 e8bc 2dd9 913e a596 0f3b
-0.076213576 0.105544984 -0.02739294 -0.056305144 0.19307129 -0.019599425 -0.057196967 0.0035649897
0.12729736 -0.07759058 0.1393873 0.031036414 -0.055811174 -0.02838383 0.28486004 0.002190986

fc12.weight f4 [1, 16]
00000000: 008b 373c 0e3d ebbd a765 53bd ce16 25be
00000010: be21 03be 7d87 8a3d 1f56 713e 375f 583e
00000020: 42fa 32be f8be e8bd 2016 cebd b435 6d3e
00000030: a054 c8bd 46b8 3dbe c699 72be d0da bd3c
0.011202574 -0.11486255 -0.051610615 -0.1612198 -0.1280584 0.067641236 0.23568009 0.21130072
-0.17478278 -0.113645494 -0.10062814 0.23165017 -0.09781766 -0.18527326 -0.23691472 0.023175627
