trained_models/delete_later/GraphSAGE_64_3/base_model.pt (torch, 61447 bytes, 9 tensors)

layers.0.lin_l.weight f4 [64, 14]
-0.12176185 -0.16389784 -0.09401057 0.051183976 0.1366151 0.005773407 -0.040874075 -0.124887936
-0.17189844 0.09602156 -0.05790401 0.12793939 0.25200924 -0.0705581 -0.11790675 -0.2604044
-0.027785793 -0.027313784 0.17551252 -0.12162866 0.1091777 -0.26144755 0.10467232 -0.03317239
-0.28545877 -0.25014699 0.16648962 0.111282945 -0.030480055 0.2959007 -0.24930552 0.13408302
0.23108876 -0.15418765 0.018300867 -0.18933147 -0.00496378 0.095968775 -0.092907 0.24234164
-0.014489723 -0.18166307 -0.10452539 0.13864218 -0.0005025507 0.12252921 0.20888081 0.025506234
0.021788727 -0.331245 -0.2512489 -0.0969981 0.07014074 -0.2543321 0.15928239 0.08432093
-0.1665197 -0.097642586 -0.09964791 0.24476607 -0.08880618 -0.008637741 0.2001641 -0.24584377
-0.19360466 0.21530694 -0.07829461 0.23215647 0.08887913 0.16123685 0.0059873983 0.14788696
0.26575467 -0.14838211 -0.16367863 0.22950709 0.1854203 -0.26842168 -0.112161696 0.20769417
-0.17668502 -0.099163145 -0.0221241 -0.07045324 -0.28056726 -0.032485932 0.15656489 -0.17104082
0.20182809 -0.13271472 0.10779928 -0.13288896 0.08828298 -0.27601063 -0.026467713 0.06902977
0.25178644 -0.13474317 -0.07713489 0.21809208 0.04358861 -0.28343064 -0.183959 -0.2949772
0.06737627 -0.037758328 0.0014900359 -0.110580795 -0.13038026 0.1629614 0.24329284 0.13836294
0.18009731 -0.02356061 0.26061347 0.025454396 -0.13842492 0.08643106 0.015003105 -0.055090662
-0.13494441 0.06997201 -0.0766388 -0.035487972 -0.33913422 0.11333832 0.07010306 0.029678792
-0.081384614 0.10265264 -0.15743291 -0.30579865 -0.070106454 -0.21333936 -0.05049105 -0.18831852
-0.21982372 0.061860662 -0.061725534 -0.2269548 0.19709714 0.019107005 0.22365367 -0.167324
0.080200195 0.13535942 -0.0898498 -0.2682143 0.19493768 -0.05405855 0.19877937 0.13616736
0.27434728 -0.19907327 0.20811047 -0.10860734 -0.16367331 -0.027456185 0.21240923 0.12570953
0.14405885 -0.07648021 0.21482196 -0.24373479 0.06034956 0.040142424 0.087044515 0.01564622
-0.01652878 0.39342472 0.16294608 0.13505188 -0.036437005 0.1323109 0.14913265 0.17432055
0.053060453 -0.20299454 -0.044070188 0.06451875 -0.18757986 -0.20578946 -0.21718551 0.20550913
0.0019260705 0.23832643 -0.08401494 -0.015590502 -0.17281948 0.206008 -0.062245574 -0.060680382
0.053214304 0.08025991 -0.25081167 -0.12962024 0.05122869 -0.024794184 -0.17037034 0.051211443
-0.22887608 -0.22520112 0.21387416 -0.007886958 -0.24969128 -0.08312933 -0.02328691 0.21381539
-0.19624063 0.17872918 -0.12505965 -0.21476966 -0.08670563 -0.034136243 0.09876743 0.053438947
0.061893594 -0.0026268808 -0.2241039 0.09527784 0.1763305 -0.054022495 0.22199693 -0.17184165
-0.06660199 0.19902097 -0.27677348 0.29963621 0.048541307 0.17429696 0.088571884 0.05203269
0.24630894 0.04209778 0.14720818 0.15869825 -0.1176889 -0.22577891 -0.11660049 -0.23643658
0.14687583 -0.024910873 0.010720521 0.07315341 -0.21393593 -0.23762116 0.039753728 -0.3049249
0.0024448014 0.11007727 0.12857193 -0.14744073 -0.20106888 -0.0066028405 -0.14892302 0.24031886
00000000: 475e f9bd d6d4 27be 9d88 c0bd 4aa6 513d
00000010: d4e4 0b3e d92e bd3b 936b 27bd 3fc5 ffbd
00000020: 2506 30be f4a6 c43d c12c 6dbd 8b02 033e
00000030: 5b07 813e c480 90bd 1879 f1bd ba53 85be
00000040: 089f e3bc 28c1 dfbc 8eb9 333e 7218 f9bd
00000050: 8f98 df3d 74dc 85be 715e d63d c6df 07bd
00000060: a727 92be 4413 80be 417c 2a3e 50e8 e33d
00000070: 4fb1 f9bc 4c80 973e f249 7fbe 0f4d 093e
00000080: 88a2 6c3e 5ee3 1dbe b3eb 953c 1ce0 41be
00000090: 34a7 a2bb 478b c43d 0646 bebd 6828 783e
000000a0: 4e66 6dbc e205 3abe 6811 d6bd 37f8 0d3e
000000b0: 9bbd 03ba 98f0 fa3d dae4 553e 73f2 d03c
000000c0: 467e b23c f298 a9be b2a3 80be f1a6 c6bd
000000d0: f3a5 8f3d d137 82be ec1a 233e 74b0 ac3d
000000e0: 2484 2abe d6f8 c7bd 3414 ccbd f5a3 7a3e
000000f0: 04e0 b5bd 5085 0dbc d1f7 4c3e 78be 7bbe
00000100: 4d40 46be 6c79 5c3e ed58 a0bd 6dba 6d3e
00000110: 4306 b63d 461b 253e f031 c43b ae6f 173e
00000120: ff10 883e 7bf1 17be 5f9b 27be e803 6b3e
00000130: d2de 3d3e 916e 89be 08b5 e5bd c8ad 543e
00000140: ebec 34be 0c16 cbbd 9a3d b5bc ca49 90bd
00000150: 83a6 8fbe f80f 05bd 8c52 203e 5325 2fbe
00000160: 06ac 4e3e 5ee6 07be dec5 dc3d 0b14 08be
00000170: b5cd b43d 4451 8dbe d1d2 d8bc 7b5f 8d3d
00000180: 27ea 803e 1dfa 09be e6f8 9dbd 8853 5f3e
00000190: f889 323d d21d 91be c05f 3cbe 4007 97be
000001a0: 92fc 893d 7aa8 1abd 4f4d c33a 2f78 e2bd
000001b0: 6782 05be 5adf 263e c221 793e 04af 0d3e
000001c0: 6e6b 383e 2e02 c1bc 216f 853e bd85 d03c
000001d0: 43bf 0dbe c502 b13d 95cf 753c bfa6 61bd
000001e0: de2e 0abe 7c4d 8f3d cef4 9cbd d65b 11bd
000001f0: 00a3 adbe ec1d e83d 3192 8f3d f020 f33c
00000200: faac a6bd 8c3b d23d 1836 21be a491 9cbe
00000210: f993 8fbd a275 5abe b4cf 4ebd 92d6 40be
00000220: 7819 61be 9b61 7d3d ead3 7cbd d766 68be
00000230: d5d3 493e 4b86 9c3c 7805 653e fc56 2bbe
00000240: 0040 a43d a99b 0a3e 2c03 b8bd 6253 89be
00000250: be9d 473e 806c 5dbd d28c 4b3e 756f 0b3e
00000260: 3f77 8c3e ddd9 4bbe e91a 553e 866d debd
00000270: fa99 27be cbeb e0bc ce81 593e 00ba 003e
00000280: 2a84 133e a8a1 9cbd 4afa 5b3e 9d95 79be
00000290: 1a31 773d 626c 243d 6544 b23d 802c 803c
000002a0: 5d67 87bc f76e c93e 56db 263e 0a4b 0a3e
000002b0: f83e 15bd 827c 073e 3bb6 183e 1681 323e
000002c0: eb55 593d cddd 4fbe f182 34bd 6822 843d
000002d0: ef14 40be 79ba 52be e165 5ebe fc70 523e
000002e0: 3474 fc3a d80b 743e 0610 acbd 4e6f 7fbc
000002f0: 97f7 30be c3f3 523e 37f5 7ebd fe8b 78bd
00000300: 3ef7 593d 4f5f a43d 636a 80be 2bbb 04be
00000310: 2dd5 513d 2c1d cbbc 9075 2ebe 17c3 513d
00000320: 7e5e 6abe 1f9b 66be d401 5b3e 4d38 01bc
00000330: 12af 7fbe b63f aabd 31c4 bebc 6cf2 5a3e
00000340: 4ef3 48be c804 373e a30f 00be 94ec 5bbe
00000350: b992 b1bd 72d2 0bbd 9446 ca3d cce2 5a3d
00000360: 2384 7d3d bf27 2cbb 7e7b 65be 0721 c33d
00000370: fc8f 343e b146 5dbd 2a53 633e 42f7 2fbe
00000380: a066 88bd 27cc 4b3e 41b5 8dbe eb69 993e
00000390: 40d3 463d e77a 323e 2d65 b53d 3b20 553d
000003a0: 6938 7c3e b96e 2c3d bebd 163e cb81 223e
000003b0: e106 f1bd 9632 67be 3dcc eebd 6e1c 72be
000003c0: 9e66 163e e311 ccbc 20a5 2f3c 74d1 953d
000003d0: 0512 5bbe f652 73be ced4 223d 1e1f 9cbe
000003e0: f638 203b 3170 e13d 5ca8 033e b4fa 16be
000003f0: 00e5 4dbe a45c d8bb 477f 18be 2616 763e

layers.0.lin_r.weight f4 [64, 14]
-0.23254122 -0.004290029 -0.23584299 0.14988045 -0.006214857 0.07307753 0.29139754 0.08574669
0.19496004 0.030008445 -0.15524817 0.029733362 -0.14318815 -0.19500908 0.0058980286 0.05758016
-0.026229324 -0.055775046 0.015927434 0.06952218 -0.07560284 -0.15925351 -0.097196266 0.118613996
-0.2046566 0.088329464 -0.112267196 -0.040157005 0.2571315 -0.24605119 -0.2377601 0.030058622
-0.079273626 -0.30958185 -0.16095224 -0.13537215 -0.061503932 -0.20153044 0.030497864 0.195821
0.14679962 0.11754778 -0.04513068 0.14171083 0.20955248 -0.25258476 -0.20582053 0.23416747
-0.1664352 0.017254269 0.21334092 -0.092061035 -0.19562596 -0.009898224 0.24217366 0.0046364367
-0.26791793 0.04507814 0.098873116 0.29236868 0.2556996 -0.13274103 -0.033242147 -0.04871411
0.15835741 -0.23904635 0.23516384 0.30234364 0.11908738 0.079174876 0.019477634 -0.0070212074
0.2600154 0.076284274 -0.07697566 -0.17769775 0.24115324 -0.18976308 -0.08611357 -0.05690865
0.011077511 0.017566364 -0.15659575 -0.09524244 0.021137033 0.07543377 -0.27454817 0.29920304
-0.08913848 0.15622039 -0.041297358 0.09013449 -0.10338083 0.2143992 -0.05142278 0.023392085
-0.096938185 0.22925428 0.20150669 0.30766112 0.07661146 -0.1034811 0.097216904 -0.21390225
-0.30063063 0.26069087 -0.08282204 -0.27830425 0.23419103 0.1938431 -0.19157267 -0.06852074
-0.17921844 -0.2171401 -0.15526557 -0.22587597 0.23445669 0.19191034 -0.14600562 0.2509471
-0.14268102 -0.27199465 -0.23134753 -0.02408557 -0.23627098 0.14859164 -0.056087967 -0.24963726
-0.16557229 0.1393044 0.21265998 -0.06385398 -0.12538871 0.21581087 -0.23108043 0.14347781
0.1489684 -0.007687658 -0.11703445 0.23488835 -0.195982 -0.23384538 -0.0016866035 -0.22827461
0.18509892 -0.23954932 0.02846173 -0.0017954223 0.1771258 -0.076804735 0.22499356 0.05421288
-0.06048206 0.02223447 -0.10760001 0.020664653 0.16827054 0.20948486 0.09374088 -0.17850202
-0.04472022 -0.07352261 0.10072856 0.19045046 -0.21448824 -0.07376813 -0.12948734 -0.24625602
0.016021904 0.17818464 0.012107791 0.3087024 -0.11978948 0.01406181 -0.24920419 -0.07550775
0.17845868 0.22699814 0.13711151 0.030415365 -0.19888976 -0.16185096 -0.11130287 0.25311223
-0.244626 0.19008657 -0.1328451 -0.1595362 0.17437267 0.028492488 0.20330912 -0.09848643
0.16651349 0.19540921 -0.13623126 -0.03527035 0.15984213 -0.17197126 0.06439448 0.18177058
0.068130404 0.25472575 -0.20206338 0.026264016 -0.062629744 -0.0591467 0.025074394 0.15457761
-0.24689808 0.26564178 0.02049906 -0.052232012 -0.15519953 0.25106514 -0.01675564 0.17241295
-0.16834101 -0.30205315 -0.303451 -0.06746022 -0.24714199 0.13961743 0.29956046 0.14781126
-0.052756086 0.08848219 -0.21971025 -0.13395004 -0.066206396 -0.13869551 0.2164734 0.07333426
-0.032531723 0.1944055 -0.039099805 -0.12246142 -0.14616266 -0.09218258 0.17343193 0.046709802
-0.09064728 0.12344201 0.03493619 0.0012094679 0.19472708 -0.27869907 0.051073305 -0.16626352
0.14545481 -0.16430357 0.29780263 0.2311891 0.18550907 0.0239633 -0.15897171 -0.057626028
00000000: 491f 6ebe 5f93 8cbb d380 71be 437a 193e
00000010: 00a6 cbbb aca9 953d 0f32 953e f69b af3d
00000020: 9ba3 473e 45d4 f53c 60f9 1ebe 6193 f33c
00000030: ea9f 12be 76b0 47be 4044 c13b 2dd9 6b3d
00000040: e1de d6bc 6074 64bd 407a 823c a561 8e3d
00000050: a9d5 9abd 5a13 23be d60e c7bd e5eb f23d
00000060: 8091 51be 14e6 b43d 58ec e5bd ac7b 24bd
00000070: bda6 833e d8f4 7bbe 6277 73be 803d f63c
00000080: 365a a2bd 8381 9ebe aad0 24be ff9e 0abe
00000090: 8ceb 7bbd ff5d 4ebe a8d6 f93c 4d85 483e
000000a0: a452 163e e4bc f03d f3da 38bd a51c 113e
000000b0: ed94 563e ca52 81be 9ec2 52be 99c9 6f3e
000000c0: fd6d 2abe d358 8d3c 0b76 5a3e 7f8a bcbd
000000d0: 2c52 48be 292c 22bc 5ffc 773e 40ed 973b
000000e0: 8a2c 89be dba3 383d fd7d ca3d 59b1 953e
000000f0: 0feb 823e 44ed 07be eb28 08bd 7288 47bd
00000100: 7228 223e 91c8 74be cace 703e c9cc 9a3e
00000110: 16e4 f33d 7026 a23d 8f8f 9f3c 2812 e6bb
00000120: bd20 853e ee3a 9c3d 6aa5 9dbd 66f6 35be
00000130: e0f0 763e 4151 42be 505c b0bd 0b19 69bd
00000140: 737e 353c 56e7 8f3c a35a 20be 780e c3bd
00000150: 9227 ad3c 057d 9a3d 9491 8cbe 2431 993e
00000160: 3c8e b6bd 3df8 1f3e 6b27 29bd 6e98 b83d
00000170: 54b9 d3bd 778b 5b3e b1a0 52bd c2a0 bf3c
00000180: 8787 c6bd a2c1 6a3e c557 4e3e c285 9d3e
00000190: 78e6 9c3d e6ed d3bd a819 c73d 3109 5bbe
000001a0: 42ec 99be 4679 853e 9a9e a9bd e57d 8ebe
000001b0: c6cf 6f3e ce7e 463e a02b 44be 9a54 8cbd
000001c0: 0a85 37be f959 5ebe f0fd 1ebe 084c 67be
000001d0: 6a15 703e 2584 443e 7f82 15be 237c 803e
000001e0: f91a 12be e242 8bbe 5ee6 6cbe 1a4f c5bc
000001f0: 05f1 71be 6828 183e 7fbc 65bd e9a0 7fbe
00000200: c88b 29be d0a5 0e3e 8ac3 593e e0c5 82bd
00000210: e665 00be 86fd 5c3e 59a0 6cbe d9eb 123e
00000220: 2c8b 183e c0e8 fbbb c2af efbd 9286 703e
00000230: 81af 48be 2a75 6fbe 0611 ddba d2c0 69be
00000240: 928a 3d3e 6b4c 75be 9328 e93c 6054 ebba
00000250: 7760 353e cd4b 9dbd b664 663e 530e 5e3d
00000260: 09bc 77bd 1025 b63c 655d dcbd eb48 a93c
00000270: 1d4f 2c3e 3383 563e 38fb bf3d 3cc9 36be
00000280: 8d2c 37bd 0693 96bd c64a ce3d 7205 433e
00000290: cea2 5bbe bf13 97bd 5498 04be 8a2a 7cbe
000002a0: 5e40 833c 0976 363e c25f 463c 3e0e 9e3e
000002b0: 3054 f5bd 8263 663c 622f 7fbe cfa3 9abd
000002c0: dfbd 363e 3372 683e f666 0c3e a529 f93c
000002d0: c2a9 4bbe 42bc 25be c2f2 e3bd ed97 813e
000002e0: 3d7f 7abe 0ea6 423e 8c08 08be 755d 23be
000002f0: c08e 323e 1469 e93c 4430 503e 41b3 c9bd
00000300: 8382 2a3e 5a19 483e 3580 0bbe a477 10bd
00000310: a8ad 233e 3c19 30be 41e1 833d 1122 3a3e
00000320: f487 8b3d 6a6b 823e b4e9 4ebe a227 d73c
00000330: 0644 80bd cf43 72bd d168 cd3c 9849 1e3e
00000340: dad2 7cbe 3302 883e a5ed a73c 3cf1 55bd
00000350: a0ec 1ebe 9c8b 803e 2043 89bc 058d 303e
00000360: 9661 2cbe b6a6 9abe ee5d 9bbe 9528 8abd
00000370: ca12 7dbe dff7 0e3e fd5f 993e d65b 173e
00000380: c416 58bd 2736 b53d b9fb 60be 332a 09be
00000390: 3897 87bd 3206 0ebe 34ab 5d3e 4630 963d
000003a0: fc3f 05bd 3c12 473e 1e27 20bd 0ecd fabd
000003b0: aaab 15be 38ca bcbd 2498 313e c752 3f3d
000003c0: 48a5 b9bd 2acf fc3d 4019 0f3d 0287 9e3a
000003d0: 8966 473e a5b1 8ebe 3e32 513d fc40 2abe
000003e0: 1bf2 143e 323f 28be 9679 983e d6bc 6c3e
000003f0: 17f6 3d3e af4e c43c 7bc9 22be 4509 6cbd

layers.1.lin_l.weight f4 [64, 64]
-0.06214961 -0.09514856 -0.14637062 -0.044826012 -0.039076097 0.109254085 -0.14931214 0.029068798
-0.02083269 0.07930928 -0.06954586 -0.048148725 0.085799105 0.07408558 0.12690619 0.029662311
-0.081897266 0.069825724 -0.12054133 0.17671748 0.10994955 -0.10574281 0.07864723 -0.034891162
0.015478443 -0.0867932 -0.058465775 -0.06470919 -0.086847536 0.047064304 -0.06449871 0.058147248
0.094137624 -0.021632267 0.07831464 -0.04919509 0.07271875 -0.046208836 -0.124509364 0.08213417
-0.06695781 0.014578946 -0.11844594 -0.00036815292 -0.03201246 0.035128824 0.051604863 -0.0028704973
0.114598654 -0.005275649 -0.06625798 -0.09995594 0.08670786 -0.14386843 -0.04175364 -0.12113061
0.06173673 -0.020729491 0.08263884 -0.122540645 0.009190828 -0.13714722 -0.0062625846 -0.01208267
-0.13125949 -0.016873427 -0.17350046 -0.0797367 0.1018197 -0.094312854 0.017773265 -0.05456092
-0.06459344 -0.07332178 0.031882185 0.07935558 0.1046634 -0.08905927 0.022356588 -0.120612614
-0.0064521516 0.13018064 0.03525348 0.09254532 -0.016286312 -0.032542545 -0.11647382 0.084501415
-0.035221122 0.06431449 -0.017081253 -0.048907947 -0.060452487 0.0021236397 -0.12235294 -0.0771377
0.0827418 0.051679235 0.047437448 -0.099143386 -0.008591576 -0.05560319 -0.09864705 -0.0035027345
-0.019603806 0.039002806 0.016088538 0.040725302 -0.14306723 0.012728116 -0.1628895 0.04720748
-0.08142187 0.09719113 -0.015322048 0.25402537 -0.019974014 0.061525486 0.115169786 0.03295117
-0.06392168 0.06390202 -0.12533017 0.09215855 -0.010245323 0.079892516 0.12094344 0.0020900483
-0.03986103 -0.06979656 -0.02542317 -0.11582192 0.044007506 -0.056086138 -0.029083591 0.0060349256
0.034881175 0.031292487 -0.120605394 -0.05560436 0.06781471 -0.03748935 -0.09918231 0.033445083
0.06016973 0.06916115 -0.11932484 0.06217718 -0.08103303 -0.12638062 0.050997436 -0.00082784053
0.048996773 -0.03925152 -0.12895505 -0.11354293 0.0081883 0.0016732283 -0.0128392065 -0.11573479
-0.10290584 0.018444235 -0.027346557 -0.024014648 -0.09878117 -0.12607439 -0.052649856 -0.05807155
-0.11068967 -0.06042652 0.03953184 -0.07185392 -0.042561498 -0.050555516 0.073426865 0.064978786
0.01331583 -0.021977827 0.037200302 -0.04809606 0.10088805 -0.09084233 0.102344796 -0.02662725
-0.025431603 -0.03010571 0.055317763 -0.05696694 -0.120356366 -0.07174793 -0.12956768 -0.00046242774
0.09323879 0.0104656 -0.052553467 0.08142607 0.021252869 -0.08649726 -0.014201308 0.029131476
-0.11552468 0.02158838 -0.040318318 0.111965105 0.038014002 0.017464763 0.07865773 0.04432772
0.072307415 0.061517704 -0.023153491 -0.04901464 0.018638236 -0.06482695 0.10286578 0.049462818
0.019355254 0.13485411 -0.21646206 0.08107197 -0.07299606 -0.027750857 0.18092121 0.12283098
-0.040463872 0.21834543 0.009679697 -0.039661333 -0.16310847 0.09230888 0.111850366 -0.01296118
-0.02414473 -0.09007782 -0.021039754 0.020835772 0.039027598 -0.098321274 0.004643641 -0.048035424
-0.019555049 0.074817926 0.11840088 -0.13630608 -0.041752644 0.14982833 -0.019251447 0.009958941
-0.07410304 0.10290044 -0.0015149525 -0.00036929053 -0.022819042 -0.08496897 0.109840736 0.07976346
00000000: 9790 7ebd 40dd c2bd 2ee2 15be 7b9b 37bd
00000010: 420e 20bd 9bc0 df3d 48e5 18be b021 ee3c
00000020: 51a9 aabc e76c a23d 0f6e 8ebd 9937 45bd
00000030: 71b7 af3d 2eba 973d b2f3 013e 60fe f23c
00000040: c1b9 a7bd ca00 8f3d 5fde f6bd 6df5 343e
00000050: 3b2d e13d b08f d8bd cd11 a13d 09ea 0ebd
00000060: 4c99 7d3c a2c0 b1bd cf79 6fbd 4086 84bd
00000070: 1fdd b1bd 80c6 403d e617 84bd cf2b 6e3d
00000080: 3acb c03d 2736 b1bc 6d63 a03d ca80 49bd
00000090: 91ed 943d 7a45 3dbd c4fe febd f635 a83d
000000a0: 2d21 89bd 88dc 6e3c c993 f2bd a604 c1b9
000000b0: 7f1f 03bd 3ee3 0f3d 9f5f 533d f41e 3cbb
000000c0: b3b2 ea3d 5adf acbb 44b2 87bd b3b5 ccbd
000000d0: e493 b13d 3f52 13be dd05 2bbd 5313 f8bd
000000e0: a7df 7c3d e5d0 a9bc 8d3e a93d 97f6 fabd
000000f0: 2095 163c 5270 0cbe 5e36 cdbb 64f6 45bc
00000100: e368 06be 243a 8abc 1baa 31be ff4c a3bd
00000110: d986 d03d 1927 c1bd 3d99 913c 457b 5fbd
00000120: 9149 84bd bb29 96bd e596 023d 2e85 a23d
00000130: c459 d63d b564 b6bd 2a25 b73c bf03 f7bd
00000140: 926c d3bb 134e 053e f465 103d 6788 bd3d
00000150: df6a 85bc 554b 05bd d389 eebd 140f ad3d
00000160: 0644 10bd 51b7 833d fced 8bbc b353 48bd
00000170: 079d 77bd c32c 0b3b 2e94 fabd 5ffa 9dbd
00000180: 8874 a93d 9bad 533d c54d 423d b00b cbbd
00000190: aec3 0cbc 2cc0 63bd 7707 cabd 228e 65bb
000001a0: 2998 a0bc 68c1 1f3d 1ccc 833c 93cf 263d
000001b0: 3780 12be 9689 503c 81cc 26be a15c 413d
000001c0: 82c0 a6bd 250c c73d 5409 7bbc 9d0f 823e
000001d0: 8ba0 a3bc 2602 7c3d 23de eb3d cef7 063d
000001e0: 5fe9 82bd 10df 823d 8d56 00be 9fbd bc3d
000001f0: 00dc 27bc b09e a33d 32b1 f73d 31f9 083b
00000200: 5245 23bd 80f1 8ebd 4044 d0bc 0b34 edbd
00000210: 3741 343d 94ba 65bd b640 eebc a0c0 c53b
00000220: 90df 0e3d 8d2c 003d f6ff f6bd 66c1 63bd
00000230: 70e2 8a3d 6f8e 19bd 1820 cbbd b6fd 083d
00000240: 8974 763d 5ca4 8d3d 9560 f4bd 80ad 7e3d
00000250: a5f4 a5bd ec69 01be b0e2 503d 7003 59ba
00000260: d7b0 483d 34c6 20bd cb0c 04be 3289 e8bd
00000270: 3828 063c 3a50 db3a 895b 52bc 5d06 edbd
00000280: 4cc0 d2bd 5d18 973c e305 e0bc 5eba c4bc
00000290: c84d cabd a519 01be 60a7 57bd 6fdc 6dbd
000002a0: 44b1 e2bd cc81 77bd 23ec 213d 2628 93bd
000002b0: f754 2ebd 4d13 4fbd d360 963d 9913 853d
000002c0: a42a 5a3c d80a b4bc 585f 183d 6000 45bd
000002d0: 659e ce3d 8b0b babd 269a d13d 6421 dabc
000002e0: f055 d0bc 40a0 f6bc e194 623d 2b56 69bd
000002f0: 667d f6bd 94f0 92bd 64ad 04be 0072 f2b9
00000300: fbf3 be3d e877 2b3c 4e42 57bd b6c2 a63d
00000310: 7f1a ae3c 7a25 b1bd 9aac 68bc 22a5 ee3c
00000320: 3498 ecbd 1dda b03c d224 25bd f64d e53d
00000330: 92b4 1b3d 4312 8f3c 4e17 a13d fc90 353d
00000340: e915 943d fdf9 7b3d 64ac bdbc 93c3 48bd
00000350: 37af 983c fec3 84bd 4bab d23d 8699 4a3d
00000360: e98e 9e3c 3217 0a3e 3ba8 5dbe 1009 a63d
00000370: f57e 95bd c455 e3bc 6943 393e cf8e fb3d
00000380: 72bd 25bd f295 5f3e 9897 1e3c ec73 22bd
00000390: e805 27be 700c bd3d ce11 e53d 215b 54bc
000003a0: 2bcb c5bc b87a b8bd 905b acbc c8af aa3c
000003b0: 67db 1f3d aa5c c9bd af29 983b cbc0 44bd
000003c0: e931 a0bc 243a 993d 297c f23d d293 0bbe
000003d0: d204 2bbd 996c 193e 36b5 9dbc d32a 233c
000003e0: 56c3 97bd 77bd d23d 5f91 c6ba 569d c1b9
000003f0: 00ef babc 3604 aebd 2ef4 e03d 065b a33d

layers.1.lin_r.weight f4 [64, 64]
-0.059394415 -0.055695705 0.08928056 0.123614065 -0.06810683 -0.08601108 -0.021043755 0.023547962
0.016722405 0.04512917 -0.085294336 -0.045096643 0.004272705 -0.11637449 0.058699016 -0.12771541
0.011018021 0.08826957 0.12050871 -0.0036587636 0.07731867 0.06924192 0.06820767 -0.04847077
-0.11619006 -0.035183225 0.112881824 0.012714633 0.062094614 0.14057785 -0.089892596 0.048248574
-0.01887875 0.05766322 -0.053305507 -0.04122339 -0.09364614 -0.088444404 -0.120250605 -0.05153476
-0.110742785 0.0151617685 0.014156426 0.13850929 -0.10246299 0.08453948 -0.118713886 0.112968326
0.12074498 -0.08238902 0.07657472 0.24418882 0.035259675 -0.026762903 0.0954688 -0.12738311
-0.049780063 0.010941944 0.05486997 -0.07797404 -0.097369045 -0.12121552 0.15176867 0.038485263
0.040894795 0.120088995 -0.04726888 0.062633745 0.1071904 -0.056368917 0.01661536 -0.13511251
0.006694881 0.088186264 -0.08185781 0.004269698 0.062481746 -0.10860022 -0.1296157 -0.09485901
-0.091737516 -0.011154502 0.037944496 0.07001468 -0.059721705 0.041884467 -0.069640025 0.05880385
-0.06696223 0.07840234 0.026843911 -0.16529118 0.038248792 -0.032279216 -0.008556969 -0.018511724
0.04494187 -0.033466224 0.040907316 -0.028421326 -0.056959763 -0.048396792 -0.116539754 -0.042979553
0.047412876 -0.09350988 -0.08489641 -0.11952759 0.030224647 -0.13433631 -0.10653538 -0.0788994
-0.0926063 0.010127491 -0.17644101 -0.021621987 -0.02077888 -0.05250003 -0.1275602 -0.09316978
0.014673575 -0.10271083 -0.14510512 -0.10060787 -0.016477212 -0.11132326 -0.14297776 0.02051915
-0.018598512 0.09410836 -0.11079723 0.04110436 0.042292204 -0.10074223 0.05411401 -0.05719377
0.051809106 -0.017616749 -0.013860099 0.0016708543 -0.032411307 0.077035226 -0.09441541 -0.05262917
-0.020989778 0.048465043 -0.077163875 -0.012909293 -0.08369209 -0.11795795 0.090503216 -0.019566568
-0.11941106 -0.04210244 -0.03169006 -0.00887473 0.0039541977 0.033096436 0.042300288 -0.13888887
0.013483476 -0.11841431 0.024769543 0.0260352 -0.12931852 0.050272092 -0.006039875 -0.10073675
0.017096976 -0.06143266 -0.08057069 0.0014513399 -0.06244442 0.0034786714 0.09444841 -0.011689682
0.016152505 -0.08068241 -0.09266436 0.102142125 -0.009292723 0.029747676 -0.11229333 0.044082202
0.019207673 -0.029078819 -0.11150945 0.029309629 -0.08761959 0.113583095 0.013072048 -0.05155383
-0.023285242 -0.049243357 -0.030893026 -0.06309508 0.0653335 -0.10503201 0.062673055 0.07969242
0.037180096 0.058528792 -0.093020156 -0.06307562 0.045486767 0.11555933 0.083220504 -0.13104072
0.086123794 -0.016253294 0.16141196 0.105450094 -0.040181123 -0.052031763 0.14398186 0.1074426
-0.15161338 0.05081842 -0.12231274 0.13594554 -0.060366277 -0.084894106 -0.0062937075 -0.010907568
0.13255578 0.023151644 -0.0877958 -0.035817128 -0.15032504 -0.096626736 -0.12313159 0.05234256
-0.03337823 -0.05610333 0.06675824 0.011232664 -0.08651264 -0.09453385 0.13454735 -0.07187358
0.13661851 0.1207312 -0.02014788 0.17385904 0.12870693 -0.051892802 -0.16108835 -0.11726626
0.033813566 0.07524078 0.11887649 0.022660922 -0.03283626 -0.057460424 0.06966992 -0.015120438
00000000: 8f47 73bd 2e21 64bd bad8 b63d 5f29 fd3d
00000010: 987b 8bbd 9426 b0bd f463 acbc a8e7 c03c
00000020: 6dfd 883c 5dd9 383d ccae aebd 42b7 38bd
00000030: 0c02 8c3b c055 eebd 616e 703d d4c7 02be
00000040: ee84 343c adc6 b43d 45cd f63d dec7 6fbb
00000050: 4059 9e3d b5ce 8d3d 76b0 8b3d 4989 46bd
00000060: 0ef5 edbd 491c 10bd 962e e73d 0951 503c
00000070: ec56 7e3d a4f3 0f3e 9c19 b8bd 4ca0 453d
00000080: 9ca7 9abc 4530 6c3d e056 5abd dbd9 28bd
00000090: 8cc9 bfbd 5722 b5bd f345 f6bd 1d16 53bd
000000a0: 1dcd e2bd 1169 783c 5bf0 673c 61d5 0d3e
000000b0: 1ed8 d1bd 0923 ad3d 4420 f3bd f05b e73d
000000c0: 2549 f73d 93bb a8bd 35d3 9c3d a20c 7a3e
000000d0: 736c 103d e03d dbbc 2585 c33d b870 02be
000000e0: 2ee6 4bbd d745 333c 55bf 603d dab0 9fbd
000000f0: 6c69 c7bd d83f f8bd 3f69 1b3e b9a2 1d3d
00000100: 4d81 273d 38f1 f53d 039d 41bd 1f46 803d
00000110: a486 db3d 18e3 66bd ef1c 883c ef5a 0abe
00000120: bb60 db3b 009b b43d 11a5 a7bd d3e8 8b3b
00000130: dcec 7f3d cb69 debd fab9 04be 7145 c2bd
00000140: e1e0 bbbd 5fc1 36bc b06b 1b3d db63 8f3d
00000150: bf9e 74bd 0c8f 2b3d 6e9f 8ebd 4edc 703d
00000160: 7e23 89bd 6891 a03d c3e7 db3c 1742 29be
00000170: c4aa 1c3d 3637 04bd 8832 0cbc e6a5 97bc
00000180: f714 383d e113 09bd 6e8e 273d d7d3 e8bc
00000190: a44e 69bd b73b 46bd 65ac eebd 540b 30bd
000001a0: 0134 423d 1c82 bfbd 2bde adbd e2ca f4bd
000001b0: ae99 f73c 758f 09be 392f dabd 0296 a1bd
000001c0: 5fa8 bdbd c7ed 253c f4ac 34be 9820 b1bc
000001d0: 7838 aabc 450a 57bd 249f 02be cccf bebd
000001e0: 6f69 703c 0e5a d2bd 7096 14be 800b cebd
000001f0: 38fb 86bc 73fd e3bd c368 12be c717 a83c
00000200: e85b 98bc e2bb c03d a8e9 e2bd 0c5d 283d
00000210: 973a 2d3d f151 cebd a7a6 5d3d 0444 6abd
00000220: c935 543d 0051 90bc 7815 63bc 9100 db3a
00000230: b8c1 04bd a5c4 9d3d de5c c1bd af91 57bd
00000240: c1f2 abbc 4883 463d 1808 9ebd 8081 53bc
00000250: c266 abbd f093 f1bd c059 b93d 114a a0bc
00000260: c98d f4bd 9c73 2cbd 70cd 01bd 5167 11bc
00000270: 3792 813b 2190 073d 1143 2d3d e238 0ebe
00000280: cce9 5c3c 3483 f2bd 7fe9 ca3c c647 d53c
00000290: 136c 04be 1cea 4d3d 25ea c5bb 124f cebd
000002a0: f50e 8c3c d0a0 7bbd 3f02 a5bd e33a be3a
000002b0: b8c5 7fbd 6cfa 633b 2b6e c13d 1486 3fbc
000002c0: 4252 843c d23c a5bd d0c6 bdbd e42f d13d
000002d0: 8140 18bc 66b1 f33c 0cfa e5bd 8a8f 343d
000002e0: 6959 9d3c b436 eebc 115f e4bd bf1a f03c
000002f0: e671 b3bd 419e e83d 252c 563c 1c2a 53bd
00000300: b1c0 bebc 67b3 49bd 5f13 fdbc fe37 81bd
00000310: 92cd 853d 061b d7bd bb5a 803d c835 a33d
00000320: 284a 183d e3bb 6f3d 5a81 bebd ca2d 81bd
00000330: 5550 3a3d 5faa ec3d 836f aa3d 8a2f 06be
00000340: ac61 b03d a125 85bc 2d49 253e 38f6 d73d
00000350: f694 24bd 421f 55bd fb6f 133e de0a dc3d
00000360: 8a40 1bbe fa26 503d 1a7f fabd 4f35 0b3e
00000370: a142 77bd f6dc adbd 723b cebb a8b5 32bc
00000380: b4bc 073e 84a8 bd3c 49ce b3bd fbb4 12bd
00000390: cfee 19be 3de4 c5bd 6a2c fcbd 2765 563d
000003a0: 9cb7 08bd 9bcc 65bd 8bb8 883d 3509 383c
000003b0: 8a2d b1bd f79a c1bd c8c6 093e 7532 93bd
000003c0: b9e5 0b3e eb41 f73d 2b0d a5bc 1b08 323e
000003d0: c0cb 033e 8c8d 54bd 58f4 24be 4b29 f0bd
000003e0: 1880 0a3d d717 9a3d 8475 f33d 66a3 b93c
000003f0: 507f 06bd 9f5b 6bbd 1aaf 8e3d b7bb 77bc

layers.2.lin_l.weight f4 [32, 64]
0.07687039 -0.09052738 -0.09520598 -0.13679296 0.038520746 0.02236949 -0.025764614 0.039215732
0.060246702 -0.058234613 0.10051489 0.026713453 -0.15078653 -0.13640556 0.011619509 -0.04077823
-0.019263873 -0.059902206 -0.08202432 -0.022251489 -0.110971324 0.020508997 0.08932632 -0.04754347
0.0719157 0.01753875 -0.04599996 -0.039599266 0.13716573 -0.013430118 0.0077527864 0.069115594
0.01384562 0.046577666 0.07355063 0.0845588 -0.12822135 0.038902767 -0.10150322 -0.027627844
0.09700608 -0.0042006588 -0.100683734 0.07723167 -0.008709293 0.09671957 -0.13046071 0.12177686
-0.09603204 0.021583062 -0.08607634 -0.048040465 0.08057429 0.09325404 -0.0713534 0.075258315
-0.015757412 0.03726805 0.055115197 -0.08939494 -0.030571457 -0.07224687 0.07391453 -0.09870626
0.07609783 -0.05897218 -0.087696254 0.07997154 -0.06955682 0.07630007 -0.11124186 0.039702907
0.056399256 0.0754033 -0.023422971 -0.05806929 -0.022085115 -0.025305048 -0.07002613 -0.044236273
-0.029276565 0.04377663 0.0127403885 -0.026332662 0.027794287 0.07045026 0.033224106 0.07037026
0.0069599897 -0.090002194 0.06751482 0.057476997 -0.11497298 -0.044111326 0.06385873 -0.072453395
-0.03691101 -0.08551644 0.04483494 -0.064124286 0.099629804 0.096967876 -0.0053154975 0.08335571
-0.007812709 -0.073402375 0.013065919 0.002747178 0.008788422 0.01920195 -0.058619082 -0.11949584
-0.04313661 -0.03413105 0.038849264 -0.066498116 -0.11622214 -0.07336189 0.08721042 -0.0005259961
-0.008382648 0.112075835 -0.036907613 0.045203373 0.06684022 -0.066544816 0.077685565 -0.120247155
-0.072725624 0.058863115 -0.049790505 0.03958881 -0.00819131 0.06999299 0.082452774 -0.054196056
-0.03799074 -0.1460652 -0.07679238 -0.0074823266 -0.0068345065 0.07493678 0.09007263 -0.0051229275
0.0667525 0.01181692 -0.11191898 -0.11839686 0.13877745 0.042478226 0.012236926 0.071316
0.012187184 0.024551332 0.067441665 0.09957562 0.00523921 -0.035022154 -0.100443974 0.089626335
0.08359072 0.094894364 -0.039466083 -0.13484249 -0.100730926 -0.037802022 0.029346645 -0.038708303
0.09809481 0.035761695 -0.112485394 0.12355593 0.058592178 -0.10031175 -0.025141647 -0.07588692
0.06574505 0.07678656 0.096690655 -0.11362943 0.014415567 -0.082304165 -0.026320456 -0.053040016
-0.050870735 0.01789021 -0.094908096 -0.096278295 -0.023938542 0.050683957 -0.045843683 -0.05274435
-0.09549161 -0.054173257 -0.020726277 0.0840439 -0.10015935 -0.040306132 -0.023649072 -0.086876445
0.110586084 0.10773737 -0.115883484 0.15688221 0.118126266 -0.014205662 0.077294365 -0.03145454
-0.01884072 -0.014317365 -0.07083758 0.078238 -0.025836023 0.1453531 -0.11475138 0.034424413
0.021131894 -0.024914272 -0.065797694 0.05816732 0.104016244 0.014944181 0.070233464 -0.00045470646
0.0058615524 0.06791489 -0.08875277 -0.02253507 -0.10627558 -0.067508 0.0025815961 -0.08126101
-0.019378133 0.038977448 0.07976052 0.03809723 -0.022296531 0.10262082 0.01719622 -0.08425623
0.068611115 0.051936843 0.006757656 -0.010222841 0.12016627 -0.07616971 -0.052573595 -0.026419332
-0.010383587 -0.103785746 0.0300444 -0.09635945 -0.1019463 -0.024201402 -0.021142993 0.03694262
00000000: 396e 9d3d 6b66 b9bd 5afb c2bd 7413 0cbe
00000010: eec7 1d3d 3840 b73c 5010 d3bc ada0 203d
00000020: 3fc5 763d 6b87 6ebd c0da cd3d 2cd6 da3c
00000030: c967 1abe e6ad 0bbe c15f 3e3c 1307 27bd
00000040: 45cf 9dbc 045c 75bd 5efc a7bd c148 b6bc
00000050: ef44 e3bd 7c02 a83c b8f0 b63d f1bc 42bd
00000060: 8a48 933d 6dad 8f3c 746a 3cbd d732 22bd
00000070: 2c75 0c3e ff09 5cbc 160b fe3b 7a8c 8d3d
00000080: bdd8 623c 39c8 3e3d b6a1 963d 2a2d ad3d
00000090: 754c 03be 8258 1f3d ece0 cfbd ca53 e2bc
000000a0: 20ab c63d aea5 89bb 4633 cebd a32b 9e3d
000000b0: 6cb1 0ebc e914 c63d 7e97 05be 2566 f93d
000000c0: 72ac c4bd f6ce b03c cb48 b0bd 14c6 44bd
000000d0: 2204 a53d f9fb be3d bb21 92bd 0821 9a3d
000000e0: b015 81bc 62a6 183d 79c0 613d b214 b7bd
000000f0: fe70 fabc 2bf6 93bd 8060 973d 8226 cabd
00000100: 2ed9 9b3d d08c 71bd 189a b3bd 1ec8 a33d
00000110: ce73 8ebd 3643 9c3d c6d2 e3bd 849f 223d
00000120: e802 673d 0c6d 9a3d 88e1 bfbc 10da 6dbd
00000130: d8eb b4bc 884c cfbc dc69 8fbd 1831 35bd
00000140: 68d5 efbc 204f 333d 10bd 503c 98b7 d7bc
00000150: d8b0 e33c 3a48 903d 0016 083d 481e 903d
00000160: a010 e43b 1253 b8bd 3645 8a3d 006d 6b3d
00000170: f476 ebbd 14ae 34bd 5ec8 823d 7262 94bd
00000180: 0030 17bd 3e23 afbd d8a4 373d 9853 83bd
00000190: b60a cc3d 1897 c63d a02d aebb 66b6 aa3d
000001a0: e000 00bc fc53 96bd 7012 563c 000a 343b
000001b0: 50fd 0f3c 684d 9d3c 901a 70bd 3cba f4bd
000001c0: 04b0 30bd 00cd 0bbd 6820 1f3d 2a30 88bd
000001d0: e005 eebd c23e 96bd 609b b23d 00e3 09ba
000001e0: 6057 09bc 0488 e53d 702c 17bd 2c27 393d
000001f0: 86e3 883d a648 88bd 9c19 9f3d 2444 f6bd
00000200: 2cf1 94bd 731a 713d 21f1 4bbd e027 223d
00000210: d834 06bc 7c58 8f3d 00dd a83d affc 5dbd
00000220: 2e9c 1bbd 1e92 15be 5345 9dbd 4e2e f5bb
00000230: fff3 dfbb 7478 993d 0078 b83d 3bde a7bb
00000240: 89b5 883d c19b 413c c735 e5bd 0e7a f2bd
00000250: ad1b 0e3e a6fd 2d3d 637d 483c 1f0e 923d
00000260: c1ac 473c e01f c93c db1e 8a3d 4dee cb3d
00000270: aead ab3b 6473 0fbd 92b5 cdbd 038e b73d
00000280: 9d31 ab3d fa57 c23d 30a7 21bd 2614 0abe
00000290: 044c cebd 4bd6 1abd 6068 f03c 998c 1ebd
000002a0: efe5 c83d db7a 123d be5e e6bd e40a fd3d
000002b0: 5afe 6f3d 3f70 cdbd dbf5 cdbc 9a6a 9bbd
000002c0: 57a5 863d 4642 9d3d c005 c63d 8cb6 e8bd
000002d0: 452f 6c3c 168f a8bd ff9d d7bc 7d40 59bd
000002e0: d55d 50bd 7d8e 923c 2d5f c2bd 8e2d c5bd
000002f0: c31a c4bc fb99 4f3d 96c6 3bbd 760a 58bd
00000300: 1b91 c3bd c7e4 5dbd 27ca a9bc 351f ac3d
00000310: 5820 cdbd 0b18 25bd b3bb c1bc 47ec b1bd
00000320: f57a e23d 69a5 dc3d 5254 edbd bba5 203e
00000330: 2fec f13d ddbe 68bc 824c 9e3d 7ad6 00bd
00000340: db57 9abc 6293 6abc 4b13 91bd 3f3b a03d
00000350: 11a6 d3bc 71d7 143e c602 ebbd 9d00 0d3d
00000360: cb1c ad3c 0419 ccbc f1c0 86bd db40 6e3d
00000370: 7806 d53d 70d8 743c 90d6 8f3d ab65 eeb9
00000380: 4412 c03b f616 8b3d 03c4 b5bd 789b b8bc
00000390: 03a7 d9bd a241 8abd ff2f 293b 2c6c a6bd
000003a0: e4be 9ebc d1a6 1f3d 7c59 a33d d70b 1c3d
000003b0: 37a7 b6bc dd2a d23d 16df 8c3c 888e acbd
000003c0: fc83 8c3d babb 543d 546f dd3b b47d 27bc
000003d0: bc19 f63d ddfe 9bbd 6957 57bd 5b6d d8bc
000003e0: ec1f 2abc 9f8d d4bd ac1f f63c 1a58 c5bd
000003f0: 39c9 d0bd 0542 c6bc 1234 adbc 2551 173d

layers.2.lin_r.weight f4 [32, 64]
0.10409133 -0.052728955 0.112791106 -0.13550258 -0.015760385 -0.07616748 -0.017027818 -0.06263544
-0.06536645 -0.046857513 0.10400256 -0.10105923 0.06627479 -0.03379972 -0.16457477 -0.10670484
0.089714415 -0.09720213 -0.058509886 -0.11742401 -0.018249871 -0.09941853 -0.044756074 -0.15222391
0.095320255 -0.11587675 -0.10254787 -0.04595277 -0.025564663 0.02749676 -0.008820432 -0.10795166
0.06905729 -0.17964971 0.09985304 -0.054230165 -0.05052749 -0.009618028 -0.078278825 0.07085933
-0.024108848 0.047547054 -0.05029674 -0.07676799 0.081205174 -0.056517474 0.14739649 -0.06436003
0.0732498 0.14320746 -0.022587923 -0.049686905 -0.06050695 -0.003987489 0.039132707 0.086050846
-0.13368334 -0.09287592 -0.0075126714 0.020293802 0.06730397 -0.06784044 -0.11657837 -0.01339859
0.06784564 0.08835955 0.001654163 -0.07122475 0.021683544 0.09909728 -0.014415607 0.03580059
-0.11657104 0.10186401 0.032488286 0.075279996 -0.01590027 0.12406765 -0.09715398 -0.056202352
-0.1209106 -0.049052134 -0.07165481 0.12488982 -0.054127634 -0.035890147 0.04419689 0.07669456
-0.09902544 -0.0798005 0.055208594 -0.021602467 -0.097567186 0.058568448 -0.11685045 0.04829806
0.06741412 -0.083931 0.0002860874 -0.11459811 0.07353179 0.02175361 -0.10117261 -0.036398843
-0.019627348 0.107330784 0.047844693 -0.11183126 0.040641576 -0.0469957 -0.0785363 -0.09304428
0.11388041 -0.09716384 -0.08851433 0.02583018 -0.10275379 0.050298616 0.0828094 0.017126545
0.06998484 0.08047168 0.036420047 0.045673594 -0.12054798 0.04302919 -0.068648666 -0.10504559
0.066972986 -0.06285687 0.101075366 -0.023867944 -0.13195424 0.06283668 0.012166837 0.05340495
-0.008189842 -0.050779354 0.07842333 0.04077928 0.0050165663 0.10292633 -0.048987612 -0.10192706
0.02282385 -0.0026514302 -0.06304606 0.01192573 0.00967506 0.040067654 -0.06307672 -0.0089875925
-0.07750752 -0.11081452 -0.01004656 -0.12315616 -0.13459404 0.064981885 0.0044310014 -0.059106342
-0.14561607 -0.061086874 -0.096638285 0.044624824 0.061927732 0.080413066 0.078882724 -0.0057948413
-0.106241986 0.07716329 0.11042517 0.029098194 -0.061782036 -0.07658235 -0.041142784 -0.120540366
0.071468756 0.002192205 -0.0066235038 -0.004801955 0.06711628 -0.08843041 0.08160952 0.084321275
0.027755357 0.020113783 -0.13480274 0.10031297 0.016661212 0.01352623 0.073186055 0.03608588
-0.057783794 0.112447314 -0.047022905 0.08775197 0.054149814 0.05346198 -0.082918 -0.03634698
0.05973171 -0.014128463 -0.09212843 0.023746269 -0.092357896 -0.019379092 -0.00024976835 0.10462722
0.08784508 0.09570016 0.011925909 0.026972206 0.08485278 -0.0077001643 0.0065618907 0.06814663
-0.003780048 -0.10045655 0.096569695 -0.067567565 -0.07120791 0.118617825 0.07807025 0.00424881
0.105833784 0.07365095 0.09868372 0.003726389 -0.12871836 -0.021282462 0.13294265 0.04118108
0.06669263 -0.104721546 0.04419396 -0.079525195 0.09069587 0.088341504 -0.08050706 -0.09187038
-0.021920934 0.034185264 0.068910815 -0.10897837 0.10764809 -0.10936585 0.097102165 0.062249523
-0.0987048 -0.041548967 -0.06195102 -0.076715864 0.009675264 -0.058528394 0.13313942 -0.024716124
00000000: d62d d53d 51fa 57bd 06ff e63d 30c1 0abe
00000010: ec1b 81bc b2fd 9bbd ec7d 8bbc 0247 80bd
00000020: d8de 85bd aaed 3fbd 4bff d43d 24f8 cebd
00000030: 14bb 873d 9371 0abd 4a86 28be 1188 dabd
00000040: 31bc b73d e911 c7bd 10a8 6fbd 007c f0bd
00000050: c180 95bc f19b cbbd 2552 37bd 96e0 1bbe
00000060: 4437 c33d ca50 edbd 9e04 d2bd f938 3cbd
00000070: fc6c d1bc e340 e13c 9383 10bc c315 ddbd
00000080: e96d 8d3d 18f6 37be c07f cc3d 7320 5ebd
00000090: eaf5 4ebd ef94 1dbc a650 a0bd b21e 913d
000000a0: eb7f c5bc b3c0 423d f403 4ebd 8938 9dbd
000000b0: e64e a63d de7e 67bd 1bef 163e 31cf 83bd
000000c0: fe03 963d faa4 123e 4f0a b9bc 7f84 4bbd
000000d0: 23d6 77bd 7ba9 82bb 9e49 203d 6d3b b03d
000000e0: 49e4 08be bb35 bebd db2c f6bb 303f a63c
000000f0: aad6 893d eeef 8abd a4c0 eebd c285 5bbc
00000100: a8f2 8a3d daf5 b43d 80d0 d83a 48de 91bd
00000110: b0a1 b13c 84f3 ca3d 702f 6cbc a4a3 123d
00000120: ccbc eebd 149e d03d 7012 053d 662c 9a3d
00000130: 4841 82bc 2e17 fe3d aaf8 c6bd 7034 66bd
00000140: fa9f f7bd e4ea 48bd c2bf 92bd 3cc6 ff3d
00000150: f0b4 5dbd 8c01 13bd cc07 353d 0a12 9d3d
00000160: dacd cabd 726e a3bd 6822 623d a8f7 b0bc
00000170: 4ed1 c7bd 78e5 6f3d 4a4f efbd 30d4 453d
00000180: 6a10 8a3d 04e4 abbd 00fe 9539 6ab2 eabd
00000190: d697 963d a034 b23c 9633 cfbd f416 15bd
000001a0: 88c9 a0bc 3ed0 db3d ccf8 433d ca07 e5bd
000001b0: c877 263d 907e 40bd a4d7 a0bd 008e bebd
000001c0: 223a e93d d6fd c6bd 0047 b5bd d099 d33c
000001d0: 9470 d2bd ec05 4e3d fa97 a93d f84c 8c3c
000001e0: 3654 8f3d 56ce a43d 302d 153d 3c14 3b3d
000001f0: dce1 f6bd 603f 303d ac97 8cbd 2422 d7bd
00000200: 2229 893d 1abb 80bd 9a00 cf3d b586 c3bc
00000210: 031f 07be 84b0 803d 6a57 473c 26bf 5a3d
00000220: b02e 06bc 03fe 4fbd 699c a03d 2d08 273d
00000230: 0262 a43b 0acb d23d 3ca7 48bd 22bf d0bd
00000240: 15f9 ba3c 9ec3 2dbb 4b1e 81bd 2364 433c
00000250: 2584 1e3c fb1d 243d 5e2e 81bd b240 13bc
00000260: 43bc 9ebd b9f2 e2bd 549a 24bc 4c39 fcbd
00000270: 05d3 09be 3915 853d ef31 913b 7e19 72bd
00000280: 611c 15be 3b36 7abd 4bea c5bd 85c8 363d
00000290: efa7 7d3d 9baf a43d 448d a13d a7e2 bdbb
000002a0: 6695 d9bd c907 9e3d 9726 e23d 565f ee3c
000002b0: 290f 7dbd 35d7 9cbd 5685 28bd dedd f6bd
000002c0: 365e 923d 19ab 0f3b fa09 d9bb b859 9dbb
000002d0: 4374 893d 011b b5bd e422 a73d a2b0 ac3d
000002e0: 345f e33c a9c5 a43c bb09 0abe e370 cd3d
000002f0: 187d 883c 1f9d 5d3c 92e2 953d cace 133d
00000300: b3ae 6cbd c74a e63d 179b 40bd 4eb7 b33d
00000310: 32cc 5d3d f3fa 5a3d ead0 a9bd 92e0 14bd
00000320: 3da9 743d 127b 67bc d5ad bcbd 8987 c23c
00000330: 2326 bdbd e7c0 9ebc 57f3 82b9 cc46 d63d
00000340: 1fe8 b33d 72fe c33d e364 433c d1f4 dc3c
00000350: 4bc7 ad3d a951 fcbb 2105 d73b 7690 8b3d
00000360: afba 77bb 2abc cdbd 55c6 c53d dd60 8abd
00000370: 74d5 91bd e7ed f23d 4ce3 9f3d 9a39 8b3b
00000380: 62bf d83d 4fd6 963d b11a ca3d 6f36 743b
00000390: bfce 03be 8f58 aebc 1e22 083e 7ead 283d
000003a0: 2596 883d 4078 d6bd ba04 353d 1bde a2bd
000003b0: c2be b93d 64ec b43d e3e0 a4bd 8a26 bcbd
000003c0: 8893 b3bc d905 0c3d 1d21 8d3d 0d30 dfbd
000003d0: 9a76 dc3d 34fb dfbd 80dd c63d 5bf9 7e3d
000003e0: be25 cabd 402f 2abd 5ac0 7dbd 351d 9dbd
000003f0: 0085 1e3c 78bb 6fbd b355 083e 7879 cabc

fc11.weight f4 [16, 32]
-0.094579235 -0.1726727 0.17264968 0.017427132 -0.09575845 -0.035066854 -0.109601974 0.07998306
-0.148177 0.06753918 0.13840753 0.13742019 -0.12835352 0.03752886 0.0016792153 -0.15739901
-0.0011656376 0.104343995 0.075455114 0.0056117605 0.017240364 0.06828343 0.036659267 0.1276435
-0.1033241 -0.042311497 0.16564874 -0.044239003 0.1325491 0.07082447 0.05407198 0.14306694
-0.1558512 -0.14539139 -0.059970383 0.004292506 -0.058531895 0.09802697 0.106910884 0.020662814
-0.005838841 0.12336002 -0.18128233 0.0028706754 -0.0016199797 0.018965298 0.050089646 -0.03350592
0.040716782 -0.18434547 -0.16061237 0.085854 0.0027751701 -0.16985342 0.16317351 -0.087676525
-0.13847065 0.08176502 -0.050936427 0.03581919 0.12089129 -0.12362525 0.05739398 0.10259814
0.07224962 -0.046032026 -0.08783303 0.08636308 -0.09110625 -0.11539104 0.017580472 0.068943255
0.11766942 0.12050778 -0.15256561 0.17544882 -0.15649146 -0.14046967 0.12529297 0.17380169
-0.1775174 -0.039578218 -0.14400136 -0.12867087 -0.0035272997 0.032466784 -0.0925629 -0.028340314
0.16601618 0.13758874 -0.20862333 0.021536991 0.06359908 -0.024112558 0.0038622422 0.050326504
0.10240746 -0.08897524 -0.029528875 0.01842273 0.027157106 -0.022873562 -0.11476018 -0.05391097
-0.00017510926 0.00496597 0.04144406 0.061758354 0.03160594 0.018503968 -0.05988057 -0.035728652
0.07330367 -0.06158562 -0.14201789 0.05175695 0.017871413 0.13345559 -0.19665757 0.10547229
0.21583365 0.10579212 0.07192325 0.152408 0.020015368 -0.038358193 -0.11121356 0.15578324
-0.089102484 0.039039448 -0.17681123 0.118910484 -0.011417071 -0.04203562 -0.019580174 0.12908567
0.12502612 0.12085574 0.061901208 0.14911273 -0.022744492 -0.10581475 0.04193476 0.16011032
-0.07729542 -0.03149093 0.1212692 -0.066062555 0.024853213 0.1670027 0.05264618 -0.053045213
-0.071898624 0.080861814 0.124275796 0.07772907 0.13068178 -0.09827645 -0.10315753 0.08951642
-0.08054168 -0.092673056 0.018310701 0.04226762 0.09104018 -0.11816569 -0.09234246 -0.009320688
-0.11946903 -0.044536665 0.010545023 -0.02808012 -0.16453826 -0.15452011 -0.105688155 -0.079439715
-0.17286018 -0.05903007 -0.15500335 0.024252167 -0.030939236 -0.08961767 0.043720484 -0.16232304
-0.073267385 -0.089771904 0.14403847 -0.020681122 0.12079422 -0.05979586 -0.108303174 -0.029044075
0.15433341 0.11703099 0.08915282 0.11170686 0.024032105 -0.19955364 -0.17249444 0.010077594
0.16767341 -0.102991186 -0.036367685 -0.10180017 0.07239144 0.10134832 -0.03351231 0.11216416
-0.06691279 0.14203732 -0.15368809 -0.056436863 0.11142814 0.06022254 -0.11742362 0.050625633
0.038693007 0.15395069 0.11888843 0.057488333 0.106398605 -0.11313659 -0.16243644 -0.054148093
-0.0018990047 -0.07872521 -0.11864384 -0.10225742 -0.11905717 0.03584146 0.12206726 0.054295886
0.09808091 0.009421708 -0.0760852 0.16756818 -0.041554336 -0.095343605 -0.16827814 -0.0042555495
0.12972467 0.075246885 0.062639154 0.098423816 -0.10571447 -0.16389976 0.047476985 -0.1637548
0.11735576 -0.16102017 0.046459865 -0.15803385 0.128159 0.17018309 0.07645319 0.02647899
00000000: c2b2 c1bd 1dd1 30be 14cb 303e 58c3 8e3c
00000010: 021d c4bd 43a2 0fbd 0077 e0bd 29ce a33d
00000020: b6bb 17be fb51 8a3d b4ba 0d3e e1b7 0c3e
00000030: 1b6f 03be ddb7 193d 1e19 dc3a 352d 21be
00000040: 4fc8 98ba 4eb2 d53d 3688 9a3d dce2 b73b
00000050: aa3b 8d3c 2fd8 8b3d 0728 163d fab4 023e
00000060: 969b d3bd d24e 2dbd d39f 293e f533 35bd
00000070: f4ba 073e 6b0c 913d 957a 5d3d 2480 123e
00000080: 7597 1fbe 7be1 14be 81a3 75bd 26a8 8c3b
00000090: 24bf 6fbd 5dc2 c83d 18f4 da3d 1045 a93c
000000a0: c053 bfbb 2ea4 fc3d 13a2 39be f121 3c3b
000000b0: 8055 d4ba 1d5d 9b3c cd2a 4d3d 813d 09bd
000000c0: a4c6 263d 0fc5 3cbe 9277 24be 39d4 af3d
000000d0: a1df 353b 0eee 2dbe f516 273e c08f b3bd
000000e0: 40cb 0dbe 6b74 a73d b7a2 50bd 25b7 123d
000000f0: da95 f73d 3c2f fdbd f315 6b3d f91e d23d
00000100: 9cf7 933d 148c 3cbd cee1 b3bd 20df b03d
00000110: ea95 babd 2352 ecbd ec04 903c 1f32 8d3d
00000120: aafc f03d c8cc f63d 293a 1cbe dba8 333e
00000130: 4c3f 20be 48d7 0fbe cd4c 003e 12f9 313e
00000140: 1fc7 35be c51c 22bd 1875 13be 4cc2 03be
00000150: 452a 67bb e4fb 043d 9e91 bdbd f229 e8bc
00000160: 2500 2a3e 10e4 0c3e 5ba1 55be 586e b03c
00000170: 3c40 823d b387 c5bc ac1d 7d3b 2a23 4e3d
00000180: 01bb d13d a738 b6bd 8ae6 f1bc 44eb 963c
00000190: 9478 de3c 5661 bbbc 6307 ebbd c0d1 5cbd
000001a0: 899d 37b9 93b9 a23b 3fc1 293d 54f6 7c3d
000001b0: 3b75 013d a295 973c 5445 75bd 3558 12bd
000001c0: 3c20 963d 3441 7cbd 236d 11be 18ff 533d
000001d0: 1267 923c 95a8 083e 9a60 49be db01 d83d
000001e0: 7f03 5d3e 8aa9 d83d 7f4c 933d d810 1c3e
000001f0: 45f7 a33c 7b1d 1dbd efc3 e3bd a485 1f3e
00000200: 5d7b b6bd d4e7 1f3d 010e 35be 5787 f33d
00000210: ab0e 3bbc 8b2d 2cbd 9a66 a0bc 092f 043e
00000220: d906 003e 3783 f73d 1f8c 7d3d 02b1 183e
00000230: a852 babc 67b5 d8bd c8c3 2b3d f6f3 233e
00000240: 104d 9ebd a2fc 00bd fd5b f83d ce4b 87bd
00000250: f798 cb3c c102 2b3e 85a3 573d f045 59bd
00000260: 963f 93bd e19a a53d 4f84 fe3d 6b30 9f3d
00000270: 72d1 053e 2a45 c9bd 4144 d3bd 6354 b73d
00000280: 09f3 a4bd 5fcb bdbd 5300 963c d020 2d3d
00000290: 4673 ba3d da00 f2bd 0b1e bdbd cdb5 18bc
000002a0: 2eac f4bd 146c 36bd 08c5 2c3c 4808 e6bc
000002b0: b87c 28be 853a 1ebe 0873 d8bd 4ab1 a2bd
000002c0: 4202 31be 84c9 71bd 33b9 1ebe 7bac c63c
000002d0: 4874 fdbc 7889 b7bd 4014 333d 0338 26be
000002e0: 360d 96bd 55da b7bd d27e 133e 756b a9bc
000002f0: f662 f73d 81ec 74bd 0ece ddbd d7ed edbc
00000300: 9409 1e3e f2ad ef3d c195 b63d 91c6 e43d
00000310: fade c43c ca57 4cbe 62a2 30be 7e1c 253c
00000320: 94b2 2b3e 0bed d2bd 48f6 14bd 9c7c d0bd
00000330: f741 943d b58f cf3d 3444 09bd 53b6 e53d
00000340: 9309 89bd 3b72 113e 6960 1dbe 572a 67bd
00000350: 7034 e43d e9ab 763d cb7b f0bd d35c 4f3d
00000360: 8f7c 1e3d 40a5 1d3e c77b f33d e378 6b3d
00000370: 83e7 d93d 28b4 e7bd bd55 26be 64ca 5dbd
00000380: 06e8 f8ba af3a a1bd 8bfb f2bd 576c d1bd
00000390: 3fd4 f3bd 7fce 123d 66fe f93d 5d65 5e3d
000003a0: a5de c83d 825d 1a3c 8fd2 9bbd fe96 2b3e
000003b0: e134 2abd 8243 c3bd 1b51 2cbe 2372 8bbb
000003c0: 8bd6 043e 0a1b 9a3d f548 803d 6d92 c93d
000003d0: d480 d8bd 57d5 27be 3a77 423d 57af 27be
000003e0: 3758 f03d 79e2 24be b34c 3e3d a0d3 21be
000003f0: 1d3c 033e 7a44 2e3e 7d93 9c3d 78ea d83c

fc11.bias f4 [16]
0.21483736 -0.031935386 -0.007884847 0.039612647 -0.056703575 -0.15019031 0.27988788 0.07937153
0.122416645 0.030956564 -0.04114177 0.25164643 0.22919379 0.04947707 -0.2479893 0.052245025
00000000: 53fe 5b3e aece 02bd 722f 01bc df40 223d
00000010: 0242 68bd 7dcb 19be 774d 8f3e 8a8d a23d
00000020: 94b5 fa3d 9f98 fd3c 4684 28bd cdd7 803e
00000030: c7b1 6a3e 78a8 4a3d e8f0 7dbe e1fe 553d

fc12.weight f4 [1, 16]
-0.017548494 -0.06664526 -0.1331565 -0.20590328 0.21752475 0.2210847 -0.081497304 0.19252655
-0.26643556 0.12647417 0.085490935 -0.22008222 -0.25668085 -0.22325577 0.17078085 0.03508646
00000000: dcc1 8fbc 4f7d 88bd 2d5a 08be 4fd8 52be
00000010: cfbe 5e3e 0764 623e 0fe8 a6bd ae25 453e
00000020: 3e6a 88be 7282 013e df15 af3d 3c5d 61be
00000030: ac6b 83be 299d 64be 2de1 2e3e d2b6 0f3d
