trained_models/2022-09-16_20:59:24-GraphSAGE_16_1/base_model.pt (torch, 7703 bytes, 5 tensors)

layers.0.lin_l.weight f4 [32, 14]
-0.06568228 -0.02216611 -0.078253604 0.002097251 -0.016805524 0.23597237 0.013919706 0.21716051
0.30932662 0.09205376 0.16206661 0.26303467 -0.12868471 -0.04188395 0.04775123 0.21027881
-0.24281912 0.1947387 -0.13298768 0.20363533 0.08962988 -0.061144747 -0.058693472 -0.2094185
-0.039831165 0.23132198 0.072953574 0.14057334 0.1596192 0.1925774 -0.17329122 -0.019680178
0.19471282 0.0604675 0.2716184 0.042301204 0.2584125 0.08121548 -0.05372147 0.17777295
0.12672572 -0.062341332 0.22963361 0.05937691 -0.00073989097 0.29319835 0.00960191 0.13530385
0.17216854 0.16499619 0.08316365 -0.17294267 -0.21927623 0.28374895 -0.08267166 -0.20955257
-0.16225895 0.18566419 -0.02398359 0.2223181 0.17063597 -0.12679513 -0.32041436 -0.023127867
0.20471233 0.23033556 0.22005382 -0.20923068 -0.018929519 0.22894357 0.1345258 -0.064013734
0.003620583 -0.058756612 0.19293846 -0.003074675 -0.09195733 0.28552258 0.11164704 0.18093409
-0.12078825 -0.08958048 0.10765049 0.2045445 0.106251806 -0.4148167 -0.18866943 -0.03652396
-0.06823311 -0.026407802 -0.22497419 -0.037274126 0.020242196 -0.2774583 -0.0046211854 0.17210224
0.2992962 -0.14388879 -0.117461935 0.009585366 -0.031870473 -0.13240871 0.20059748 0.35046944
0.23832612 -0.09961726 -0.2747585 -0.14358976 -0.0622558 -0.2217789 -0.15894063 0.14504237
-0.14200112 -0.15535077 0.35095865 -0.031308636 0.21496865 0.037562747 -0.12572609 0.034086745
-0.124964125 0.053725433 -0.0036832574 0.17744438 -0.021776102 0.087479465 -0.025957841 0.052858066
0.16122763 -0.003751845 0.24924271 0.05478724 0.08214094 -0.15660387 0.12551597 -0.05177706
-0.049462635 -0.16523585 0.12197197 -0.06735897 0.038564943 0.11554103 0.21760085 -0.07558053
0.1585681 -0.18636395 -0.09403222 -0.06463366 -0.057263028 0.24371229 -0.022669652 -0.24186079
-0.31614596 0.11333266 -0.093743 -0.053065073 0.17504731 -0.09589461 0.2581666 0.028556716
0.29842576 -0.08107211 0.08489955 0.20040299 0.23721705 -0.10047645 0.09527799 -0.14036182
-0.23587136 -0.13363795 0.19793703 -0.2810074 -0.23469195 -0.08073668 0.054413784 0.28948104
-0.25804648 -0.029058434 0.032790944 -0.08898759 -0.16899598 -0.24772377 0.020584831 -0.41922402
-0.172334 -0.16652764 -0.23078094 -0.16073915 -0.15694183 0.008511136 0.18969719 0.15470804
-0.0626122 -0.122694716 0.038413152 0.14352232 -0.0826004 0.38025585 -0.1647816 -0.18995991
0.115481876 0.013363873 0.21676667 -0.14636108 0.046445757 0.21492168 -0.08710113 0.15778714
0.042288892 -0.16047835 0.08155461 0.09321712 0.2890072 -0.0320229 -0.11838382 -0.17733386
0.11694892 0.10097497 -0.036897227 -0.1843077 0.003917003 0.09221538 -0.12081147 -0.2038879
0.11029977 -0.10135168 -0.033538535 -0.2410882 0.22349684 -0.09318138 -0.083666086 -0.18922572
-0.10266967 -0.15312183 0.058882315 -0.07671903 -0.15899149 0.2557705 0.25914532 0.00016517397
-0.2672446 -0.071845725 0.24223146 0.21100418 -0.0065911645 -0.15751575 -0.008622782 -0.23941074
-0.15973817 -0.2341945 0.22413675 0.05817723 0.063605934 0.22595568 -0.12797819 -0.02291041
00000000: 6e84 86bd b495 b5bc 6d43 a0bd 0872 093b
00000010: bdab 89bc bea2 713e 7b0f 643c 535f 5e3e
00000020: 0f60 9e3e af86 bc3d caf4 253e 7bac 863e
00000030: edc5 03be 818e 2bbd cb96 433d 5453 573e
00000040: 93a5 78be 9569 473e ec2d 08be c885 503e
00000050: df8f b73d ea72 7abd 9168 70bd ce71 56be
00000060: 0126 23bd abdf 6c3e af68 953d 75f2 0f3e
00000070: 3773 233e 0333 453e 4173 31be 5338 a1bc
00000080: cc62 473e c5ac 773d 9111 8b3e 0744 2d3d
00000090: a54e 843e 4d54 a63d 0b0b 5cbd 1d0a 363e
000000a0: 63c4 013e a059 7fbd 1325 6b3e 3435 733d
000000b0: 3ef5 41ba 181e 963e 5451 1d3c 188d 0a3e
000000c0: f34c 303e c3f4 283e b451 aa3d e217 31be
000000d0: f389 60be 8b47 913e c24f a9bd f394 56be
000000e0: 3627 26be c11e 3e3e 3c79 c4bc 5ba7 633e
000000f0: 32bb 2e3e 95d6 01be 5a0d a4be a776 bdbc
00000100: 1ca0 513e 16dd 6b3e ca55 613e 9140 56be
00000110: 1412 9bbc 2f70 6a3e 22c1 093e a219 83bd
00000120: 4e47 6d3b c6aa 70bd a991 453e 7d80 49bb
00000130: 2054 bcbd 0430 923e 34a7 e43d c946 393e
00000140: d45f f7bd f875 b7bd dc77 dc3d 1d74 513e
00000150: 8c9a d93d db62 d4be 8f32 41be 269a 15bd
00000160: cdbd 8bbd 2d55 d8bc a25f 66be c1ac 18bd
00000170: f6d2 a53c 040f 8ebe 506d 97bb 923b 303e
00000180: 5a3d 993e 9557 13be e28f f0bd f00b 1d3c
00000190: 9d8a 02bd 2696 07be 6d69 4d3e bb70 b33e
000001a0: c30b 743e 2204 ccbd 25ad 8cbe 3209 13be
000001b0: f0ff 7ebd 021a 63be 55c1 22be fd85 143e
000001c0: be68 11be 4614 1fbe dab0 b33e 7c3d 00bd
000001d0: be20 5c3e 65db 193d 57be 00be 8b9e 0b3d
000001e0: 31ed ffbd 330f 5c3d ce62 71bb fbb3 353e
000001f0: cc63 b2bc 6f28 b33d 8aa5 d4bc b381 583d
00000200: db18 253e 84e1 75bb 7b39 7f3e 9668 603d
00000210: 8239 a83d c45c 20be 4287 003e 2f14 54bd
00000220: 5599 4abd 9633 29be 71cc f93d 80f3 89bd
00000230: 46f6 1d3d c7a0 ec3d c2d2 5e3e f7c9 9abd
00000240: ad5f 223e 31d6 3ebe f793 c0bd a75e 84bd
00000250: a38c 6abd b78f 793e b5b5 b9bc 5baa 77be
00000260: e2dd a1be f41a e83d 54fc bfbd c35a 59bd
00000270: 9a3f 333e 6564 c4bd 6a2e 843e c6ef e93c
00000280: 43cb 983e 2209 a6bd d1df ad3d 7136 4d3e
00000290: 07e9 723e 99c6 cdbd 1b21 c33d 02bb 0fbe
000002a0: 4388 71be 63d8 08be 01b0 4a3e 34e0 8fbe
000002b0: 1653 70be 4659 a5bd fde0 5e3d dc36 943e
000002c0: ab1e 84be f40b eebc cc4f 063d 203f b6bd
000002d0: 480d 2dbe 4dab 7dbe 85a1 a83c 88a4 d6be
000002e0: 5378 30be 3986 2abe d751 6cbe ce98 24be
000002f0: 5cb5 20be 4b72 0b3c fb3f 423e c96b 1e3e
00000300: d33a 80bd 5e47 fbbd 1c57 1d3d 84f7 123e
00000310: 662a a9bd e5b0 c23e 82bc 28be da84 42be
00000320: c381 ec3d 25f4 5a3c 15f8 5d3e aedf 15be
00000330: e83d 3e3d 6e14 5c3e 1462 b2bd f492 213e
00000340: 1e37 2d3d 7054 24be 1a06 a73d 9ee8 be3d
00000350: c0f8 933e 722a 03bd 3773 f2bd 0297 35be
00000360: ea82 ef3d f7cb ce3d 8c21 17bd 28bb 3cbe
00000370: 345a 803b 6bdb bc3d 016c f7bd fdc7 50be
00000380: d9e4 e13d 7891 cfbd b45f 09bd d3df 76be
00000390: 5bdc 643e e1d5 bebd 2059 abbd 63c4 41be
000003a0: 7a44 d2bd f8cb 1cbe 952e 713d de1e 9dbd
000003b0: aace 22be 5af4 823e b2ae 843e 8d32 2d39
000003c0: 49d4 88be da23 93bd 860b 783e 7b11 583e
000003d0: b2fa d7bb cf4b 21be 9246 0dbc 1728 75be
000003e0: 6792 23be afd0 6fbe 1b84 653e 3f4b 6e3d
000003f0: d443 823d ed60 673e b70c 03be 9dae bbbc

layers.0.lin_r.weight f4 [32, 14]
-0.21739514 0.42978123 -0.16815443 -0.12934163 0.25883207 0.19510762 -0.19497797 0.24277328
-0.040346928 0.21661368 0.157415 -0.026193751 -0.04064821 -0.22257233 0.019013345 -0.120652065
0.1338601 0.101154074 0.042998414 -0.041141536 0.10254298 -0.24534816 0.4177421 0.12687215
0.0629057 -0.19864933 0.12899284 0.06449972 -0.08774769 0.36826554 0.080825284 -0.11891305
0.07101583 -0.26637286 0.14392579 0.023036327 0.021027464 0.2026797 0.20562665 -0.14591761
-0.26412302 0.1813797 -0.10227789 0.2227642 -0.3133958 0.30918863 -0.23128636 -0.24649474
-0.2927224 -0.045011707 0.1464425 0.13386613 -0.009413195 -0.20233683 -0.1995308 0.006873704
0.08895828 0.33412862 0.07225819 0.067086264 -0.15277515 -0.025094667 -0.09781904 0.12750544
-0.20612882 0.038464468 0.20883231 0.053241875 0.24533457 -0.1522672 0.05717765 0.35478956
-0.09453704 0.1609329 0.1585994 -0.2215026 -0.19016832 -0.11359414 0.09577267 -0.07691843
0.06323245 0.14460357 0.059221208 -0.06342891 -0.061704323 0.049106494 -0.1341696 -0.23516007
-0.15655862 -0.07039337 -0.024112372 0.17631106 -0.11849337 -0.25415182 -0.044409517 -0.21877849
0.24431795 0.03994157 0.011327663 -0.3494646 0.26607248 -0.34646595 -0.0016175652 0.20506452
0.1580586 -0.3237782 0.17435214 0.12892908 0.24265105 0.10307644 0.23396501 -0.015668727
-0.036114275 -0.22131965 0.27058056 -0.18214811 -0.046056658 0.026460294 -0.17641966 -0.032079175
-0.09450286 0.22186136 0.15823983 0.2774896 -0.12005694 -0.10795288 0.010973162 -0.26222396
0.21210319 -0.22813232 0.16728443 0.13871518 -0.13048233 0.05024084 -0.051348794 -0.26689517
-0.2768642 0.23839685 0.17733309 0.06992153 -0.013958271 0.0003933868 -0.06476526 -0.22502263
-0.1585183 0.10793236 -0.28437433 -0.12546363 -0.13077119 -0.16899501 -0.0984639 0.13699335
0.049447548 0.15546024 0.19655535 -0.2372065 0.02425501 -0.02067338 -0.04221042 0.05527245
0.16232704 0.13393112 -0.22836515 0.008266406 0.03480333 -0.026786257 0.061518375 -0.17973739
0.05520941 0.011714838 0.037623588 0.18243776 -0.021015953 0.113366514 0.011149996 0.124706805
-0.22825603 -0.19756077 -0.08819985 0.23628065 0.02922666 -0.25742844 0.1309723 -0.30567688
0.07170865 0.26301208 0.03496131 -0.31004643 -0.08511881 0.04834851 -0.34932593 -0.18175595
-0.031556066 0.008907218 -0.24463849 -0.14397894 0.23728245 0.3770898 -0.24073882 -0.045800876
0.03234987 -0.0059853476 0.24472663 0.2683948 -0.26713592 -0.02504282 -0.1407413 0.22943574
0.01984703 0.08022943 0.1218302 0.1770616 0.028157985 0.3606798 -0.11506906 -0.19525184
-0.20515162 0.16174795 0.27361214 0.1751609 0.1188252 0.18966798 0.15786183 0.17578653
0.11682534 -0.22477965 -0.119814076 0.07018 -0.12887529 0.16148147 -0.22062956 -0.24482194
-0.015379597 -0.24405266 -0.051387273 0.26683888 -0.2019125 0.19068676 -0.1814672 -0.27188703
0.11149836 -0.03481471 -0.03382158 0.31446218 -0.19542573 0.18480621 -0.07465063 0.1384406
-0.14571652 0.29440814 -0.075575076 -0.19667536 0.1606543 0.31420866 -0.2370113 0.2717353
00000000: d59c 5ebe 490c dc3e ad30 2cbe 2272 04be
00000010: a385 843e 4bca 473e 4ea8 47be 8f99 783e
00000020: d242 25bd facf 5d3e 6631 213e 4794 d6bc
00000030: bd7e 26bd 00ea 63be e0c1 9b3c 6e18 f7bd
00000040: 9f12 093e de29 cf3d 1b1f 303d 0784 28bd
00000050: 0e02 d23d 8c3c 7bbe 4be2 d53e c6ea 013e
00000060: b4d4 803d bb6a 4bbe b316 043e 6e18 843d
00000070: 10b5 b3bd 4d8d bc3e ba87 a53d af88 f3bd
00000080: bf70 913d 0662 88be 4861 133e aeb6 bc3c
00000090: ca41 ac3c 448b 4f3e cb8f 523e 6d6b 15be
000000a0: 223b 87be 9abb 393e 1277 d1bd 4c1c 643e
000000b0: 6a75 a0be f94d 9e3e 55d6 6cbe 1e69 7cbe
000000c0: b6df 95be 325e 38bd 06f5 153e 3414 093e
000000d0: cd39 1abc 6331 4fbe cd51 4cbe cf3c e13b
000000e0: c22f b63d e812 ab3e 1afc 933d 8664 893d
000000f0: 1771 1cbe 5593 cdbc 5955 c8bd c990 023e
00000100: 6f13 53be eb8c 1d3d 23d8 553e 2714 5a3d
00000110: fc38 7b3e efeb 1bbe 1d33 6a3d faa6 b53e
00000120: a39c c1bd 98cb 243e e267 223e 94d1 62be
00000130: 7cbb 42be 0ba4 e8bd 7624 c43d 6987 9dbd
00000140: 0480 813d f512 143e f091 723d 04e7 81bd
00000150: acbd 7cbd e423 493d c163 09be cdcd 70be
00000160: e750 20be 662a 90bd 4f87 c5bc e38a 343e
00000170: a7ac f2bd 3020 82be c1e6 35bd 7807 60be
00000180: 7c2e 7a3e c699 233d aa97 393c 06ed b2be
00000190: a73a 883e fc63 b1be 7b04 d4ba 6ffc 513e
000001a0: 1dda 213e 42c6 a5be 5e89 323e fc05 043e
000001b0: 8479 783e be19 d33d 8694 6f3e b45b 80bc
000001c0: 90ec 13bd 9ea1 62be 8989 8a3e 0985 3abe
000001d0: e8a5 3cbd 42c3 d83c 5ba7 34be 7465 03bd
000001e0: b78a c1bd a02f 633e 9f09 223e 1e13 8e3e
000001f0: 6ae0 f5bd 6616 ddbd c7c8 333c 3842 86be
00000200: 9431 593e 859b 69be 9c4c 2b3e 5a0b 0e3e
00000210: 299d 05be 57c9 4d3d 1d53 52bd 7ca6 88be
00000220: 25c1 8dbe 4e1e 743e ce96 353e 0533 8f3d
00000230: 3bb1 64bc 7c3f ce39 a6a3 84bd 556c 66be
00000240: 9f52 22be a40b dd3d 8399 91be 8a79 00be
00000250: e2e8 05be 070d 2dbe 71a7 c9bd fc47 0c3e
00000260: 8389 4a3d f830 1f3e ce45 493e 43e6 72be
00000270: 71b2 c63c 385b a9bc d5e4 2cbd 5d65 623d
00000280: 0f39 263e 3d25 093e 8ed8 69be d26f 073c
00000290: f08d 0e3d da6e dbbc b1fa 7b3d 140d 38be
000002a0: 4323 623d 98ef 3f3c 311b 1a3d f7d0 3a3e
000002b0: a629 acbc b42c e83d 79ae 363c 4866 ff3d
000002c0: f3bb 69be 5f4d 4abe 1fa2 b4bd 8ef3 713e
000002d0: c06c ef3c a9cd 83be 9a1d 063e ae81 9cbe
000002e0: fcdb 923d 85a9 863e 9733 0f3d 68be 9ebe
000002f0: c552 aebd 1609 463d d9da b2be 3b1e 3abe
00000300: ef40 01bd 95ef 113c 8382 7abe 376f 13be
00000310: 2cfa 723e ea11 c13e 3d84 76be b399 3bbd
00000320: 4c81 043d bc20 c4bb 9e99 7a3e 0b6b 893e
00000330: 0ac6 88be 9a26 cdbc 7d1e 10be 34f1 6a3e
00000340: 3d96 a23c 544f a43d 1d82 f93d a34f 353e
00000350: 93ab e63c 06ab b83e 54a9 ebbd 19f0 47be
00000360: 4413 52be 41a1 253e e416 8c3e 615d 333e
00000370: a05a f33d 5338 423e 88a6 213e 6201 343e
00000380: 2042 ef3d a32c 66be 1561 f5bd 88ba 8f3d
00000390: e2f7 03be 665b 253e b7ec 61be 9ab2 7abe
000003a0: b5fa 7bbc f1e8 79be 767b 52bd 1b9f 883e
000003b0: 27c2 4ebe 6443 433e 8ad2 39be c734 8bbe
000003c0: 4159 e43d df99 0ebd 7f88 0abd 3001 a13e
000003d0: af1d 48be d73d 3d3e 6ee2 98bd 5fc3 0d3e
000003e0: b636 15be aabc 963e 1bc7 9abd 4465 49be
000003f0: 9082 243e f5df a03e 17b3 72be e420 8b3e

fc11.weight f4 [16, 32]
-0.027540443 0.08589771 -0.045960885 -0.15602568 0.02534827 0.10816034 0.13322349 0.069641486
0.13272324 0.20550367 0.076660305 -0.105400264 0.17751779 -0.12738618 -0.100514926 0.040549003
0.30972376 0.23660253 -0.028876752 0.18764228 0.06708987 -0.020005763 0.009979343 -0.03823899
0.15046209 -0.07988878 0.14931504 -0.0365859 -0.1362986 0.13034031 -0.010663521 -0.12876397
0.11380854 0.17349887 0.19751371 0.2685811 -0.105006896 0.024930174 -0.17106716 0.0054808334
0.01610033 0.030921593 -0.00616395 0.10756501 0.070554614 0.0166011 -0.08284717 0.108906254
0.06342737 -0.028421463 0.15045774 0.005678472 -0.09454276 -0.12784605 0.110147625 0.10653102
0.14171071 0.039300628 0.14571209 -0.048542593 0.021795372 -0.09563693 -0.074639134 -0.09797114
0.16515803 0.19655098 -0.035406515 0.1628085 0.13980123 0.021125758 -0.1930283 -0.16463019
-0.072305664 -0.013915293 -0.105421625 -0.09406889 0.15762271 0.15491335 0.055059705 0.14689833
0.012799403 0.08145063 0.21366675 0.08239647 -0.01660469 -0.10389729 -0.03402243 0.08770667
-0.111423574 -0.05364845 -0.03692553 0.044178214 0.1263991 0.018962996 -0.013856691 0.048581045
-0.008622543 -0.0006842344 0.0050370097 0.09300087 0.19103925 0.06647126 0.11394788 -0.024831142
-0.03589656 0.0039189723 -0.102150604 0.08898925 0.15706007 0.26930496 0.13115455 0.14574315
-0.16280566 0.14069301 0.15711094 0.1606447 -0.021268733 -0.10354793 0.04146721 -0.13896097
-0.09099519 0.12949099 0.02995497 0.16817872 0.025821975 0.0004656106 0.124599144 0.18489592
-0.034945823 -0.07562998 -0.10491912 -0.17231734 -0.18282242 -0.17080748 0.124003954 0.3418284
-0.013601199 0.1675207 -0.078654535 -0.045192204 0.12270803 -0.11580816 0.08533034 0.0001073841
0.1719139 0.2449625 0.11585435 0.24690439 0.10632442 -0.08296967 0.20865984 0.10150502
0.017119449 0.01907933 0.03210006 0.052943364 0.022110326 0.042910278 -0.17212763 0.08867644
-0.07886575 0.098919325 0.038466044 0.191448 -0.037491187 0.08884106 0.009821268 -0.12030108
-0.06998562 0.04981385 -0.084887065 -0.16729836 0.030724775 0.17130554 0.024846392 0.14050677
-0.08229119 -0.08677767 0.039713413 0.11969986 0.05721283 0.14969851 -0.14711305 -0.1747302
-0.06517277 0.021756899 -0.06963608 0.07901549 -0.083193235 0.009398756 0.10796017 0.0661294
-0.24342205 -0.030067278 -0.11355301 0.09247243 -0.28777313 0.09435861 0.09347136 -0.00844207
0.15300392 0.04969418 -0.009064956 -0.009931874 0.013658111 -0.27936202 -0.1486248 0.086195074
0.20275743 0.23607254 0.06490583 0.0030939835 -0.15694919 -0.059829608 0.13038978 -0.0924777
0.0128183635 -0.056062263 0.10287087 -0.039263114 0.058615 -0.098852254 -0.0653189 0.12093087
-0.06160035 0.15267481 -0.11996253 -0.17145798 0.1716179 -0.009690897 0.06541532 -0.0045368564
0.11791541 0.05670176 0.15101331 0.1384056 0.09408331 -0.12280924 0.12912409 0.0800114
0.052186336 0.119435795 -0.15513593 -0.041815925 0.16900028 -0.13550346 0.1273027 0.16892733
0.08037715 -0.16741781 -0.044818047 0.1561386 0.07574028 0.079287864 -0.10627507 0.024838295
00000000: 7f9c e1bc 23eb af3d 7b41 3cbd 32c5 1fbe
00000010: 2da7 cf3c 2b83 dd3d bd6b 083e 32a0 8e3d
00000020: 9ae8 073e 8e6f 523e 1400 9d3d 18dc d7bd
00000030: 39c7 353e 8671 02be c5da cdbd b616 263d
00000040: 1d94 9e3e ef47 723e f08e ecbc 4c25 403e
00000050: 6a66 893d 20e3 a3bc 6680 233c 7da0 1cbd
00000060: bc12 1a3e bb9c a3bd 0be6 183e 19db 15bd
00000070: dc91 0bbe ee77 053e 0cb6 2ebc b4da 03be
00000080: 7414 e93d b0a9 313e 0941 4a3e 7683 893e
00000090: db0d d7bd 5d3a cc3c 3b2c 2fbe 9098 b33b
000000a0: d7e4 833c 484f fd3c f6fa c9bb 0b4b dc3d
000000b0: f07e 903d 08ff 873c c7ab a9bd 3e0a df3d
000000c0: 35e6 813d 21d4 e8bc 9811 1a3e 7a12 ba3b
000000d0: a29f c1bd 13ea 02be 1495 e13d ef2c da3d
000000e0: 9d1c 113e b2f9 203d 8d35 153e 99d4 46bd
000000f0: 358c b23c 4bdd c3bd 67dc 98bd 18a5 c8bd
00000100: 301f 293e a944 493e 6c06 11bd 45b7 263e
00000110: 0e28 0f3e ed0f ad3c 36a9 45be d194 28be
00000120: fe14 94bd f8fc 63bc 4be7 d7bd 31a7 c0bd
00000130: d967 213e 9ba1 1e3e 4986 613d 846c 163e
00000140: 96b4 513c 97cf a63d 75cb 5a3e 7bbf a83d
00000150: 8f06 88bc 1ac8 d4bd 1b5b 0bbd 8e9f b33d
00000160: 0b32 e4bd 7abe 5bbd 393f 17bd 37f4 343d
00000170: c46e 013e 4958 9b3c 2d07 63bc ebfc 463d
00000180: 9145 0dbc 315e 33ba 800d a53b 3d77 be3d
00000190: cb9f 433e 1522 883d 825d e93d ae6a cbbc
000001a0: 4508 13bd b96a 803b 5634 d1bd ff3f b63d
000001b0: 5bd4 203e 57e2 893e 614d 063e b13d 153e
000001c0: 87b6 26be d411 103e b1e1 203e 0b80 243e
000001d0: c43b aebc f010 d4bd 85d9 293d c94b 0ebe
000001e0: b05b babd 4999 043e 2064 f53c 0b37 2c3e
000001f0: 9b88 d33c 321d f439 d62d ff3d 5b55 3d3e
00000200: 5a23 0fbd e4e3 9abd d6df d6bd f573 30be
00000210: cd35 3bbe 28e8 2ebe c9f5 fd3d 2204 af3e
00000220: 90d7 5ebc 8c8a 2b3e a115 a1bd 761b 39bd
00000230: 594e fb3d d42c edbd acc1 ae3d 6633 e138
00000240: 330a 303e 73d7 7a3e 0c45 ed3d 81d4 7c3e
00000250: 9ec0 d93d 01ec a9bd edaa 553e dde1 cf3d
00000260: 163e 8c3c 414c 9c3c 5a7b 033d 24db 583d
00000270: b720 b53c b0c2 2f3d 3a42 30be fe9b b53d
00000280: 5e84 a1bd 3796 ca3d 928e 1d3d f20a 443e
00000290: 5c90 19bd 4df2 b53d 62e9 203c 6a60 f6bd
000002a0: 9f54 8fbd 9c09 4c3d 45d9 adbd 4350 2bbe
000002b0: 86b2 fb3c b86a 2f3e a98a cb3c 02e1 0f3e
000002c0: 4988 a8bd 7eb8 b1bd 88aa 223d 3325 f53d
000002d0: 0058 6a3d 914a 193e cea4 16be 79ec 32be
000002e0: 4d79 85bd 863b b23c 5c9d 8ebd e0d2 a13d
000002f0: 3761 aabd 3dfd 193c 391a dd3d da6e 873d
00000300: a143 79be a74f f6bc 7b8e e8bd 2f62 bd3d
00000310: 0057 93be 163f c13d ea6d bf3d 9c50 0abc
00000320: 0fad 1c3e 208c 4b3d 2e85 14bc 4db9 22bc
00000330: 45c6 5f3c 8a08 8fbe 1931 18be 0b87 b03d
00000340: a59f 4f3e 00bd 713e 59ed 843d 6ec4 4a3b
00000350: 4ab7 20be e40f 75bd e684 053e f364 bdbd
00000360: 1d04 523c 8ba1 65bd f6ad d23d 5cd2 20bd
00000370: 4816 703d 0d73 cabd eac5 85bd 9baa f73d
00000380: a650 7cbd c956 1c3e eaae f5bd ae92 2fbe
00000390: 9abc 2f3e 91c6 1ebc 78f8 853d e9a9 94bb
000003a0: a27d f13d 1b40 683d 3ca3 1a3e 33ba 0d3e
000003b0: c0ae c03d 6983 fbbd 1b39 043e 04dd a33d
000003c0: 57c1 553d c19a f43d f4db 1ebe 2d47 2bbd
000003d0: 690e 2d3e 6bc1 0abe a45b 023e 49fb 2c3e
000003e0: c69c a43d 936f 2bbe 2193 37bd cce2 1f3e
000003f0: b81d 9b3d ad61 a23d bea6 d9bd ae79 cb3c

fc11.bias f4 [16]
0.2523447 -0.14879523 -0.00204593 -0.2618204 0.32818726 0.092898086 0.084874205 0.2686828
0.018169098 -0.030471329 0.06694455 0.0875294 0.071354315 0.2498064 0.3152812 -0.20614898
00000000: 5333 813e c75d 18be 0215 06bb 530d 86be
00000010: 2908 a83e 5a41 be3d 87d2 ad3d cb90 893e
00000020: 5cd7 943c 029f f9bc 391a 893d 9d42 b33d
00000030: 3622 923d 40cd 7f3e 8a6c a13e b818 53be

fc12.weight f4 [1, 16]
-0.30195612 0.24600501 0.118588425 0.19423318 -0.37314597 0.18526392 -0.16764748 -0.07662043
-0.033535596 -0.17969179 -0.4614746 -0.22674714 0.24260615 -0.12403345 -0.46045545 0.09767099
00000000: fe99 9abe bde8 7b3e 7dde f23d 10e5 463e
00000010: fd0c bfbe d3b5 3d3e c8ab 2bbe 2ceb 9cbd
00000020: 9f5c 09bd 2001 38be 6646 ecbe 6730 68be
00000030: bf6d 783e 4005 febd d1c0 ebbe ba07 c83d
