trained_models/2022-09-16_21:07:36-GraphSAGE_16_2/base_model.pt (torch, 10511 bytes, 7 tensors)

layers.0.lin_l.weight f4 [16, 14]
0	0xbb1aae4f	-0.0023602431
1	0xbeb7a7c2	-0.35870177
2	0xbd6c7a6f	-0.05773395
3	0xbe7cdbfd	-0.24693294
4	0x3e5a486d	0.2131669
5	0x3e17685c	0.14785904
6	0xbcb16d44	-0.021658547
7	0xbdcf392f	-0.10118329
8	0x3d65bcc5	0.056088228
9	0xbe9c8ce8	-0.30576253
10	0x3ddd882c	0.10816988
11	0xbe54c2f0	-0.20777488
12	0x3d191d92	0.037381716
13	0x3dfaf4b1	0.122537024
14	0x3e3b7dc1	0.1830969
15	0x3e12ecc3	0.1434813
16	0xbe849da2	-0.25901514
17	0x3d51c803	0.051216137
18	0xbe38d394	-0.1804946
19	0xbd8a6e76	-0.0675935
20	0xbe1a5096	-0.15069804
21	0xbe246f08	-0.1605798
22	0x3e4c033f	0.19923113
23	0x3e879082	0.26477438
24	0x3da06ccb	0.078332506
25	0xbe6bd2dd	-0.23029657
26	0x3c57de86	0.013175612
27	0xbe79615c	-0.24353546
28	0xbe33038c	-0.17481822
29	0x3e3f7e2d	0.18700476
30	0xbe215b67	-0.15757523
31	0x3d066d9d	0.03281938
32	0x3cc016cc	0.02344837
33	0xbd2d30fa	-0.042283036
34	0xbe480c00	-0.19535828
35	0xbdd1f636	-0.10252039
36	0x3e595a17	0.21225773
37	0xbde0187c	-0.1094217
38	0x3e5677e2	0.20944169
39	0x3e89b6a2	0.2689715
40	0xbdb14318	-0.08655375
41	0x3df466d7	0.11933678
42	0xbd2cbb77	-0.042170968
43	0x3d9a6681	0.07539082
44	0xbe7405a3	-0.23830275
45	0xbde071b6	-0.10959189
46	0xbc994238	-0.018708333
47	0x3e6b93e5	0.23005636
48	0x3e7ec7ce	0.24880907
49	0xbe0c385d	-0.13693376
50	0xbde2e919	-0.11079616
51	0x3df0f439	0.11765332
52	0x3e0c9891	0.13730074
53	0x3e023395	0.1271499
54	0xbc33be07	-0.010970599
55	0x3cba2f1a	0.022727538
56	0xbe161380	-0.14655876
57	0x3dd7276f	0.10505568
58	0x3e64946e	0.22322246
59	0xbdb02e67	-0.086026005
60	0xbd94528e	-0.072423086
61	0xbdd1fcae	-0.10253273
62	0xbe7ca997	-0.24674068
63	0x3e9772d4	0.29579794
64	0x3df4df08	0.11956602
65	0xbe07b63a	-0.13253108
66	0x3e880555	0.26566568
67	0x3d862948	0.065508425
68	0xbe098d16	-0.13432726
69	0xbe768fe1	-0.24078323
70	0x3e925a63	0.28584585
71	0x3e6d6ff5	0.2318724
72	0xbe5eb895	-0.217501
73	0x3e0f623a	0.14002314
74	0xbdd87811	-0.10569776
75	0xbe22c6fc	-0.15896219
76	0xbe377695	-0.17916329
77	0x3e2a97ef	0.1665952
78	0x3cadba79	0.021207081
79	0x3b3a72ae	0.0028449702
80	0x3e5f7486	0.21821794
81	0x3e23334c	0.15937537
82	0x3d6f2ff6	0.05839535
83	0x3e0f69be	0.14005181
84	0x3d502d06	0.050824188
85	0xbe1606e6	-0.14651069
86	0x3dc6de34	0.09710351
87	0xbe2530ff	-0.16131972
88	0x3bb35555	0.005472819
89	0xbe70e2f2	-0.23524073
90	0x3d8b17fe	0.067916855
91	0xbe1295e8	-0.14314997
92	0x3e30b898	0.17257917
93	0x3e143098	0.14471662
94	0x3def7e44	0.11694005
95	0xbd1ed8b0	-0.038780868
96	0xbe80a99e	-0.25129408
97	0xbe05a677	-0.13051783
98	0xbda97671	-0.08274544
99	0xbe28517e	-0.16437337
100	0x3e1f294b	0.15543096
101	0x3bac3f35	0.0052565583
102	0x3e868eef	0.26280925
103	0xbd391243	-0.04518343
104	0x3c3aff8b	0.011413465
105	0x3d553e83	0.05206157
106	0xbe16cc05	-0.14726265
107	0xbe313a41	-0.17307378
108	0xbdb1bd4c	-0.08678684
109	0x3d01f030	0.0317232
110	0x3e27eedb	0.1639971
111	0x3e632ca1	0.22184993
112	0xbe230226	-0.15918788
113	0x3e5e46e5	0.21706732
114	0xbe00e0dd	-0.12585779
115	0x3e742164	0.23840863
116	0xbe4f7baf	-0.20262025
117	0x3d9759b0	0.073901534
118	0x3e515e46	0.20446119
119	0xbe413e92	-0.18871525
120	0xbd39c0a9	-0.04534975
121	0xbdfc70d5	-0.123262085
122	0x3e4f2636	0.2022942
123	0xbd168a6a	-0.036753096
124	0xbc742289	-0.014900812
125	0xbd5bd902	-0.05367375
126	0xbe14d48b	-0.14534204
127	0xbdedf4ba	-0.116189435
128	0x3e7f7b49	0.24949373
129	0x3e4c9f4e	0.19982645
130	0xbe2349ea	-0.15946165
131	0x3e5e9443	0.21736245
132	0x3b81e929	0.0039645624
133	0x3dc18b74	0.09450427
134	0x3e13ca59	0.14432658
135	0xbd805a26	-0.062671944
136	0x3e30a20b	0.17249314
137	0x3cf3bc95	0.029753009
138	0x3de6cefe	0.112699494
139	0x3ca9e1f3	0.020737624
140	0x3ce697b2	0.028148506
141	0xbcd52730	-0.026019663
142	0xbbf7e3a9	-0.007564981
143	0xbd3e6e05	-0.04649164
144	0xbc45aa4f	-0.0120645305
145	0x3e5c387a	0.21505919
146	0x3e35a0fd	0.17737193
147	0xbe72ca47	-0.23709975
148	0x3d4f3e3d	0.050596464
149	0x3dfc629e	0.12323497
150	0x3e40d844	0.18832499
151	0x3e0bc9e8	0.1365124
152	0x3d973186	0.07382493
153	0xbdb3e693	-0.08784213
154	0xbe47315f	-0.19452427
155	0xba9070b0	-0.0011019912
156	0x3df723cb	0.12067374
157	0xbdd8edf8	-0.10592264
158	0xbd53daec	-0.051722452
159	0x3d9e20f4	0.07721129
160	0x3ddbe18f	0.10736381
161	0x3e3d793f	0.18503283
162	0xbe8a6a57	-0.27034256
163	0x3e423fe1	0.1896968
164	0xbe883c61	-0.26608565
165	0xbe798600	-0.24367523
166	0xbe4debd0	-0.20109487
167	0x3e654b63	0.22392039
168	0x3e879384	0.26479733
169	0x3e73e529	0.23817886
170	0x3d8f49e5	0.06996516
171	0xbe040e72	-0.12896135
172	0xbe3746b2	-0.17898062
173	0x3e71192b	0.23544757
174	0x3e914206	0.28370684
175	0x3e2c3575	0.16817267
176	0x3da614b2	0.08109416
177	0xbe2236c1	-0.158412
178	0x3cd323a3	0.025773829
179	0x3e41126b	0.18854682
180	0x3e06aca0	0.13151789
181	0x3e507dce	0.2036049
182	0x3dcf35dc	0.10117695
183	0x3d98d010	0.0746156
184	0xbb05dee9	-0.0020427054
185	0xbe455d0f	-0.1927378
186	0x3b1b1631	0.002366435
187	0xbe7fe34f	-0.24989055
188	0xbda60d13	-0.081079625
189	0xbcb58079	-0.022155987
190	0x3e286103	0.16443257
191	0xbe6308bb	-0.22171299
192	0xbe6e8e67	-0.2329651
193	0xbe49422d	-0.1965415
194	0x3e522638	0.20522392
195	0xbe43b779	-0.19112958
196	0xbe289161	-0.16461708
197	0xbdf7a0fc	-0.12091252
198	0xbe4478df	-0.19186734
199	0xbddd39ad	-0.108020164
200	0xbcaae0da	-0.02085917
201	0x3bf9b407	0.007620338
202	0x3e762a02	0.24039462
203	0xbd23e4ee	-0.040013246
204	0x3d18a4a6	0.037266396
205	0x38423b85	4.6308636e-05
206	0x3db7a931	0.089678176
207	0x3d670613	0.056402277
208	0x3e111e94	0.14171821
209	0x3e1cf2f6	0.15327057
210	0x3dc4581e	0.095871195
211	0xbe77f854	-0.24215823
212	0x3e8989fd	0.2686309
213	0xbdfd6375	-0.123724855
214	0xbc3f55e7	-0.011678196
215	0x3e1b19ba	0.15146533
216	0x3e3a21d3	0.18176965
217	0x3d117bd6	0.03551849
218	0x3d816345	0.06317762
219	0x3d1ba27a	0.037996747
220	0x3de2c375	0.11072437
221	0xbe3fdd2a	-0.18736711
222	0xbe20281d	-0.15640302
223	0xbe3a04f1	-0.18165947

layers.0.lin_r.weight f4 [16, 14]
0	0x3e6299a8	0.22128928
1	0x3cf29622	0.029612605
2	0xbe48eb03	-0.196209
3	0xbdef745d	-0.116921164
4	0x3e70bee2	0.23510316
5	0x3e94d621	0.29069617
6	0x3dc40c68	0.09572679
7	0x3cb79a1d	0.022412354
8	0x3d8c1c8b	0.06841382
9	0x3e62274b	0.22085302
10	0xbe18a16d	-0.14905329
11	0x3e188e2c	0.14897984
12	0x3ea06364	0.3132583
13	0x3e3ade7e	0.18248937
14	0xbda4a9d5	-0.080402054
15	0xbe256379	-0.16151227
16	0x3e0a99d0	0.13535237
17	0xbe851a73	-0.25996742
18	0x3d61af19	0.055098627
19	0xbe130038	-0.14355552
20	0x3c8a15c9	0.016856091
21	0x3e2bfa59	0.16794719
22	0x3e2f877e	0.1714153
23	0x3e1dcd4b	0.15410344
24	0x3dfc85a7	0.1233018
25	0xbdaf9969	-0.085741825
26	0x3d9e6872	0.07734765
27	0xbe1ceacd	-0.15323944
28	0x3dd207a0	0.102553606
29	0x3e73ddad	0.23815031
30	0x3e0e1b31	0.1387756
31	0x3e094578	0.13405406
32	0xbdef7732	-0.116926566
33	0xbe09970e	-0.13436529
34	0x3e85dfb3	0.2614723
35	0xbe5e75e3	-0.21724658
36	0xbcc131e5	-0.023583362
37	0xbe4c3f71	-0.19946076
38	0x3e8bd1b6	0.27308434
39	0x3b24db19	0.0025155006
40	0xbe2afbc1	-0.16697599
41	0x3e0f2235	0.13977893
42	0x3e78e61d	0.24306531
43	0xbe2d6ced	-0.16936083
44	0xbe1c9287	-0.15290271
45	0x3e27bc49	0.16380419
46	0xbe5a16d7	-0.21297775
47	0xbeb65c61	-0.35617355
48	0xbe584efa	-0.21123877
49	0xbe15b950	-0.14621472
50	0xbe729003	-0.23687749
51	0xbe1d77af	-0.15377687
52	0x3d80aa61	0.06282497
53	0xbe288c03	-0.1645966
54	0xbb5690bf	-0.0032740084
55	0xbe57989f	-0.21054314
56	0x3cb75e25	0.022383759
57	0xbe7b5076	-0.24542412
58	0xbd9564c6	-0.07294612
59	0xbd869733	-0.06571808
60	0x3dd58ed3	0.10427632
61	0xbe649516	-0.22322497
62	0x3b988a1e	0.0046551367
63	0xba29facc	-0.000648421
64	0xbdef7f8c	-0.116942495
65	0x3e5e208e	0.21692106
66	0x3df4cebb	0.11953493
67	0xbdabe311	-0.08392919
68	0xbe739756	-0.23788199
69	0x3e6b4915	0.22977097
70	0xbe2b19ee	-0.1670911
71	0x3d071b41	0.032984976
72	0xbe158a35	-0.14603503
73	0x3e2fdda0	0.17174387
74	0x3e517c73	0.2045763
75	0x3e2f1d81	0.17101099
76	0x3e816fee	0.25280708
77	0x3e42b944	0.19015986
78	0x3d81fc7a	0.06346984
79	0x3e37d20a	0.17951217
80	0x3d822f3e	0.06356667
81	0x3d3ab2c7	0.04558065
82	0x3dbc11e9	0.091831036
83	0x3d45e177	0.048310723
84	0xbd9095be	-0.07059811
85	0x3e356f38	0.17718208
86	0x3dd64229	0.10461838
87	0x3dc7f62f	0.09763753
88	0xbd22d41a	-0.039753057
89	0xbe80c974	-0.25153697
90	0x3e114e3e	0.14190003
91	0x3e853aa6	0.26021308
92	0x3cd0ff94	0.025512494
93	0xbe73ca7d	-0.23807712
94	0xbc018587	-0.007905371
95	0x3e1582d5	0.1460069
96	0x3db0ac0f	0.086265676
97	0x3e2cb1c3	0.16864686
98	0x3e96e34b	0.29470286
99	0x3e0cfef2	0.13769129
100	0xbe0ca906	-0.13736352
101	0xbe856995	-0.26057115
102	0xbdfbb1f2	-0.122898
103	0x3eb08b7f	0.34481427
104	0xbda67879	-0.08128447
105	0x3d846c56	0.06465976
106	0x3dfd9efe	0.12383841
107	0xbe9c3113	-0.3050619
108	0xbe4a7f9d	-0.19775243
109	0x3e3561d7	0.17713104
110	0xbe806af1	-0.2508159
111	0xbe86372c	-0.26213968
112	0xbe64c813	-0.22341947
113	0x3e0c19e9	0.13681759
114	0xbe9b5365	-0.30337062
115	0x3e55eb83	0.20890622
116	0xbe3485d8	-0.17629182
117	0x3e457742	0.19283774
118	0x3db3014d	0.087404825
119	0x3ea723d6	0.32644528
120	0xbd87837f	-0.06616878
121	0x3e7d80fc	0.24756235
122	0x3e22cac1	0.15897657
123	0xbe32412a	-0.1740767
124	0xbc90954d	-0.017649317
125	0xbdffa74d	-0.12483082
126	0xbe743ed0	-0.23852086
127	0xbe98eea6	-0.29869574
128	0xbd967fde	-0.073486075
129	0x3e65d528	0.22444594
130	0xbe4a2db4	-0.19743997
131	0x3e81d943	0.2536107
132	0x3e3c44a8	0.18385565
133	0x3db62d33	0.0889534
134	0x3d65f047	0.05613735
135	0x3e5d4979	0.21610059
136	0xbe895ff3	-0.26831016
137	0xbe61bfd8	-0.22045839
138	0xbc09f875	-0.008421053
139	0x3cc38eb5	0.023871759
140	0xbe1a28d7	-0.15054642
141	0x3e89b8b3	0.26898727
142	0xbe929222	-0.28627115
143	0xbe32d495	-0.17463906
144	0x3d5b11dd	0.053483833
145	0x3e81958e	0.25309414
146	0xbe11a495	-0.1422294
147	0xbded4fef	-0.11587512
148	0xbe60d176	-0.21954903
149	0x3e328cdf	0.1743655
150	0x3d9fb49e	0.07798122
151	0xbc55842e	-0.013032002
152	0x3cd69bb0	0.026197284
153	0x3e7ef5d4	0.24898463
154	0xbdeb65c3	-0.11494019
155	0xbda14db9	-0.078761525
156	0x3e850f7e	0.25988382
157	0x3e39f226	0.18158779
158	0xbd61ada1	-0.055097226
159	0x3e32553f	0.17415331
160	0x3d6360ea	0.055512346
161	0xbdf9baba	-0.121938184
162	0x3e340561	0.17580177
163	0xbe8e80c7	-0.27832624
164	0x3cc7d11f	0.024391709
165	0x3e51047c	0.20411867
166	0x3e0a859e	0.13527533
167	0xbd4c5f3a	-0.049895503
168	0xbe136cb6	-0.14396939
169	0x3e577227	0.2103964
170	0xbe92fa40	-0.2870655
171	0x3d8e978b	0.06962498
172	0xbd8b86a1	-0.06812788
173	0xbe979ded	-0.29612675
174	0x3dec25ac	0.11530623
175	0x3de91bce	0.113822564
176	0x3e881fe1	0.26586822
177	0xbe2d877c	-0.16946214
178	0xbc3d6d77	-0.011561743
179	0xbde5920c	-0.11209497
180	0xbe00c997	-0.125769
181	0xbd5f8580	-0.054570675
182	0xbc852164	-0.016251273
183	0xbd1f355f	-0.038869258
184	0x3e7ab7c6	0.24484167
185	0xbe2460b1	-0.1605251
186	0xbe64c836	-0.22342
187	0xbda956a7	-0.08268481
188	0xbe0c6f93	-0.13714437
189	0xbdca8004	-0.09887698
190	0xbdef8464	-0.116951734
191	0xbddb206e	-0.10699545
192	0x3e0f759e	0.14009711
193	0xbc92ede1	-0.017935695
194	0xbe23af05	-0.15984733
195	0xbd83deeb	-0.064390026
196	0xbe38dc0d	-0.18052693
197	0x3e5c0898	0.21487653
198	0xbe7b7c84	-0.24559218
199	0x3dfb5a92	0.12273134
200	0x3d590cd0	0.052990735
201	0x3e9b1044	0.30285847
202	0xbe21c6ff	-0.15798567
203	0x3e661878	0.22470272
204	0x3e3d0f22	0.18462804
205	0xbd5a9866	-0.053367995
206	0xbadcfc6c	-0.0016859896
207	0xbe78e1b0	-0.24304843
208	0x3c957ff1	0.018249484
209	0x3d4b4d26	0.04963412
210	0xbdc2ea85	-0.09517387
211	0xbd5d2fe2	-0.054000743
212	0x3e948c4a	0.29013282
213	0xbe879dab	-0.2648748
214	0x3de8aabe	0.113606915
215	0x3c8d7bc3	0.017270928
216	0x3e22e706	0.15908441
217	0xbd2d2ccd	-0.042279053
218	0x3df32e99	0.11874122
219	0x3b5dce2d	0.0033844814
220	0xbd885545	-0.06656889
221	0xbe91515e	-0.2838239
222	0x3c9a932f	0.01886901
223	0x3dceeef8	0.101041734

layers.1.lin_l.weight f4 [32, 16]
0	0xbdbb0646	-0.09132056
1	0xbdd32b55	-0.10310999
2	0xbdebbbce	-0.1151043
3	0x3e84067a	0.2578619
4	0x3e1d5cec	0.15367478
5	0xbcfd335e	-0.030908283
6	0x3e39b8a4	0.18136841
7	0x3dde40eb	0.10852226
8	0xbe8c2615	-0.27372804
9	0xbd97a5f4	-0.074047
10	0x3b80bd55	0.00392882
11	0x3e1f77a4	0.15572983
12	0x3b4daeab	0.0031384628
13	0xbcd4aede	-0.02596229
14	0xbe9fed06	-0.31235522
15	0x3e238dcf	0.15972064
16	0x3e7589c7	0.23978339
17	0xbe2a4414	-0.16627532
18	0x3d4bcfba	0.04975865
19	0xbe1b48d1	-0.15164496
20	0x3e26097c	0.16214556
21	0xbe34c39c	-0.17652744
22	0xbcb4c4d5	-0.022066513
23	0x3c5fd247	0.013660974
24	0xbd651893	-0.05593164
25	0x3dae7efd	0.08520315
26	0xbda6ead6	-0.0815026
27	0x3d4f1e9c	0.0505663
28	0xbc6bb127	-0.014385498
29	0x3d1ea71c	0.038733587
30	0x3dd77f6f	0.10522353
31	0xbd2aaddd	-0.041669715
32	0x3d2bb115	0.041916925
33	0x3d73b7b6	0.059501372
34	0xbd87e29c	-0.06635019
35	0x3dec8ad8	0.1154992
36	0xbddfdf30	-0.109312415
37	0x3da01005	0.078155555
38	0xbdb70d88	-0.08938128
39	0xbd2d1d37	-0.04226419
40	0xbe15b432	-0.1461952
41	0x3cdddcc1	0.027082803
42	0x3e627b0e	0.22117254
43	0x3e760be8	0.2402798
44	0xbe8f0820	-0.27935886
45	0xbdf14d0c	-0.11782274
46	0xbd5d1143	-0.05397154
47	0x3e4cce14	0.20000488
48	0xbc996c43	-0.018728381
49	0xbe1e03cf	-0.1543114
50	0x3c9f3771	0.019435616
51	0xbe4b582d	-0.19857855
52	0xbe3000d9	-0.17187823
53	0xbe2a7a49	-0.1664821
54	0x3e4b0e7e	0.19829747
55	0x3e0fc408	0.14039624
56	0xbe717ed5	-0.23583539
57	0xbcbc064b	-0.02295222
58	0x3e130a53	0.14359407
59	0x3e7f3044	0.24920756
60	0xbbe8262b	-0.007084628
61	0xbd28fcd7	-0.041256752
62	0x3e43d2ad	0.19123335
63	0x3e5de8f5	0.21670897
64	0xbe597290	-0.21235108
65	0xbdc568e4	-0.09639147
66	0x3d7e3ea0	0.062071443
67	0xbd172098	-0.03689632
68	0x3df4b314	0.11948219
69	0xbdf001e4	-0.117191106
70	0x3e78ae8e	0.24285337
71	0xbd9757fc	-0.073898286
72	0x3d4649b0	0.048410118
73	0x3de48d28	0.11159736
74	0xbd59ec58	-0.05320391
75	0xbda9608c	-0.08270368
76	0xbe154368	-0.14576495
77	0x3e69d9bc	0.22836965
78	0xbd2e0e18	-0.04249391
79	0xbe2b5236	-0.1673058
80	0xbdd3708c	-0.10324201
81	0x3da75ff8	0.081726015
82	0xbdfd42cc	-0.12366256
83	0x3e242725	0.16030557
84	0x3dbe7ebc	0.093015164
85	0x3e0c0cc2	0.13676742
86	0x3c905fa0	0.017623723
87	0xbe0e3aca	-0.13889614
88	0xbdd4f9ca	-0.10399206
89	0xbe3f6fe8	-0.18695033
90	0xbc27655b	-0.010217036
91	0x3e4edc2c	0.20201176
92	0xbe05738e	-0.13032362
93	0xbe4c25ca	-0.1993629
94	0x3d03d940	0.032189608
95	0xbe0ec370	-0.13941741
96	0x3e81edfb	0.25376877
97	0x3e2c98a3	0.16855101
98	0x3e9213de	0.28530782
99	0x3db83b86	0.08995728
100	0xbe5d8997	-0.21634518
101	0x3dc5d171	0.096590884
102	0xbe5dc16f	-0.2165582
103	0x3ebe572b	0.3717588
104	0x3e1b51cf	0.15167926
105	0x3e690f80	0.22759819
106	0xbd9cf172	-0.076632395
107	0x3e374ac3	0.17899613
108	0x3d093c0d	0.033504535
109	0x3dfd29c5	0.123614825
110	0xbe41b564	-0.18916851
111	0xbceb160a	-0.028697032
112	0x3d3f7660	0.04674375
113	0xbdd60494	-0.10450092
114	0x3d902c1c	0.07039663
115	0xbe4fca22	-0.20291951
116	0xbdc624b4	-0.09674969
117	0xbe4cf5c4	-0.20015627
118	0x3e33766e	0.17525646
119	0x3db75a84	0.08952811
120	0x3df6e6bc	0.12055728
121	0xbe45f3a2	-0.1933122
122	0xbd419510	-0.047261298
123	0xbe7d07d2	-0.24710014
124	0x3e6571d8	0.22406709
125	0xbe64b4c6	-0.22334585
126	0x3bd1ae40	0.006398946
127	0xbe0afb80	-0.13572502
128	0xbd1a8154	-0.037720993
129	0xbde47954	-0.11155954
130	0xbd44a0c4	-0.04800488
131	0xbdd53a35	-0.10411493
132	0x3e787fa1	0.24267437
133	0x3e702a5d	0.2345366
134	0x3dfe4e6f	0.12417304
135	0x3dae8c78	0.08522886
136	0xbe3059a0	-0.17221689
137	0x3d863754	0.06553522
138	0xbe24c531	-0.16090848
139	0xbe8e5544	-0.27799428
140	0xbdd12b67	-0.102133565
141	0xbe36074e	-0.17776224
142	0xbe10fe18	-0.14159429
143	0xbdcef765	-0.101057805
144	0x3ddc853b	0.10767599
145	0xbe744e53	-0.23858003
146	0xbdc1367d	-0.09434221
147	0x3d6a621b	0.057222467
148	0x3cf51b93	0.029920375
149	0x3e7554d7	0.23958145
150	0xbe2d7762	-0.16940072
151	0x3e4fc3c8	0.20289528
152	0xbdd36420	-0.10321832
153	0xbe0887ee	-0.13333103
154	0x3e5f5a03	0.2181168
155	0x3e0589b0	0.13040805
156	0xbe2a0221	-0.16602375
157	0x3e5ce46b	0.2157151
158	0x3d1237ca	0.035697736
159	0xbd00e076	-0.031464063
160	0x3dcc0f25	0.09963826
161	0x3e26051c	0.16212887
162	0xbe084c46	-0.13310346
163	0x3e2fe7fb	0.17178337
164	0xbdd8cda7	-0.105861
165	0x3db6e94e	0.08931218
166	0xbe1d0080	-0.15332222
167	0x3ccccba5	0.024999449
168	0xbc9a652a	-0.018847067
169	0x3e7911e6	0.24323234
170	0xbcafc431	-0.021455856
171	0xbdfe96dd	-0.12431119
172	0xbdacd762	-0.084395185
173	0x3db5fed3	0.088864945
174	0xbe0466a5	-0.12929781
175	0xbe4d601c	-0.20056194
176	0x3e8129b8	0.2522714
177	0x3e099fbf	0.13439845
178	0x3e1d2a43	0.15348153
179	0xbdeb7916	-0.11497705
180	0xbe0ea835	-0.13931353
181	0x3d9c27c5	0.07624773
182	0x3e7f73a1	0.24946453
183	0x3ea8796e	0.32905143
184	0x3d5d0c8e	0.05396705
185	0xbd8c53d2	-0.06851925
186	0x3c89871c	0.016788058
187	0xbc8b9f2f	-0.017043678
188	0xbe3780c2	-0.17920211
189	0x3ddd5d2f	0.10808789
190	0x3df2a2d7	0.118474655
191	0x3e113429	0.14180054
192	0xbde56af3	-0.112020396
193	0x3dec3f79	0.11535544
194	0x3e3c1009	0.18365492
195	0x3ca951ee	0.02066895
196	0xbe158052	-0.14599732
197	0xbe08250a	-0.1329538
198	0xbe2e8040	-0.17041111
199	0x3ea4d3b5	0.3219277
200	0xbd570e80	-0.052504063
201	0xbdf39f04	-0.11895564
202	0x3daff987	0.085925154
203	0xbe3fd80d	-0.1873476
204	0xbe885b4e	-0.2663216
205	0x3e54535f	0.20734929
206	0xbe88ed2a	-0.26743442
207	0x3e2afdc9	0.16698374
208	0x3c0e69da	0.008692229
209	0x3e4ef322	0.20209935
210	0xbdf43a98	-0.11925238
211	0x3e1780d1	0.14795233
212	0x3e04ab77	0.12956034
213	0x3e7d7fdb	0.24755804
214	0x3e440f86	0.19146547
215	0x3cad0606	0.021121036
216	0xbe38f14b	-0.18060796
217	0x3d10039b	0.03515969
218	0x3e1aa991	0.15103747
219	0x3acf29cc	0.0015805303
220	0xbdd02a81	-0.10164357
221	0xbc5035a0	-0.012708098
222	0x3e8cc0b8	0.27490783
223	0x3e534caa	0.20634714
224	0x3e8a5254	0.27015936
225	0xbdc4f9b6	-0.09617941
226	0x3d9b0b1b	0.075704776
227	0x3e0e2a56	0.13883337
228	0x3d933b77	0.071890764
229	0x3e00c49f	0.12575005
230	0xbe64c15f	-0.2233939
231	0x3e51709d	0.20453115
232	0xbe5bb1ed	-0.21454592
233	0x3d20adbb	0.039228182
234	0x3e6026ba	0.21889773
235	0x3e4a8920	0.19778872
236	0xbe673413	-0.22578458
237	0x3d793f59	0.06085143
238	0x3e238010	0.1596682
239	0x3e7d9c34	0.24766618
240	0xbe2473c6	-0.16059789
241	0xbe0a7b7c	-0.13523668
242	0x3dfac23b	0.12244078
243	0xbc7e42b8	-0.015518837
244	0x3df4d394	0.11954418
245	0x3dab2bfd	0.083579995
246	0xbe9a7d5a	-0.3017376
247	0x3e627ecc	0.22118682
248	0x3e2d6dce	0.16936418
249	0x3e528cbc	0.20561498
250	0xbdb6a051	-0.08917297
251	0xbe48d198	-0.19611204
252	0x3d30c896	0.043160044
253	0x3d0b32bf	0.033983942
254	0xbe172ba5	-0.14762743
255	0x3defacb5	0.11702863

layers.1.lin_r.weight f4 [32, 16]
0	0xbe589af9	-0.21152867
1	0xbe3b7859	-0.18307628
2	0xbe06e53f	-0.13173388
3	0x3e22384b	0.15841787
4	0x3e0a6e11	0.1351855
5	0xbde5e8b7	-0.112260275
6	0x3e86ac8d	0.2630352
7	0x3e88a290	0.26686525
8	0xbe86072d	-0.2617735
9	0xbe5291ec	-0.20563477
10	0xbe14087c	-0.14456362
11	0xbe938865	-0.28814998
12	0x3ddd0ad7	0.10793083
13	0xbe9d55bc	-0.30729473
14	0x3e69155c	0.22762054
15	0xbe581653	-0.21102266
16	0x3d5118e5	0.051049132
17	0x3e1aba51	0.15110137
18	0xbd34401b	-0.04400645
19	0x3de75b8f	0.1129676
20	0x3decf014	0.11569229
21	0x3e8195ee	0.253097
22	0xbec59b2e	-0.38594955
23	0x3e7e90d4	0.24859935
24	0xbe514839	-0.20437707
25	0xbc86b1a5	-0.01644213
26	0x3d85c9fc	0.06532666
27	0xbc03371e	-0.008008746
28	0xbcf32456	-0.029680412
29	0x3cf46ee3	0.029838031
30	0xbd958ed3	-0.07302632
31	0x3d4a9548	0.049458772
32	0x3e4a284a	0.19741932
33	0xbe6fd344	-0.23420435
34	0x3e5c7816	0.21530184
35	0xbd7ceb43	-0.0617478
36	0x3e133459	0.14375438
37	0xbc97ec21	-0.018545212
38	0x3e173cc2	0.14769271
39	0x3e3a2d92	0.18181446
40	0xbbe91ec7	-0.0071142646
41	0x3da89fce	0.08233605
42	0xbe05e2d0	-0.13074803
43	0xbd345e68	-0.044035345
44	0xbe29a441	-0.16566564
45	0x3e7784f0	0.24171805
46	0x3e2497e0	0.1607356
47	0xbc7cb991	-0.015425102
48	0xbdbb16fd	-0.09135244
49	0x3e43a0d3	0.19104318
50	0x3dcfa04b	0.10137995
51	0x3e0a08ce	0.13479921
52	0xbdb4b396	-0.08823316
53	0x3e1126fb	0.14175026
54	0x3e011d9b	0.1260895
55	0xbe915d9d	-0.28391734
56	0xbe3327d9	-0.1749567
57	0xbdfe764a	-0.124249056
58	0xbd2e669e	-0.042578332
59	0x3ccdd2c2	0.025124911
60	0xbd11a54e	-0.035558037
61	0x3dc52684	0.09626487
62	0xbe93116b	-0.28724226
63	0x3dcb421d	0.099247195
64	0xbdeb50d0	-0.11490023
65	0xbe4bd452	-0.19905213
66	0x3e6473c4	0.22309786
67	0xbe6bd102	-0.23028949
68	0xbd230ff0	-0.03981012
69	0x3e498d3c	0.19682783
70	0xbd24f0c8	-0.04026869
71	0xbdbd1730	-0.09232938
72	0xbe475f86	-0.19470033
73	0xbe348918	-0.17630422
74	0xbe08b99a	-0.13352051
75	0xbcbdd9c0	-0.02317512
76	0xbe533bca	-0.20628276
77	0xbde54360	-0.111944914
78	0x3d56ec30	0.05247134
79	0xbe5b633c	-0.21424574
80	0x3da2414f	0.07922613
81	0xbe47febe	-0.1953077
82	0xbd88d6f0	-0.06681621
83	0xbcc25ee0	-0.02372688
84	0xbcc3a690	-0.023883134
85	0xbe22b27b	-0.15888397
86	0x3d1795e0	0.037008166
87	0xbe53faf9	-0.20701207
88	0xbbe401c0	-0.0069582164
89	0xbe278ff2	-0.16363505
90	0xbe5ff842	-0.21872047
91	0xbc237973	-0.009977686
92	0x3c2de860	0.010614485
93	0x3e23bb04	0.1598931
94	0x3e22706e	0.15863201
95	0xbd800446	-0.06250815
96	0x3e17498c	0.1477415
97	0x3e110d36	0.14165196
98	0x3dc759b4	0.097339064
99	0xbe51cfae	-0.2048938
100	0x3d24bb6f	0.040217813
101	0x3d5eb980	0.054376125
102	0xbe081144	-0.13287836
103	0x3d01f019	0.031723116
104	0x3e24d6af	0.1609752
105	0xbda652fb	-0.08121296
106	0xbdb7afae	-0.08969055
107	0x3e2af5fd	0.166954
108	0xbd965bca	-0.07341726
109	0x3bf07a44	0.007338794
110	0x3d645cc0	0.055752516
111	0xbe22cc17	-0.15898167
112	0xbd55ef48	-0.05223015
113	0xbe69fd44	-0.2285052
114	0xbdaf9714	-0.08573738
115	0xbe445bb4	-0.19175607
116	0x3dbda78c	0.09260473
117	0xbe1bcc74	-0.15214711
118	0xbe073ea4	-0.13207489
119	0xbcfb4cd0	-0.030676275
120	0xbe09fb48	-0.13474762
121	0xbdcde590	-0.10053551
122	0xbe32c9b4	-0.17459756
123	0x3e59d4ac	0.21272534
124	0xbe6eec9c	-0.23332447
125	0x3cce0df0	0.02515313
126	0xbdf77584	-0.12082961
127	0xbdadafc4	-0.0848079
128	0x3ec10e00	0.37705994
129	0xbc94d130	-0.018166155
130	0x3e23c9d1	0.15994956
131	0x3b02783c	0.001990809
132	0xbe8bfaa2	-0.27339655
133	0x3b3778d3	0.00279956
134	0x3db67083	0.08908179
135	0x3e81dc30	0.25363302
136	0xbe8bbb7d	-0.2729148
137	0xbda64edf	-0.08120512
138	0x3e96ca57	0.29451248
139	0x3da61cdd	0.08110974
140	0xbc315ea3	-0.010825786
141	0x3e2963a7	0.1654192
142	0xbe1c277d	-0.15249439
143	0x3d9c1aeb	0.07622322
144	0xbe3ffa44	-0.18747813
145	0x3e7f4fc4	0.24932772
146	0xbd21782c	-0.039421245
147	0x3d9b304f	0.075775735
148	0x3db79099	0.08963127
149	0x3e1b63d6	0.15174803
150	0x3daa57b2	0.08317508
151	0x3ec76fd4	0.38952506
152	0xbde1c1e7	-0.11023312
153	0x3e83f9d6	0.25776547
154	0x3dac5fc2	0.08416702
155	0x3e7d860e	0.24758169
156	0xbe0f6136	-0.14001927
157	0xbdf408ec	-0.11915764
158	0x3e5ce700	0.21572495
159	0x3dd5747b	0.104226075
160	0x3dc138c4	0.09434655
161	0x3e4064d1	0.18788458
162	0x3e975ab7	0.29561397
163	0xbdaeeab2	-0.08540858
164	0x3e55969f	0.20858239
165	0x3e18c1e0	0.14917707
166	0xbe56d08f	-0.20977996
167	0x3ec0a8d4	0.37628806
168	0xbc936761	-0.01799363
169	0x3e660a71	0.2246492
170	0xbdad8f1d	-0.08474562
171	0x3c946791	0.01811579
172	0xbdea15f2	-0.11429967
173	0xbe1f24be	-0.1554136
174	0x3e623385	0.22089966
175	0x3e55d058	0.20880258
176	0x3e22bae3	0.15891604
177	0x3dcb8e28	0.099392235
178	0xbdc95ade	-0.09831785
179	0x3c35fff3	0.011108386
180	0xbd53e931	-0.05173606
181	0x3db8a8d8	0.090165794
182	0x3e4dbded	0.20091982
183	0x3ec48bfb	0.38388047
184	0x3c8cbdfd	0.017180437
185	0xbe65bb27	-0.22434674
186	0x3dcf3732	0.101179495
187	0xbda7fe79	-0.08202834
188	0xbe502634	-0.20327073
189	0xbe1b2f0e	-0.15154669
190	0xbdeb3288	-0.114842474
191	0x3e016774	0.1263712
192	0xbe4f369e	-0.20235679
193	0xbe54777b	-0.20748703
194	0x3d35a9fe	0.04435157
195	0xbe7289ac	-0.2368533
196	0xbc334e77	-0.010944
197	0x3e5e55f0	0.2171247
198	0x3e2ce4dc	0.16884178
199	0xbe2163d6	-0.1576074
200	0x3e63a80e	0.22232077
201	0xbd548a26	-0.05188956
202	0xbd61d842	-0.05513788
203	0xbe1c8c40	-0.15287876
204	0xbba3133c	-0.004976658
205	0x3e166f85	0.14690979
206	0x3e75160b	0.2393419
207	0xbe2140a1	-0.1574731
208	0x3daa604d	0.08319149
209	0xbe7622c7	-0.24036704
210	0xbdbe3e62	-0.09289242
211	0xbda727b0	-0.08161867
212	0xbe0ab7da	-0.13546696
213	0x3a6234ff	0.0008629113
214	0xbdaa330a	-0.08310516
215	0xbe000995	-0.12503655
216	0x3e827e30	0.25486898
217	0x3d05d4ed	0.032673765
218	0x3e5daeb8	0.21648681
219	0xbe8118c7	-0.25214216
220	0xbd20f2d7	-0.03929409
221	0xbde2b20a	-0.110691145
222	0x3e91152f	0.28336474
223	0x3d85b236	0.06528132
224	0x3e2f08eb	0.17093246
225	0xbe023986	-0.12717256
226	0xbcda118b	-0.026619693
227	0x3de66330	0.11249387
228	0xbe0162ca	-0.12635341
229	0xbde285b2	-0.110606566
230	0x3e43acfd	0.19108959
231	0x3ec39051	0.38196042
232	0x3d60b383	0.054858696
233	0xbe39fa9a	-0.18162003
234	0xbe0c1fdf	-0.13684033
235	0x3e87db07	0.26534292
236	0x3e29e572	0.16591433
237	0xbda298d1	-0.07939304
238	0x3dbb7379	0.09152884
239	0x3e84c982	0.25934988
240	0x3d8191e1	0.06326652
241	0x3d6dd405	0.058063526
242	0x3eb10039	0.34570482
243	0xbe63c9ee	-0.22244999
244	0xbe630a1a	-0.22171822
245	0x3e30f1df	0.17279766
246	0xbe113be8	-0.14183009
247	0xbe5d6977	-0.21622263
248	0x3dd778a2	0.10521056
249	0xbe08165d	-0.13289781
250	0x3ce04e21	0.027381005
251	0xbe1d8a01	-0.15384676
252	0xbd556e3a	-0.052107073
253	0x3dda6559	0.10663862
254	0x3d8f7267	0.070042424
255	0xbd28a51d	-0.04117309

fc11.weight f4 [16, 32]
0	0xbd0f93db	-0.035053115
1	0x3e80bf9b	0.25146183
2	0x3b897cc5	0.004195782
3	0x3b95fa65	0.0045769685
4	0xbc4514dd	-0.0120289
5	0x3ca024b3	0.01954875
6	0x3d44cdea	0.048047937
7	0x3e19a568	0.15004504
8	0x3e89a8af	0.26886508
9	0x3d76bb38	0.06023714
10	0x3d7c45a4	0.061589852
11	0x3dc26998	0.09492797
12	0xbdd7a754	-0.10529962
13	0x3d8ebdcf	0.06969797
14	0x3e3066f6	0.17226776
15	0xbe367f20	-0.17821932
16	0xbe0f29b8	-0.13980758
17	0x3e03d9e9	0.12876095
18	0x3e73e0ec	0.2381627
19	0x3de3d476	0.11124508
20	0xbc83f79e	-0.016109284
21	0x3daf4435	0.08557931
22	0xbdf8bbc3	-0.12145188
23	0xbdb27da8	-0.08715373
24	0x3e42a13f	0.19006823
25	0x3e081b3e	0.13291642
26	0x3e9d577d	0.3073081
27	0x3e32f11f	0.17474793
28	0xbdcd5fcf	-0.1002804
29	0xbd1e166f	-0.038595613
30	0x3e198000	0.14990234
31	0x3d2654e9	0.04060832
32	0x3ded5678	0.11588758
33	0x3e4375d9	0.19087924
34	0xbe24295e	-0.16031405
35	0xbe505469	-0.203447
36	0x3ce68d95	0.028143683
37	0x3e316cdb	0.17326681
38	0xbd622908	-0.05521491
39	0xbb2a4a31	-0.0025984163
40	0x3e0392a9	0.12848915
41	0xbe041a86	-0.12900743
42	0xbdda5b3d	-0.106619336
43	0x3dbcf9bd	0.09227321
44	0x3d45976b	0.048240107
45	0x3d4c16fe	0.049826615
46	0xbe0d983b	-0.13827603
47	0xbe9b3e48	-0.30320954
48	0x3e260f57	0.16216789
49	0x3dd1a4e6	0.1023653
50	0x3e886d8a	0.26646072
51	0x3eb29f12	0.34886986
52	0x3b762d5e	0.0037563662
53	0xbd94d1ff	-0.07266616
54	0xbd0ad07e	-0.03389024
55	0x3dc476d5	0.09592978
56	0xbd903d6b	-0.070429645
57	0xbcacd987	-0.021099819
58	0x3e6a19de	0.2286143
59	0x3da65262	0.08121182
60	0x3c3686b5	0.011140515
61	0x3e0fd616	0.14046511
62	0x3e0d22c2	0.1378279
63	0xbda0528d	-0.07828245
64	0x3d1d202c	0.03836076
65	0x3cac3c90	0.021024972
66	0x3e022b11	0.12711741
67	0x3c5a6e64	0.013331983
68	0xbdc03113	-0.0938436
69	0xbd788d5c	-0.060681686
70	0x3dface27	0.12246352
71	0xbcc6fe7e	-0.024291273
72	0x3e898fb8	0.2686746
73	0xbe20773a	-0.15670481
74	0x3e21d801	0.15805055
75	0x3e2b74f2	0.1674383
76	0x3d9cf91e	0.07664703
77	0xbd650da9	-0.05592123
78	0x3e179cb4	0.14805871
79	0xbdbf7231	-0.09347952
80	0x3c836a40	0.016041875
81	0xbe1eaa5e	-0.15494677
82	0x3e83c6da	0.2573765
83	0x3e83afb2	0.25719982
84	0x3c6455ca	0.013936469
85	0xbe00b4e4	-0.12569004
86	0xbd8ed998	-0.069750965
87	0x3db52d7b	0.08846565
88	0x3e47c587	0.19508944
89	0x3d073c5a	0.03301654
90	0x3e9cba83	0.30611047
91	0xbcb042ad	-0.021516168
92	0x3d0d3667	0.03447571
93	0x3dc52930	0.096269965
94	0xbe23e3f6	-0.16004929
95	0x3e256f60	0.16155767
96	0x3daa92ad	0.083287574
97	0x3da3068f	0.07960235
98	0x3d2c018c	0.041993663
99	0xbe2ea62b	-0.17055576
100	0x3e189e81	0.14904214
101	0x3dd75395	0.10513989
102	0x3dc8a238	0.09796566
103	0x3e0bcf97	0.13653408
104	0x3d8549cc	0.06508216
105	0xbcab0bfa	-0.020879734
106	0xbd19e1b1	-0.03756875
107	0xbe140605	-0.14455421
108	0x3daeb5a5	0.0853074
109	0x3e07a523	0.13246588
110	0x3cbb4981	0.022862198
111	0x3d521b4c	0.051295564
112	0xbdf91174	-0.12161532
113	0x3d850341	0.06494761
114	0xbe0adc31	-0.13560559
115	0xbbb29493	-0.0054498403
116	0x3e0a031a	0.13477746
117	0x3e5b5144	0.21417719
118	0xbe3981c2	-0.18115905
119	0x3e59c2d8	0.21265733
120	0x3dbdbfb5	0.09265081
121	0xbe216b06	-0.15763482
122	0xbd82e2b8	-0.063908994
123	0x3d0078c2	0.031365164
124	0x3dba03c9	0.09082753
125	0x3e4cb1ba	0.19989672
126	0x3e2020ff	0.15637587
127	0x3e0e2099	0.13879623
128	0xbe8fb4cb	-0.28067622
129	0x3d5204df	0.051274177
130	0x3e4f33fb	0.20234673
131	0x3e05533d	0.13020034
132	0xbcc25f5e	-0.023727115
133	0xbddc3e9b	-0.107541285
134	0x3e08ec6c	0.13371438
135	0x3da79cfc	0.08184239
136	0x3e50011d	0.20312925
137	0x3e1aa118	0.15100515
138	0x3e08db5f	0.13364933
139	0xbcdfe0cd	-0.027328873
140	0x3c22aa0c	0.009928238
141	0xbe1c9261	-0.15290214
142	0x3e71da24	0.2361837
143	0x3dfdaf33	0.12386932
144	0xbe1c6047	-0.15271102
145	0xbe517708	-0.20455563
146	0x3ed8c22f	0.4233565
147	0x3e47e416	0.19520602
148	0xbba75843	-0.005106957
149	0xbdf49965	-0.1194332
150	0xbda3d36b	-0.07999309
151	0xbdf87f15	-0.12133614
152	0x3dcaed0f	0.099084966
153	0xbc9fdc3d	-0.019514197
154	0x3d0682bc	0.03283952
155	0xbe768344	-0.24073511
156	0xbda2e769	-0.07954294
157	0xbc067f54	-0.008209068
158	0xbc371254	-0.011173803
159	0xbddf25c7	-0.10895877
160	0x3e1c5fbe	0.15270898
161	0xbddf8bf5	-0.109153666
162	0x3dbf98d2	0.0935532
163	0x3dc6787c	0.09690949
164	0x3db4161a	0.08793278
165	0x3e1d3e4b	0.15355794
166	0x3e2897d3	0.16464166
167	0x3df0ded6	0.117612526
168	0xbd9e0a0b	-0.07716759
169	0x3d61576a	0.055015005
170	0x3de3dfc5	0.11126665
171	0x3cb65503	0.022257334
172	0x3ca87039	0.020561324
173	0x3dfd4227	0.12366133
174	0xbc6b9634	-0.014379073
175	0x3dd5b240	0.10434389
176	0xbe337d72	-0.17528322
177	0x3dfdd3d7	0.12393921
178	0xbe0c5164	-0.13702923
179	0xbde3a139	-0.11114735
180	0x3c30c425	0.010788952
181	0x3e47a17b	0.19495194
182	0x3db3cad5	0.087789215
183	0xbd93ecda	-0.0722291
184	0x3d7b98ea	0.061425127
185	0x3d07bd9c	0.03313981
186	0xbe20257a	-0.15639296
187	0x3e2921d7	0.16516815
188	0x3df6c2e9	0.12048895
189	0x3de16b9a	0.110068515
190	0x3e02bd0a	0.12767425
191	0xbdb76f3f	-0.089567654
192	0xbdcb2d1b	-0.099207126
193	0x3e02dbf2	0.12779215
194	0xbd1e09fa	-0.038583733
195	0xbdbe0dc9	-0.09279973
196	0xbd9efc6d	-0.0776299
197	0x3d41091b	0.047127824
198	0xbcaeb509	-0.021326559
199	0x3cf04a5b	0.02933233
200	0xbd9ec49c	-0.07752344
201	0xbbee4006	-0.007270816
202	0xbe111205	-0.1416703
203	0x3d7f8536	0.0623829
204	0xbdaf2eec	-0.085538715
205	0xbe226423	-0.15858512
206	0xbe2e8b66	-0.17045364
207	0xbe0d3dc0	-0.13793087
208	0xbd505938	-0.050866336
209	0x3ce77e7c	0.028258555
210	0xbd0fd2df	-0.03511321
211	0xbd921683	-0.071332
212	0xbe34fc0b	-0.17674272
213	0xbd764c18	-0.060131162
214	0xbde91269	-0.113804646
215	0x3d0786bf	0.03308749
216	0x3e12afb3	0.14324836
217	0xbb3c8793	-0.0028767332
218	0xbe119aab	-0.14219157
219	0xbe249dd0	-0.16075826
220	0x3dbf4db5	0.09340993
221	0x3b10382a	0.0022006133
222	0xbe09e8f8	-0.13467777
223	0x3d675661	0.05647886
224	0xbe9faf13	-0.3118826
225	0x3dadf78a	0.0849448
226	0x3e343529	0.17598404
227	0xbcf0872a	-0.029361326
228	0xbe14d610	-0.14534783
229	0xbd76ca0c	-0.06025128
230	0xbe1dcf78	-0.15411174
231	0x3af3c22c	0.0018597296
232	0x3e9bff9a	0.30468446
233	0xbb934dae	-0.004495344
234	0xbddf63d2	-0.10907711
235	0x3e3005f5	0.17189772
236	0x3e1154c9	0.14192499
237	0x3ddbf857	0.107407264
238	0xbcfc64b4	-0.030809738
239	0xbddaeb61	-0.10689426
240	0x3d74c59b	0.059758764
241	0xbcbd3620	-0.023097098
242	0x3e854720	0.26030827
243	0x3e3a728e	0.18207762
244	0xbe12b611	-0.14327265
245	0x3dd64a5d	0.104634024
246	0xbdde70db	-0.10861369
247	0xbe0c78a4	-0.13717896
248	0xbd4683d6	-0.048465572
249	0x3e785b07	0.24253474
250	0x3dc02708	0.093824446
251	0xbd67e80d	-0.056617785
252	0xbd6fbc07	-0.058528926
253	0xbe154678	-0.14577663
254	0xbe5a4f73	-0.2131937
255	0xbe0a4430	-0.13502574

fc11.bias f4 [16]
0	0x3cdf8fc1	0.027290227
1	0x3e77742a	0.24165407
2	0x3e96d3e3	0.29458532
3	0xbd090164	-0.03344859
4	0x3e54f65a	0.207971
5	0xbd267db9	-0.040647242
6	0xbdc33692	-0.09531893
7	0x3c2aeb8f	0.010432138
8	0x3cf5964d	0.029978896
9	0xbd723f93	-0.05914266
10	0xbda84a40	-0.08217287
11	0xbd075a3a	-0.03304503
12	0xbdfccbf1	-0.12343586
13	0x3c2ee3b0	0.010674402
14	0x3e44d5af	0.19222139
15	0xbe0dc787	-0.13845645

fc12.weight f4 [1, 16]
0	0xbe5d781d	-0.21627851
1	0xbde629a4	-0.11238411
2	0xbd26bb7f	-0.040706154
3	0x3e818036	0.2529313
4	0xbec031d9	-0.3753803
5	0x3e577cfb	0.2104377
6	0xbe75cbac	-0.24003476
7	0xbd2bf4d1	-0.041981522
8	0xbe2a52e1	-0.16633178
9	0x3e3387a8	0.17532218
10	0x3e54e948	0.20792115
11	0x3d6138ef	0.054985937
12	0x3e103b9d	0.1408524
13	0x3d647b3c	0.055781588
14	0xbe3cea7a	-0.1844882
15	0x3e073ff8	0.13207996
